model/keypoint_classifier/keypoint_classifier.tflite (tflite, 6940 bytes, 6 tensors)

sequential/dense/BiasAdd/ReadVariableOp f4 [20]
000000 3a f5 70 bf 92 a4 8e be ed 91 a1 be f0 01 5f bd
       -0.94124186 -0.27859932 -0.31556645 -0.054445207
000010 71 48 4a bf 46 c5 23 3f b2 aa 35 bf 86 9c 2d bf
       -0.79016787 0.6397289 -0.70963585 -0.6781696
000020 a9 34 4c bf dd 30 5c bf 84 44 04 bf 48 0a 1b bf
       -0.79767853 -0.8601206 -0.51667047 -0.6056256
000030 5c 98 0c bf f6 69 70 bf 8f 9a 00 bf 61 2e be be
       -0.5491998 -0.93911684 -0.5023584 -0.3714476
000040 1d 18 c7 be ed d3 9c be 39 76 af be df ac 86 bf
       -0.38885584 -0.30630437 -0.34269884 -1.0521506

sequential/dense_2/BiasAdd/ReadVariableOp f4 [13]
000000 a8 a5 46 bd af 9a 06 3d 30 c2 0a 3f b0 ff 51 3d
       -0.048497826 0.03286236 0.54202557 0.051269233
000010 f4 b7 4e 3d 94 9e 9f 3e 62 9a 9c bf 05 7b 83 be
       0.0504684 0.31175673 -1.2234614 -0.25679794
000020 ed 2d 28 3e 77 ec 33 3e 48 91 79 3e e0 f8 02 bf
       0.1642377 0.17570673 0.24371827 -0.51161003
000030 0a cd e3 be
       -0.4449237

sequential/dense_1/BiasAdd/ReadVariableOp f4 [10]
000000 70 63 85 be fa ef fb be 73 31 3b 3f a0 96 fe bd
       -0.26052427 -0.49206525 0.7312233 -0.12431073
000010 4c 30 85 3c ec 12 95 3e 94 51 95 3f 1e cd 43 3f
       0.016258381 0.29116 1.1665521 0.7648486
000020 5c 17 6f 3f c2 ff 9c 3f
       0.9339502 1.2265551

sequential/dense/MatMul f4 [20, 42]
000000 00 57 6a bb d4 98 2a be eb 7f 57 bf 13 2c 42 bf
       -0.0035757422 -0.16659862 -0.8417956 -0.758485
000010 e1 b9 bb be 6b d3 ef be c4 e0 f8 be 61 2b 9b be
       -0.36665252 -0.46840987 -0.48608983 -0.30306533
000020 14 f7 80 bf ed cb 37 bf 9d 65 dd bd 4e c4 08 3e
       -1.0075402 -0.7179554 -0.10810397 0.13356134
000030 fd d8 f4 bd 51 8e 2c 3e b8 e7 b9 3b 19 03 65 3e
       -0.1195545 0.16851164 0.005673375 0.22364463
000040 f9 62 0a 3e 07 54 4b 3e bf 1e 91 bc 5a 8e a4 3d
       0.13514318 0.19856273 -0.017714856 0.08034964
000050 40 0c c6 bc 69 8f 0f ba 97 e8 35 3d 6b e4 c9 3c
       -0.024175763 -0.0005476387 0.044411268 0.024645051
000060 55 bc d5 bd 4f be 4a 3d 7a b5 85 bd 00 57 2e ba
       -0.10436312 0.0494979 -0.065287545 -0.0006650537
000070 96 02 1a 3e f9 ba 13 bd 5e 66 3b bd 62 ab d6 3b
       0.15040049 -0.036066983 -0.04575192 0.006551192
000080 cf 65 da be a4 6b de 3c 4f 45 06 be 6e 2b f6 bd
       -0.426558 0.027150936 -0.13112377 -0.12020002
000090 5b 83 d2 3e 54 e5 a8 bd e4 b5 95 3e d7 8c 55 ba
       0.4111584 -0.08246866 0.29240334 -0.0008146292
0000a0 3e 41 20 3e c5 98 ae 3c ac 6f 4c 3e 30 e5 b0 3c
       0.15649888 0.02131308 0.19964474 0.02159366
0000b0 c5 4c 31 bd 25 76 e0 be 04 99 6c 3c 79 fb 99 bd
       -0.043286104 -0.43840137 0.014440779 -0.07518668
0000c0 13 71 87 bd 01 40 a0 3d a1 78 04 be 7c 25 15 3e
       -0.06613364 0.07824708 -0.12936641 0.1456508
0000d0 c2 e1 e8 3d c9 fb 6d 3b 2c 5d 1d 3d dd d7 7a 3c
       0.11371185 0.0036313406 0.038418934 0.015310255
0000e0 f3 9f 9e bb fa 7b 50 bc ef 26 2c bc d7 99 83 bd
       -0.004840845 -0.012724871 -0.010507329 -0.06425827
0000f0 32 f7 24 3e 24 22 5d 3d 6c 58 2f bd 3c 19 e3 3d
       0.16109923 0.053987637 -0.042808935 0.110887975
000100 f3 74 a2 bd 60 a7 36 3e 77 da 09 3b e7 de 54 3e
       -0.079324625 0.17837286 0.0021034756 0.20788155
000110 1c c7 18 3e fb c1 b0 3d 3b 55 99 bd 07 95 b2 3d
       0.14919704 0.08630749 -0.074869595 0.08719831
000120 65 8e 10 be 6a d7 2a 3e 54 10 62 bc 9d 39 d7 3e
       -0.14116819 0.16683736 -0.013797838 0.42036143
000130 4e 54 e9 3b e3 19 f8 3d d8 70 0c 3d 41 10 c2 bd
       0.0071206456 0.121143125 0.034287304 -0.094757564
000140 5e af de 3c 2d ab 76 bf 86 7e c3 3d 29 e8 74 bf
       0.027183231 -0.96354944 0.09545617 -0.9566675
000150 04 b5 df bd cb eb 0d be 69 d8 fa 3b 7c e2 11 be
       -0.10923198 -0.13859479 0.0076551926 -0.14246553
000160 b3 a5 4c bd 0a 7c 80 bd 48 47 eb bd 86 1f 7d 3d
       -0.04996271 -0.062736586 -0.11488205 0.06179764
000170 8e e9 e9 bd 32 79 12 3e 8d e3 d4 3d 60 8e 2d 3c
       -0.114215 0.14304045 0.10394964 0.010593027
000180 b7 75 21 3d 27 fc fe 3b 8f 08 19 bd e8 d1 5b 3c
       0.039418902 0.0077815237 -0.037361678 0.013416745
000190 9a 0e 1b bd 80 23 64 3c 46 b4 1e 3e 70 fb 73 3d
       -0.037855722 0.0139244795 0.15498456 0.05956596
0001a0 f9 ce 80 bc 61 49 81 3d 1a 0b e1 bb 0b d0 c2 3d
       -0.015723692 0.06312824 -0.0068677785 0.09512337
0001b0 16 c4 b0 3d e2 6a c5 3d f4 cf 9a 3d 3b 9d 23 3e
       0.086311504 0.09639527 0.07559195 0.15977947
0001c0 37 7e 9b bd 83 af df 3d 58 32 03 3e a9 c9 7f 3d
       -0.07592433 0.10922148 0.12812173 0.062448177
0001d0 5b 6a 6a 3e e5 4f 81 3d 95 fd 7d bd 2b a1 39 3e
       0.22892134 0.06314067 -0.062009413 0.18127887
0001e0 8e 01 23 be 55 6a 17 3e 0b 46 d0 bd 1b 7d cc 3d
       -0.15918562 0.14786656 -0.1016961 0.099847995
0001f0 ff 27 14 3e 68 d4 e3 bf 20 fa 99 3e dc 77 61 3e
       0.14468382 -1.7799196 0.30073643 0.22018379
000200 76 85 88 be 47 f1 93 3d c3 fb 0e be f2 70 92 bc
       -0.26664323 0.072237544 -0.13963227 -0.017876122
000210 d9 51 aa be d2 ec 91 3e 13 15 92 bf ed cb 20 3f
       -0.3326557 0.28500992 -1.1412681 0.62811166
000220 aa 1c 65 be cf 51 10 be 1e 40 60 be bd 7c 14 bd
       -0.22374216 -0.14093708 -0.21899459 -0.036251772
000230 1a a9 65 be bf ba 26 3d 7d e6 51 be b8 63 a9 3d
       -0.22427788 0.04070544 -0.2049808 0.08270973
000240 bf e8 1d be 2c a4 c7 bd 44 09 20 3d 4a d2 55 3d
       -0.15420817 -0.0974811 0.039071336 0.0522025
000250 b2 93 f2 3d ed 67 01 3e 08 50 68 3e 40 34 1e 3e
       0.11844577 0.12637301 0.2268678 0.1544962
000260 18 4c 9f 3d 7f 22 a8 bd 3c 3d 52 bc be 8b be 3d
       0.077781856 -0.082097046 -0.012831982 0.093039975
000270 7f 9d 31 bd aa 08 0b 3e c8 57 75 be fe eb f2 3d
       -0.04336309 0.13577524 -0.23959267 0.11861418
000280 83 5d 99 3e e8 a7 bf bd 13 0d 1b 3f 6e 23 d3 3d
       0.29954156 -0.093581975 0.60566825 0.10309492
000290 da 02 ca 3e c2 55 02 3e 17 c4 d5 3e ff f0 29 3e
       0.394553 0.12728027 0.41751167 0.16595839
0002a0 14 9c 5b 3e 18 08 82 be 80 e6 cf 3d 68 c5 12 3e
       0.21446258 -0.253968 0.10151386 0.14333117
0002b0 d6 b2 ac 3d fc 8a df 3d 4e b3 17 3e af b9 de 3d
       0.08432548 0.10915181 0.14814493 0.1087526
0002c0 03 cf 0f 3e d2 5b 19 3e 09 ac 52 3e 35 f1 69 3d
       0.14043812 0.14976433 0.20573439 0.0571148
0002d0 7f e1 cf 3c 4f 68 ad 3d fc 42 fd bd e6 42 21 3e
       0.02537608 0.08467161 -0.12366292 0.15748176
0002e0 2e 23 23 be da 98 45 3e 79 47 89 3e 5b 90 f8 3c
       -0.15931389 0.1929659 0.26812342 0.030342272
0002f0 05 19 72 3d f1 2d c8 bc 2b bf 3a be 66 09 dd be
       0.05910589 -0.02443597 -0.18236987 -0.43171233
000300 b9 d6 82 be 8e 49 04 bf 3c c2 30 3e f0 c2 c7 3d
       -0.25554445 -0.51674736 0.17261595 0.09753978
000310 fc de a1 3d 29 33 14 be 95 e2 44 bd 4c e6 6d bf
       0.07903859 -0.14472641 -0.048067648 -0.9292953
000320 fe f9 d6 bd 59 db 81 bf 7c e0 75 3e 9d a5 60 3e
       -0.10496901 -1.0145065 0.24011415 0.21938176
000330 16 73 ba 3d 9b 51 99 bd 71 2e 0c bd e9 7e 16 bf
       0.09103982 -0.07486268 -0.034223977 -0.587874
000340 d4 bf 90 be a3 34 29 bf 40 b9 5c 3e 10 2b 6d 3e
       -0.28271353 -0.6609594 0.21555042 0.23160958
000350 f2 98 42 3e 3c 45 2e bf 4c c5 d0 3c 68 eb e3 be
       0.19003657 -0.68074393 0.025484703 -0.44515538
000360 68 f3 32 be e5 13 1b bf b3 46 bc be 34 9d 86 bf
       -0.17475665 -0.6057723 -0.3677269 -1.0516725
000370 9e 7f 23 bf 4e 71 15 be 6a f3 57 be 1b b4 a6 bd
       -0.63866603 -0.14594004 -0.21088949 -0.08139821
000380 87 df 18 3e 0b 26 02 bc 44 99 84 3e af bd 2c 3c
       0.14929019 -0.00794364 0.25898182 0.010543271
000390 5d b3 02 bf 55 9d 2e be ce e9 4f 3d 43 7e ae 3d
       -0.51054937 -0.17052205 0.050760083 0.08520176
0003a0 c8 ec 91 3e a4 36 3e 3e 01 1b 22 3e 3e 66 54 3e
       0.28500962 0.18575531 0.15830614 0.20742127
0003b0 72 d4 ed be a5 16 30 3e 95 af 67 3d f5 b3 91 3e
       -0.46451145 0.17196138 0.056563932 0.2845761
0003c0 d8 b5 9a 3e 92 a6 a7 3e 5f 40 62 3e 33 d2 80 3e
       0.3021686 0.3274427 0.22094868 0.2516037
0003d0 44 91 76 be af 9b 17 3f cf 74 8f bd a1 05 10 3f
       -0.24078852 0.5922193 -0.07004701 0.5625859
0003e0 ba 8d 2c 3e 8f 29 1d 3f 0e f2 60 3d ed b8 f1 3e
       0.1685094 0.6139154 0.05491834 0.472114
0003f0 98 b8 85 3d 10 b5 96 bd f0 de fb ba f5 8f 17 bf
       0.06529349 -0.07358754 -0.0019216221 -0.59204036

sequential/dense_1/MatMul f4 [10, 20]
000000 65 bd 1a 3f d7 17 b2 3e d0 dc 99 3e 73 66 63 3e
       0.60445243 0.34783813 0.3005128 0.2220705
000010 53 7b ef 3e 31 ae 4f 3f ba 89 99 3e ce 27 4e 3f
       0.46773776 0.8112517 0.2998789 0.8052949
000020 f4 10 83 3d 19 51 2e bd fb 31 5c 3f 42 ae 26 3f
       0.06399718 -0.04255781 0.86013764 0.65109646
000030 5a 50 85 3e 2f 4f 5f 3f 92 88 72 3f 4b dd ce be
       0.26037866 0.872302 0.9473964 -0.40403208
000040 88 e4 53 3f 97 4a 2e 3e 89 67 99 3d 96 81 23 3e
       0.82770586 0.17020641 0.07490451 0.15967402
000050 71 26 b2 3e e7 1a b8 3f dc 41 e6 3f 6e 7f 02 3f
       0.34794953 1.438321 1.7988849 0.5097569
000060 20 eb bc 3e c9 0d 75 bd 8e a7 96 3d 15 3c 55 bd
       0.36898136 -0.0598276 0.07356177 -0.05205925
000070 33 82 b1 3e ec 35 98 3d a7 58 63 3f 0a 9d c0 3c
       0.34669647 0.0743216 0.8880715 0.023512382
000080 47 83 8e 3e 73 f9 11 be 41 fb 2f 3f 8f 53 4a 3e
       0.27834532 -0.14255314 0.6874276 0.19758438
000090 45 de 1f bd 8d 62 3c 3f 68 d5 00 bd e7 e3 16 be
       -0.039030332 0.73587877 -0.03145352 -0.14735375
0000a0 34 19 a0 3e 0c 7e ec 3b 0e f4 9b be fc 4c a8 3e
       0.31269228 0.0072171744 -0.30459636 0.32871234
0000b0 07 93 18 3e 56 3a 66 3f b7 a8 c3 3e 36 07 ac 3d
       0.14899836 0.89932764 0.38214657 0.08399813
0000c0 73 d9 a6 be 06 07 9c 3e 6f f2 b7 3e 5d ff 1a bf
       -0.32587776 0.30474108 0.3592715 -0.60545903
0000d0 19 76 96 3d db 01 f6 3d 2c bd be bd dd 8c 1e 3f
       0.07346744 0.12012073 -0.093134254 0.6193369
0000e0 20 86 3a 3c 3d a0 a3 3e ac 27 ab 3e f1 02 1a be
       0.011384517 0.3195819 0.33428705 -0.15040185
0000f0 2d a2 a3 bd 14 98 45 3f bc 18 91 3f ca 97 93 3d
       -0.07989917 0.7718518 1.1335673 0.07206686
000100 66 24 41 3d da d6 b4 bd 37 60 53 3f 47 88 9c 3c
       0.047153853 -0.08830042 0.8256869 0.01910795
000110 f0 45 02 3e b6 1b 09 3f 1f 4a a7 be 6b 00 a8 be
       0.12721992 0.5355791 -0.32673737 -0.3281282
000120 d1 90 84 3e 00 2b 5d be d7 ed 8f 3d 79 a6 4d 3e
       0.25891736 -0.21598434 0.07027786 0.20083036
000130 18 26 0c 3e 10 43 1c 3f 6b 1c b3 3b 28 bd 77 be
       0.13686407 0.6103983 0.005466034 -0.24193251
000140 98 46 08 3f 5e 33 40 bf 77 fa 46 bf 08 28 41 be
       0.5323272 -0.7507838 -0.7772593 -0.18862927
000150 8d b5 71 bf 5f 97 1a 3f bc 41 64 3f 2b 6f 88 bf
       -0.9441765 0.60387224 0.891628 -1.0658926
000160 0f bd 29 bf 97 17 48 3f b9 04 63 3f ae 1b 29 3f
       -0.66304106 0.78160995 0.8867908 0.6605786
000170 2a 8a 11 bf 83 f0 14 3f e6 ae 9f bf bc f9 03 bf
       -0.56851447 0.5817949 -1.247525 -0.5155294
000180 9e 91 98 bf 78 07 0b 3f c6 d1 ec 3e c2 41 71 3f
       -1.1919439 0.5430827 0.46253794 0.94240963
000190 57 d1 45 3e 1b 98 0b 3f fd 39 8c 3e b2 2c 20 bd
       0.19318138 0.5452897 0.27387992 -0.039105125
0001a0 57 10 25 3f 98 03 a0 be 3d 07 26 3e e4 7a bd 3e
       0.6447806 -0.31252742 0.16213699 0.3700782
0001b0 1a a0 46 3d 64 23 d9 3d 20 82 a3 bc c5 c4 50 be
       0.04849253 0.10602453 -0.01995951 -0.20387562
0001c0 73 d4 34 bc 37 4f 09 3f 9d 84 fa bf 70 8e 4e 3d
       -0.01103698 0.536365 -1.957172 0.050428808
0001d0 67 7c 65 be fe 01 07 3e 0d 54 0b 3d 57 3f 9b bd
       -0.22410737 0.13184354 0.034015704 -0.075804405
0001e0 a8 a0 cc bd 06 e1 bf 3c 8a 07 4a 3e 92 3f 52 3e
       -0.0999158 0.02342273 0.19729438 0.20532063
0001f0 8e 88 91 bf a6 f0 f5 bd 4d 8a 0f bf 26 b4 72 3b
       -1.1369798 -0.12008791 -0.56070405 0.0037033646
000200 93 eb 1e 3e d8 ce bc be 67 4f 0d bf 1c d1 6d be
       0.15519552 -0.3687656 -0.55199283 -0.232243
000210 cb 59 72 3e de 7b dd bd 24 db da bf fa fc ea 3d
       0.23667066 -0.108146414 -1.7098126 0.11474033
000220 3b 2e f7 3e 7e 22 b1 3d 4b ee 86 3e 8d a1 ed bd
       0.4827746 0.08649157 0.26353678 -0.11603079
000230 60 74 ff 3e ac 1b 83 be c4 e6 1d be 60 2c 0a 3f
       0.49893475 -0.2560705 -0.15420061 0.5397396
000240 93 fb f3 3d 7e a4 c1 3e 63 57 f5 3e 18 38 1d 3e
       0.11913218 0.3782081 0.47918233 0.1535343
000250 64 bf b3 3f 07 32 9b 3f a5 69 9f 3c b5 7b 47 3e
       1.4042783 1.2124642 0.019459555 0.19480784
000260 39 b2 c4 3e bb 25 7b 3e e5 0c 15 be 0d 99 fc 3e
       0.38417223 0.24526112 -0.145557 0.49335518
000270 17 2e 1b 3f 4a 5f b0 3e b7 8f 78 3f ac d8 74 3f
       0.606172 0.344477 0.9709429 0.95643115
000280 57 0c 4f 3f f7 59 34 3f d7 06 86 3d cd c0 09 3e
       0.80878204 0.70449775 0.06544273 0.13452454
000290 5a 55 e9 3e 78 e8 19 3d f3 c8 c8 3e 7e 9b 87 3e
       0.4557293 0.037575215 0.39215812 0.2648582
0002a0 56 17 4b bf 3b 03 b5 3e 56 b7 98 be db 8a b2 3e
       -0.7933248 0.35354027 -0.29827374 0.34871563
0002b0 38 c9 84 3f ca 1a 2c bd 6e 5d 6c be 81 54 94 bd
       1.0373907 -0.042017736 -0.23082516 -0.0724268
0002c0 27 1e e3 be 4b 31 7a be 32 1a de 3d 9f 46 a3 3f
       -0.44358942 -0.24432866 0.1084484 1.2755927
0002d0 0d ea 7c bf 24 dd 40 3e 44 ef 82 3e 99 55 83 bf
       -0.98794633 0.18834358 0.2557317 -1.0260497
0002e0 b8 4a fe 3e 56 34 a0 bd 78 4a 1c bf 03 7e 2f 3f
       0.4966638 -0.07822482 -0.6105113 0.68551654
0002f0 2b 08 e2 bd e4 5e a3 bf a0 8f 73 3e e6 64 cd bf
       -0.11036714 -1.2763333 0.23785257 -1.6046417
000300 eb 63 13 3f 98 53 02 bf 59 cc 32 3f 26 c9 a9 3f
       0.5757434 -0.50908804 0.6984306 1.3264511
000310 7e 2e ee be 4c 1e 29 bf 9f 5a 9a be 8b cb 12 bf
       -0.46519846 -0.66061854 -0.30147263 -0.5734183

sequential/dense_2/MatMul f4 [13, 10]
000000 f6 f1 e0 3e ec 12 72 3e 0b ad ea 3e 15 06 37 3e
       0.43934602 0.2364003 0.45835146 0.17873414
000010 d0 93 2c be 9b 73 ec 3e 41 92 09 3e b4 ad 88 3e
       -0.16853261 0.4618195 0.13434698 0.26695025
000020 58 44 6b bf 29 cf e4 bd 64 72 e7 3e 12 d8 43 bf
       -0.9190116 -0.11172325 0.4520446 -0.7650157
000030 aa 47 a9 be 07 40 bf 3e a4 68 4c be 5f f0 27 bf
       -0.33062488 0.37353536 -0.19961792 -0.6560115
000040 c6 3c d5 be dc 00 69 3f 90 2c 98 3e 3b 84 d2 be
       -0.4164793 0.91016936 0.29721498 -0.4111651
000050 d1 c1 0f bf 8e c4 3b bf 86 a7 25 3f 0d 5c 43 bf
       -0.56155115 -0.73346794 0.64708745 -0.76312333
000060 b1 12 c9 be 28 f7 05 c0 8b 15 35 3f de 35 e5 3e
       -0.39272073 -2.0932102 0.70735997 0.4476766
000070 0b bd d3 3e b1 4b 41 be 45 f0 6e 3f 05 f2 b0 3e
       0.41355166 -0.1887653 0.9333537 0.34559646
000080 1f cf d3 be 75 02 58 be 1e 82 1a be 21 0c 41 3f
       -0.41368958 -0.21094687 -0.15088698 0.7540913
000090 6b a6 2e 3f 83 75 26 bf 31 e3 d5 be 5e cd 17 bf
       0.68222684 -0.6502306 -0.41774896 -0.5929774
0000a0 38 2c 43 bf f9 b3 a1 3e 39 b6 f3 3e e3 56 88 3f
       -0.7623935 0.3158262 0.47599962 1.0651516
0000b0 d7 dd 7f bf 96 1d 4c bf 57 7e 61 bf 9b 9d 9b bb
       -0.99947876 -0.79732645 -0.88083404 -0.0047490126
0000c0 94 9d da 3e ea 8e 61 be 52 61 fc bd ea 7e b5 bf
       0.42698348 -0.22027174 -0.1232325 -1.4179356
0000d0 ae ce 4b bd 7a 30 54 bf ec 67 43 bf 52 1f 34 bf
       -0.049757652 -0.8288647 -0.7633045 -0.7036029
0000e0 74 f0 58 bf 57 f6 80 be 28 c8 dc 3e 88 ab 37 3f
       -0.847419 -0.25187942 0.43121457 0.7174611
0000f0 56 a8 dd 3d f8 ca c3 3e 00 3b 97 3e 4c 82 1d 3f
       0.10823123 0.3824079 0.295372 0.6152694
000100 c3 1c b6 3e c2 90 d4 be f0 7c 04 bf 5e f6 15 be
       0.35568818 -0.4151669 -0.5175314 -0.14644763
000110 44 17 a2 3e 06 07 76 bf 13 e7 02 bf 8e 49 12 bf
       0.31658375 -0.96104467 -0.5113384 -0.57143486
000120 95 c3 a6 3d ff c5 2b bf 5c 38 d5 3f 95 0e ce bd
       0.08142773 -0.67098993 1.6657825 -0.10061375
000130 e5 16 c6 be fc 6b ca ba 54 c0 ec be c7 0a 75 bf
       -0.38689342 -0.0015443559 -0.46240485 -0.9571957
000140 17 dc 32 bf f7 7b 02 3f c9 cb 71 be 29 c0 8d be
       -0.6986708 0.50970405 -0.23612894 -0.2768567
000150 cf dc 86 be bb 17 cd bf 7d 20 0b 3f 6e 46 31 3f
       -0.2634034 -1.6022867 0.5434645 0.6924809
000160 12 ed a6 bf b1 1f 22 bf 28 a6 45 be 4c 4b 0e c0
       -1.3041098 -0.6332961 -0.19301665 -2.2233458
000170 70 52 84 3e 25 f8 d1 bf e4 fd ce be 9b 8e 30 bf
       0.25844145 -1.6403853 -0.40428078 -0.689676
000180 0e 77 2c bf 58 74 77 be 69 c9 68 3d bb 03 56 3f
       -0.67369163 -0.24165475 0.056832705 0.8359944
000190 e9 11 03 3d f2 bc b8 ba 89 d7 98 be bf fb 8c 3e
       0.031999502 -0.0014094396 -0.2985194 0.27535817
0001a0 98 0f a8 be 17 af 1b 3f bc 4b cb 3e d2 b3 60 bf
       -0.32824397 0.6081404 0.39706218 -0.87774384
0001b0 49 e5 1d bf 6f 10 1d 3f c9 f6 a8 be 32 b2 3f 3b
       -0.61677986 0.613532 -0.33000782 0.00292505
0001c0 df 44 8b bf 1f ef 81 3d d9 4f 9e bf c9 40 1b 3f
       -1.0880393 0.06344437 -1.2368118 0.6064573
0001d0 dc a0 b5 3e 48 40 84 bf fe da da be 86 ac 86 3f
       0.35474288 -1.0332117 -0.42745203 1.05214
0001e0 02 e7 67 bf 9b c2 a1 bf 60 22 59 bf d4 ca ac 3d
       -0.90586865 -1.2637514 -0.8481808 0.08437124
0001f0 e5 40 47 be a3 f9 c6 be fc b4 03 c0 6e c8 a8 be
       -0.19458349 -0.38862333 -2.0579214 -0.32965416
000200 e6 7c d0 bf d3 46 58 bf
       -1.6288116 -0.8448307
