model/keypoint_classifier/keypoint_classifier.tflite (tflite, 6940 bytes, 6 tensors)

sequential/dense/BiasAdd/ReadVariableOp f4 [20]
0.23004548 -0.44693646 -0.5069076 -0.3660279 0.6342033 -0.75289154 -0.74439275 0.44753477
-0.61194795 -0.561462 -0.88366956 -0.6409635 -0.5096352 -0.815028 -0.70068294 1.062958
-0.8115763 -0.49199727 -0.22639449 -0.84868526
00000000: 0b91 6b3e dbd4 e4be b2c4 01bf 0268 bbbe
00000010: 265b 223f 80bd 40bf 8690 3ebf 4723 e53e
00000020: 9fa8 1cbf f9bb 0fbf 2b38 62bf 2f16 24bf
00000030: 7477 02bf ada5 50bf f55f 33bf 020f 883f
00000040: 77c3 4fbf 11e7 fbbe f5d3 67be 7043 59bf

sequential/dense_2/BiasAdd/ReadVariableOp f4 [13]
-0.10802374 -0.30798668 -0.41606057 -0.27725744 0.6934071 0.3620833 -0.9622693 0.116411954
0.7560894 0.6329085 0.29658723 -0.09575662 -0.52300453
00000000: 8d3b ddbd 6eb0 9dbe e405 d5be b0f4 8dbe
00000010: 2183 313f fb62 b93e 4857 76bf 6469 ee3d
00000020: 138f 413f 4b06 223f 48da 973e 0c1c c4bd
00000030: a0e3 05bf

sequential/dense_1/BiasAdd/ReadVariableOp f4 [10]
-0.051036038 -0.3774067 0.6382133 -0.64740425 0.3304588 0.20709057 1.1188506 0.82143956
-0.22832012 0.2911344
00000000: 2a0b 51bd 733b c1be f261 233f 49bc 25bf
00000010: e531 a93e 8d0f 543e 7f36 8f3f dd49 523f
00000020: c0cc 69be 910f 953e

sequential/dense/MatMul f4 [20, 42]
-0.2578489 -0.1556503 -0.45583573 2.5789514 -0.11171425 1.3908306 -0.02402023 1.2157867
0.26406994 0.9130902 -0.24164 0.47318316 -0.065041654 0.33514497 0.13702375 0.2810111
0.3862491 0.1948644 -0.4025087 0.16373272 -0.060143597 -0.08575955 0.20400698 -0.18423179
0.31062037 -0.42608458 -0.15582499 0.049532764 0.023871478 -0.13644636 0.08654 -0.25188297
0.2437852 -0.00082445913 -0.40215722 -0.32386616 -0.27258846 -0.061212465 -0.1388875 0.12049641
-0.5251961 0.108845435 -0.046696603 -0.01488778 0.094570205 -0.087609425 0.051448442 -0.003128599
0.024685273 0.03550584 0.054400556 0.012024058 0.03412482 0.07528817 -0.014221215 0.053552035
-0.01799605 0.11221225 -0.05861354 0.07440851 0.031741384 0.070799805 -0.027912868 0.06490153
-0.045573182 0.08286945 -0.12683927 0.12121758 0.040761016 0.13292167 0.04745256 0.11910728
-0.04667343 0.10756194 -0.24866503 -1.9074968 0.05735614 0.19987161 0.029481113 0.15215737
-0.0034189504 0.13184053 -0.15281236 0.10045806 0.19789815 0.10580176 0.06740105 0.14829887
0.016221968 0.07428729 0.044247143 0.07530817 0.027357785 0.046512682 0.007856973 0.08605745
0.047406018 0.047129326 0.060046006 0.06708396 0.054512788 0.063284114 -0.0072105224 0.09040176
0.054914072 0.083828956 -0.020895422 0.13498129 -0.13786465 -1.647587 0.008373952 0.084944725
0.07269149 0.082328744 -0.052309368 0.064542025 -0.3473953 0.16580653 0.025217768 0.120955355
0.06713302 0.09510291 0.06382946 0.06805546 -0.05050866 -0.014665513 -0.044991463 -0.18405494
0.32887912 -1.1700643 0.14599952 -0.6594021 0.5943567 -0.65478045 1.4048911 -0.5243288
0.45488548 -0.17739365 0.31146634 0.021645708 -0.0078968415 0.06043495 -0.04898951 0.060253963
0.42274925 0.009985381 -0.17367487 0.1276486 -0.5284334 0.17747943 -0.58869493 0.11551722
0.34657553 0.18809286 0.11743775 0.12790206 -0.063336164 0.06302796 -0.0059389346 -0.0040277615
0.2640413 0.22799051 -0.18887839 0.21686019 -0.33703244 0.16942511 -0.42033663 0.13150501
-0.1227199 0.25121844 1.0384966 0.69454 0.53110206 0.48566929 0.15755768 0.5160612
-0.101008184 0.6768524 -0.033081047 0.12701552 0.052531127 0.015396574 -0.014766707 0.04795728
-0.16253388 0.07967443 -0.011330212 0.07473846 -0.11541751 -0.038781583 -0.12964363 -0.18047106
-0.207011 0.016990192 -0.010722189 0.12889412 -0.07035674 0.05288869 -0.25780308 -0.14293593
-0.8157969 0.15761682 0.08345236 0.1900284 -0.01186499 0.23226874 -0.050121196 0.14457273
-0.06344745 0.100382805 -0.034409255 -0.13144086 0.6902437 -0.16146144 0.318441 0.012969555
0.15731367 -0.40783343 0.18180496 -0.45139205 0.6023492 0.012800477 0.42086896 0.1036892
-0.2778757 0.22395304 -0.8606716 0.19767426 0.8297237 -0.012450128 0.4390361 0.02285264
-0.22758964 0.13571805 -0.59757084 0.044540368 0.81931305 -0.04097577 0.49879482 0.00040031047
0.025327012 -0.20122923 -0.039638355 -0.6103353 0.8790254 -0.11544442 0.5749927 -0.038290285
0.1211164 0.09327764 -0.108992554 0.07323074 -0.29073596 0.13687283 -0.20030056 0.5119981
00000000: c504 84be cb62 1fbe 4d63 e9be 8a0d 2540
00000010: 71ca e4bd bd06 b23f 13c6 c4bc e69e 9b3f
00000020: 2d34 873e 48c0 693f 7a70 77be 1045 f23e
00000030: 8f34 85bd 1f98 ab3e f44f 0c3e b0e0 8f3e
00000040: 71c2 c53e 898a 473e 9f15 cebe 8da9 273e
00000050: 2259 76bd b4a2 afbd 35e7 503e 42a7 3cbe
00000060: a209 9f3e c227 dabe 9690 1fbe dee2 4a3d
00000070: 1e8e c33c 98b8 0bbe e23b b13d cef6 80be
00000080: d4a2 793e 8420 58ba 8de7 cdbe c9d1 a5be
00000090: b790 8bbe ecb9 7abd 8638 0ebe d2c6 f63d
000000a0: 4073 06bf 5bea de3d f044 3fbd e0eb 73bc
000000b0: 06ae c13d 926c b3bd 9abb 523d 2e09 4dbb
000000c0: c538 ca3c 926e 113d 1ed3 5e3d 8e00 453c
000000d0: 78c6 0b3d af30 9a3d 1900 69bc 6159 5b3d
000000e0: 746c 93bc 89cf e53d c014 70bd 7d63 983d
000000f0: 4103 023d 7dff 903d 87a9 e4bc 18eb 843d
00000100: f2aa 3abd 75b7 a93d 27e2 01be ec40 f83d
00000110: 06f5 263d 9e1c 083e 9e5d 423d 85ee f33d
00000120: a32c 3fbd 6f49 dc3d 0ca2 7ebe db28 f4bf
00000130: 46ee 6a3d 25ab 4c3e 6082 f13c 24cf 1b3e
00000140: 7810 60bb 3401 073e d87a 1cbe f5bc cd3d
00000150: d0a5 4a3e 98ae d83d 9009 8a3d a9db 173e
00000160: efe3 843c ef23 983d 7e3c 353d 2b3b 9a3d
00000170: 6f1d e03c 1584 3e3d 89ba 003c e33e b03d
00000180: d02c 423d ae0a 413d cdf2 753d 5163 893d
00000190: cd48 5f3d 1a9b 813d 3f46 ecbb 8f24 b93d
000001a0: 94ed 603d 84ae ab3d e02c abbc 8938 0a3e
000001b0: 642c 0dbe 21e4 d2bf e632 093c 80f7 ad3d
000001c0: 47df 943d f99b a83d 5942 56bd 9c2e 843d
000001d0: ccdd b1be 30c9 293e 7e95 ce3c 71b7 f73d
000001e0: 097d 893d 51c5 c23d 05b9 823d a960 8b3d
000001f0: 2be2 4ebd 9f47 70bc f848 38bd e678 3cbe
00000200: d862 a83e abc4 95bf e680 153e 93ce 28bf
00000210: c327 183f b19f 27bf 79d3 b33f 6a3a 06bf
00000220: c0e6 e83e aea6 35be 8478 9f3e 5752 b13c
00000230: c161 01bc a38a 773d 39a9 48bd dccc 763d
00000240: 9772 d83e b999 233c d3d7 31be 51b6 023e
00000250: 6947 07bf 2bbd 353e b6b4 16bf 4b94 ec3d
00000260: 5972 b13e 6a9b 403e 3483 f03d c2f8 023e
00000270: 64b6 81bd ce14 813d 659b c2bb 50fb 83bb
00000280: 6c30 873e 5876 693e 5669 41be 9910 5e3e
00000290: 848f acbe c77d 2d3e 5d36 d7be 40a9 063e
000002a0: 9254 fbbd b49f 803e 75ed 843f 60cd 313f
000002b0: 4ef6 073f a5a9 f83e cd56 213e 961c 043f
000002c0: 61dd cebd 3346 2d3f fe7f 07bd 5b10 023e
000002d0: e12a 573d e941 7c3c 0ff0 71bc da6e 443d
000002e0: 486f 26be 592c a33d 5aa2 39bc 7a10 993d
000002f0: 0460 ecbd 70d9 1ebd 4dc1 04be 68cd 38be
00000300: b1fa 53be 042f 8b3c 1fac 2fbc d2fc 033e
00000310: 3217 90bd d0a1 583d c4fe 83be cc5d 12be
00000320: 11d8 50bf 4e66 213e 12e9 aa3d ce96 423e
00000330: 6065 42bc dbd7 6d3e e24b 4dbd e00a 143e
00000340: bdf0 81bd 8095 cd3d b8f0 0cbd 6f98 06be
00000350: d0b3 303f 2656 25be b30a a33e 427e 543c
00000360: d616 213e 8bcf d0be 142b 3a3e dc1c e7be
00000370: 8f33 1a3f 18b9 513c 237c d73e 015b d43d
00000380: b945 8ebe f253 653e f954 5cbf 1f6b 4a3e
00000390: c668 543f 9ffb 4bbc 57c9 e03e 7635 bb3c
000003a0: 420d 69be acf9 0a3e 67fa 18bf f66f 363d
000003b0: 80be 513f 36d6 27bd 0962 ff3e c3e0 d139
000003c0: 987a cf3c 090f 4ebe d45b 22bd ef3e 1cbf
000003d0: cf07 613f 206e ecbd b932 133f 46d6 1cbd
000003e0: e00b f83d 5908 bf3d 7d37 dfbd 00fa 953d
000003f0: 58db 94be 6428 0c3e 971b 4dbe 4f12 033f

sequential/dense_1/MatMul f4 [10, 20]
0.58193827 1.441416 0.24323599 0.68227506 0.5608967 1.1123078 0.28213745 0.50708574
1.3246611 1.2320501 0.3702327 0.4735124 0.33114034 0.16928677 0.1900796 0.85776174
-0.2161281 0.2005203 0.83369744 -0.10828966 0.8210316 -0.17880397 -0.099864304 -0.2047011
0.88727975 0.30573708 -0.1281207 -0.24518435 -0.117082305 0.07759847 -0.40416315 0.36610264
-0.44686908 -0.24634606 -0.87937766 0.2219471 -0.078922175 0.55198556 0.011490866 0.89596885
0.030410562 1.662106 0.27373332 -0.0020916043 -0.04121338 -0.27733278 0.2542745 -1.3382435
0.4325736 0.66620743 0.60226876 0.70574594 -1.0658879 -0.67562705 0.9542769 -1.8746996
0.6999896 0.3551856 -1.3231524 0.5712978 0.407392 0.14720558 -0.098479554 0.8827904
0.1847667 -0.0577202 0.3373512 0.13976274 -0.09263265 0.25893435 1.6173164 0.48540825
0.46016908 0.23025921 0.9942292 0.8275881 -0.22689365 -0.37864915 0.7066176 0.5284596
-0.38213766 0.2927187 0.7191639 0.1222141 -0.1627387 -0.23338138 0.15524712 -0.54440486
-0.97732633 -1.3949493 0.95027375 -0.10715259 0.08567548 -0.25737894 0.13421142 0.12076675
-0.4192997 -0.44686702 0.112608925 0.16352291 0.64543355 0.3054025 0.44289082 0.70929956
0.6576594 -0.03806714 0.14081062 0.46509933 0.43655312 0.2934746 0.4716587 0.71376896
0.3415332 -0.49704581 -0.18111627 0.53428864 0.9581499 -0.24221528 0.44720447 0.10700324
0.009888357 1.2455578 2.1857224 -0.07721391 0.076708384 0.031762324 1.222809 0.10002942
0.83457667 -0.3344853 -0.22223333 -0.8900634 0.12865864 1.1975334 0.65022206 -0.6211678
0.52086705 -0.16792987 0.039864443 1.0952008 -0.34839207 -0.45067284 -0.40948015 0.957628
-0.35302666 0.7076823 0.022619264 0.53697854 -1.7321185 -0.32283843 0.35907194 0.16748291
0.50901794 0.50891393 0.34676677 0.09426687 0.52810895 0.5313557 0.6778526 0.21340333
0.01895721 0.011571694 -0.11225852 -0.53749985 0.0058334526 -0.3437185 0.103792325 -0.40395093
0.5035217 -0.1969681 0.69083685 1.1010144 0.51065874 0.43804055 -0.023129268 -0.12826063
-0.16348754 0.7194366 0.32264978 -0.09260469 0.4382703 -1.1867355 -1.1426108 0.4609877
0.24265482 0.41449782 0.19245163 0.20874198 0.14024489 -0.26274338 0.5224539 0.5723665
-0.16875333 0.8252737 0.44226506 0.36233634 0.23683836 -0.00064946734 -0.08964274 0.2606004
00000000: e8f9 143f 5280 b83f db12 793e 94a9 2e3f
00000010: ed96 0f3f 1a60 8e3f 5274 903e 5fd0 013f
00000020: 7f8e a93f d1b3 9d3f 248f bd3e 3870 f23e
00000030: 3a8b a93e 8359 2d3e 3aa4 423e 4696 5b3f
00000040: af50 5dbe 3255 4d3e 326d 553f f8c6 ddbd
00000050: 202f 523f 6318 37be a885 ccbd 2a9d 51be
00000060: c424 633f 9289 9c3e 1332 03be 9b11 7bbe
00000070: d9c8 efbd f2eb 9e3d 79ee cebe ce71 bb3e
00000080: 06cc e4be 2442 7cbe e51e 61bf 1a46 633e
00000090: f3a1 a1bd ed4e 0d3f 2f44 3c3c 375e 653f
000000a0: 921f f93c e4bf d43f c626 8c3e 4c13 09bb
000000b0: 5ccf 28bd 90fe 8dbe 4430 823e 904b abbf
000000c0: 497a dd3e 928c 2a3f 492e 1a3f c4ab 343f
000000d0: 046f 88bf e5f5 2cbf 7e4b 743f 28f6 efbf
000000e0: 8532 333f e3da b53e 0f5d a9bf 9340 123f
000000f0: af95 d03e 0fbd 163e a6af c9bd 8dfe 613f
00000100: 7b33 3d3e 046c 6cbd 4cb9 ac3e f71d 0f3e
00000110: 30b6 bdbd 0b93 843e 3904 cf3f 6e87 f83e
00000120: 489b eb3e 12c9 6b3e ce85 7e3f d0dc 533f
00000130: cf56 68be 4dde c1be e4e4 343f 2149 073f
00000140: 8ca7 c3be 3adf 953e 201b 383f 634b fa3d
00000150: f9a4 26be 87fb 6ebe 1af9 1e3e 1e5e 0bbf
00000160: 0f32 7abf b38d b2bf 2445 733f d172 dbbd
00000170: a076 af3d 2cc7 83be b86e 093e 8f54 f73d
00000180: 73ae d6be c1cb e4be 829f e63d 8d72 273e
00000190: 223b 253f b75d 9c3e 96c2 e23e a894 353f
000001a0: 5e5c 283f 4aec 1bbd a930 103e 8021 ee3e
000001b0: e483 df3e 4e42 963e 407d f13e 90b9 363f
000001c0: 71dd ae3e ca7c febe 8b76 39be 24c7 083f
000001d0: 5049 753f 4807 78be fcf7 e43e 8424 db3d
000001e0: c602 223c 706e 9f3f e0e2 0b40 5422 9ebd
000001f0: 4919 9d3d 3619 023d 0185 9c3f 39dc cc3d
00000200: d1a6 553f a841 abbe 2291 63be 32db 63bf
00000210: 17bf 033e c648 993f f474 263f da04 1fbf
00000220: 8b57 053f cff5 2bbe e648 233d 8a2f 8c3f
00000230: 7260 b2be 97be e6be 62a7 d1be 1c27 753f
00000240: e9bf b4be ab2a 353f 094c b93c 6d77 093f
00000250: 0fb6 ddbf 144b a5be 47d8 b73e a480 2b3e
00000260: 004f 023f 2f48 023f 6a8b b13e fd0e c13d
00000270: 2632 073f ed06 083f bf87 2d3f 6786 5a3e
00000280: 274c 9b3c 3497 3d3c cce7 e5bd 9799 09bf
00000290: 8c26 bf3b dffb afbe 1291 d43d a8d2 cebe
000002a0: cce6 003f 01b2 49be afda 303f 0aee 8c3f
000002b0: 88ba 023f da46 e03e 9779 bdbc c156 03be
000002c0: 4769 27be ff2c 383f 5a32 a53e 87a7 bdbd
000002d0: f764 e03e f3e6 97bf 1241 92bf 9406 ec3e
000002e0: 817a 783e 0f39 d43e 0a12 453e 75c0 553e
000002f0: 5b9c 0f3e 4d86 86be 8abf 053f 9c86 123f
00000300: accd 2cbe 2345 533f 9170 e23e 2684 b93e
00000310: c185 723e 0441 2aba 9d96 b7bd 6a6d 853e

sequential/dense_2/MatMul f4 [13, 10]
0.44684795 -0.35937387 0.2938441 0.22420914 0.3007223 0.86948997 -0.18181863 -0.61781716
-0.05030623 -0.23931098 -0.059088428 0.4975866 -0.53635335 0.39466876 -0.13329153 -0.31683576
-0.21262954 0.29347932 1.0008656 0.9556283 -1.408072 -0.5981486 -1.0235798 -0.69205236
-0.54248285 -0.86833304 -3.5820532 -0.7015037 -0.41508853 -0.54455817 0.847203 0.19290285
0.22828738 0.33235794 0.99471617 -0.6526338 -0.08306941 -0.98204285 -0.3506769 0.052759707
-1.4308127 0.38904336 0.589109 0.35528782 -0.10553097 -0.050088353 -1.0064658 0.726848
-0.14765489 0.7247053 -1.5495181 -1.1822027 -0.66692245 -0.38643724 -0.16301993 -0.14016533
0.63890356 0.5114466 -0.5302418 -0.36355534 -0.050858684 0.60862404 0.13906534 1.2672486
-0.6573968 -0.42867014 -0.69052815 0.2575575 0.30820438 -0.25692752 0.39087602 -0.09372677
-1.0219471 0.11108667 -0.3592412 -0.12594864 -1.9557197 0.70053506 0.48226774 -0.5377239
0.05380525 1.1050774 -0.30097294 -0.26337078 0.2515548 -0.142784 -1.7213851 -0.18997978
-0.117776476 0.254347 -1.3761065 -1.5619184 -1.1124775 -0.94024366 -0.031689707 0.31288
0.5531827 0.13036571 -1.4600078 -0.21718732 -0.0024496717 -0.8011484 0.7846863 -0.73666614
-0.5693426 -0.19180724 0.27426162 -0.8935562 -1.273717 0.07977472 -0.4705192 -0.88118166
0.98208046 -0.8238473 -0.89499813 -0.29194492 0.37907848 -1.2175473 -0.76700664 -0.15083724
-0.99863297 -0.63845044 -1.0169536 -1.1923547 -0.40981054 -1.027888 -2.8667338 -0.9154202
-0.531798 -0.1622003
00000000: 41c9 e43e daff b7be bc72 963e 1597 653e
00000010: 46f8 993e e596 5e3f aa2e 3abe 4429 1ebf
00000020: e80d 4ebd f00d 75be b506 72bd acc3 fe3e
00000030: 744e 09bf 0612 ca3e 937d 08be 4c38 a2be
00000040: 8fbb 59be ec42 963e 5d1c 803f 0ea4 743f
00000050: b43b b4bf 4420 19bf aa04 83bf 582a 31bf
00000060: 28e0 0abf 134b 5ebf 5c40 65c0 bf95 33bf
00000070: 7c86 d4be 2a68 0bbf 4ce2 583f 5388 453e
00000080: 2bc4 693e d22a aa3e b8a5 7e3f 0213 27bf
00000090: 4b20 aabd 2967 7bbf ec8b b3be 901a 583d
000000a0: df24 b7bf b130 c73e d9cf 163f 49e8 b53e
000000b0: 9f20 d8bd 7229 4dbd dfd3 80bf b612 3a3f
000000c0: d832 17be 4986 393f 9c56 c6bf 6b52 97bf
000000d0: 6ebb 2abf 1adb c5be b2ee 26be 8087 0fbe
000000e0: 2f8f 233f 2aee 023f edbd 07bf ed23 babe
000000f0: 3251 50bd c9ce 1b3f 2567 0e3e 3435 a23f
00000100: 284b 28bf a77a dbbe 74c6 30bf 94de 833e
00000110: f7cc 9d3e 018c 83be e720 c83e d2f3 bfbd
00000120: 2acf 82bf 6881 e33d 76ee b7be aef8 00be
00000130: 0655 fabf 4456 333f cceb f63e 46a8 09bf
00000140: e562 5c3d 2d73 8d3f 2019 9abe 89d8 86be
00000150: cacb 803e f835 12be 5956 dcbf 0f8a 42be
00000160: cb34 f1bd c539 823e 4224 b0bf f1ec c7bf
00000170: aa65 8ebf cfb3 70bf 11cd 01bd cf31 a03e
00000180: 629d 0d3f 977e 053e 89e1 babf 5a66 5ebe
00000190: ac8a 20bb 1018 4dbf 34e1 483f 2796 3cbf
000001a0: 70c0 11bf 1e69 44be 056c 8c3e 19c0 64bf
000001b0: 2909 a3bf ee60 a33d e5e7 f0be 1f95 61bf
000001c0: a069 7b3f a8e7 52bf 991e 65bf ce79 95be
000001d0: 9316 c23e 97d8 9bbf 8c5a 44bf 1475 1abe
000001e0: 69a6 7fbf 7d71 23bf 892b 82bf 149f 98bf
000001f0: b0d2 d1be d591 83bf 9178 37c0 fa58 6abf
00000200: ea23 08bf d617 26be
