model/keypoint_classifier/keypoint_classifier.tflite (tflite, 7160 bytes, 6 tensors)

sequential/dense/BiasAdd/ReadVariableOp f4 [20]
0	0xbf43659e	-0.7632693
1	0xbf5ab36c	-0.85430026
2	0xbf2af774	-0.66783834
3	0xbee2c225	-0.44288746
4	0xbf42f2ee	-0.7615193
5	0x3e4f6831	0.2025459
6	0xbf37ac2e	-0.717471
7	0xbfb75cd0	-1.4325199
8	0xbe43d6ab	-0.19124858
9	0xbfceb566	-1.6149108
10	0xbee62256	-0.4494807
11	0x3f431532	0.76204216
12	0xbf87d35d	-1.0611378
13	0xbf030f17	-0.511949
14	0xbdbcc4e6	-0.09217243
15	0xbf23eb10	-0.6403055
16	0xbf80db87	-1.0066994
17	0xbe4efa92	-0.20212772
18	0xbf249092	-0.64283097
19	0xbf27e0a4	-0.6557715

sequential/dense_2/BiasAdd/ReadVariableOp f4 [18]
0	0xbf1b0657	-0.6055655
1	0xbd097bb2	-0.03356523
2	0x3f513477	0.8172068
3	0x3b3013f8	0.002686737
4	0x3c6f8295	0.0146185355
5	0x3d571ca9	0.052517567
6	0xbf9d05ec	-1.2267432
7	0xbf6aa776	-0.91661775
8	0xbe26e0e5	-0.16296728
9	0xbd15993f	-0.0365231
10	0xbc774df6	-0.015094271
11	0x3f17d50f	0.59309477
12	0x3f7ee998	0.99575186
13	0x3f20ba9c	0.62784743
14	0xbf6f69d2	-0.93520844
15	0x3f292291	0.6606837
16	0xbe9d1632	-0.30680996
17	0xbe50848e	-0.20363066

sequential/dense_1/BiasAdd/ReadVariableOp f4 [10]
0	0x3f9d2d5b	1.2279466
1	0xbd09e613	-0.03366668
2	0x3e0b99b3	0.1363285
3	0xbe6fd2a7	-0.23420201
4	0xbea4e77f	-0.32207868
5	0x3f22bf59	0.63573223
6	0x3fb387dd	1.4025837
7	0x3f0c6f6a	0.54857504
8	0xbdc9f005	-0.09860233
9	0x3d2f8e15	0.04286011

sequential/dense/MatMul f4 [20, 42]
0	0x3cdf0ff0	0.02722928
1	0x3e889e6a	0.2668336
2	0x3e89c735	0.26909795
3	0xbf3d21ee	-0.738799
4	0x3e7a358c	0.24434489
5	0xbed1e00f	-0.40991256
6	0x3e8c0e82	0.2735482
7	0xbebc1b3d	-0.3673953
8	0x3ec3c85e	0.38238806
9	0xbfd80e33	-1.6879333
10	0x3c0fc5f7	0.008775226
11	0xbdb2b12c	-0.08725199
12	0x3e070d3a	0.1318864
13	0x3c919ae8	0.01777406
14	0xbcf6f03f	-0.030143855
15	0x3d8d92c6	0.069127604
16	0xbe2421a8	-0.16028464
17	0x3d387e02	0.045042045
18	0xbd423c2d	-0.04742067
19	0x3cccf067	0.025016977
20	0x3e3a3f9c	0.18188328
21	0x3cef31bd	0.029198522
22	0x3df575f6	0.1198539
23	0x3dfef0f5	0.12448303
24	0xbda282f5	-0.07935134
25	0x3db0383a	0.08604474
26	0xbc893a28	-0.016751364
27	0x3d8811a0	0.06643987
28	0x3e222474	0.15834218
29	0x3e087fa0	0.13329935
30	0xbc119cc1	-0.008887471
31	0x3d9f641d	0.07782767
32	0xbea811ff	-0.3282623
33	0x3a6c1ce7	0.00090069923
34	0x3ddf3bae	0.10900055
35	0x3e497eb6	0.19677243
36	0x3e55aa11	0.20865656
37	0x3e9657b7	0.29363796
38	0x3e07f883	0.13278393
39	0x3eaefd65	0.341777
40	0x3dd7b70d	0.10532961
41	0x3e9fa84a	0.31183082
42	0x3e4a483c	0.19754118
43	0x3cee4ff0	0.029090852
44	0xbf112afb	-0.5670621
45	0x3da0dc41	0.0785451
46	0xbece9473	-0.40347633
47	0xbdfdbb1d	-0.12389205
48	0xbf66c2bb	-0.90140885
49	0xbe02f2e5	-0.1278797
50	0xbfda8ee5	-1.7074858
51	0xbe5936bf	-0.2121229
52	0xbd8ab99d	-0.06773684
53	0x3e19f4b5	0.15034755
54	0x3d154643	0.03644396
55	0x3c7109ee	0.01471184
56	0x3e13f349	0.14448275
57	0x3db1b651	0.08677352
58	0x3deb056d	0.11475644
59	0x3d765174	0.060136274
60	0xbe22e233	-0.159066
61	0x3df5a17a	0.1199369
62	0x3d1e13bb	0.038593035
63	0x3c822f21	0.015891613
64	0x3deef350	0.11667502
65	0x3cfff1a8	0.03124316
66	0x3cd853ff	0.02640724
67	0x3c9a564d	0.01883998
68	0xbe209d6c	-0.15685052
69	0x3da2a362	0.07941319
70	0x3d2daeea	0.04240314
71	0xbdab55b7	-0.08365958
72	0x3e12864d	0.14309044
73	0xbd19f3f6	-0.037586175
74	0x3ddb99a8	0.10722667
75	0x3e15e35b	0.1463751
76	0xbdb34a33	-0.08754387
77	0xbdb14d63	-0.086573385
78	0x3e96bb75	0.29439893
79	0xbe7d4957	-0.24735008
80	0x3f05bf0c	0.5224464
81	0xbf1301e5	-0.57424766
82	0x3f3b2149	0.73097664
83	0xbedf980f	-0.436707
84	0x3e86f482	0.2635842
85	0x3d0b29e8	0.03397551
86	0x3f51b571	0.8191748
87	0xbe2b806e	-0.16748211
88	0x3f5fbe6d	0.8739994
89	0xbe841123	-0.25794324
90	0x3f852eed	1.0404946
91	0xbeb0133f	-0.34389684
92	0x3f7096cb	0.9398009
93	0xbedac595	-0.42728868
94	0x3f3c71a7	0.7361092
95	0xbd6773ce	-0.056506924
96	0x3ea59077	0.3233678
97	0xbd1d031d	-0.038333047
98	0xbd8d17ef	-0.068893306
99	0x3c0c5a8c	0.00856651
100	0xbe75b931	-0.23996426
101	0xbc82186e	-0.01588079
102	0x3f0743a9	0.52837616
103	0x3c58a91f	0.013223915
104	0x3bd5a80a	0.006520276
105	0x3c3df60c	0.011594307
106	0xbe6ccc91	-0.23124911
107	0x3d97d8c9	0.07414395
108	0xbe8c6050	-0.2741723
109	0x3d25d9b9	0.04049084
110	0x3ebef2df	0.3729467
111	0x3d014cc2	0.031567343
112	0xbd3debc1	-0.04636741
113	0xbc77b713	-0.015119332
114	0xbe824895	-0.25446
115	0x3c63f31c	0.013912942
116	0xbe54bfcd	-0.20776291
117	0xbd671b7e	-0.056422703
118	0x3e384b82	0.17997554
119	0x3d42e366	0.047580145
120	0x3d10dd95	0.035367567
121	0xbda61cc5	-0.08110956
122	0x3cb1ede3	0.021719879
123	0xbcccc544	-0.024996407
124	0x3d38f370	0.045154035
125	0x3d89de68	0.06731874
126	0xbe974522	-0.29544932
127	0x3dde69a4	0.10859993
128	0x3f614353	0.87993354
129	0x3ebfcc7e	0.37460703
130	0x3f5d9d60	0.8656826
131	0x3e3f018f	0.18652938
132	0x3f862ace	1.0481813
133	0x3e07128e	0.13190672
134	0x3f7bd56e	0.9837254
135	0x3e0ecf48	0.13946259
136	0x3ebaa161	0.36451247
137	0xbda288ce	-0.0793625
138	0x3d79797b	0.06090687
139	0xbd878c02	-0.06618501
140	0xbc5fd646	-0.013661927
141	0xbceb419b	-0.028717807
142	0x3d05f9ad	0.032708813
143	0x3d136e6d	0.035993982
144	0x3e880a20	0.26570225
145	0xbe9be683	-0.30449304
146	0xbdb44aef	-0.08803355
147	0x3c7846fd	0.015153644
148	0xbe447bce	-0.19187853
149	0x3df97d00	0.12182045
150	0xbe44b21f	-0.19208573
151	0x3dced490	0.10099137
152	0x3e2a2e4a	0.1661922
153	0xbee3b755	-0.4447581
154	0xbd829086	-0.06375222
155	0xbd310d7b	-0.043225747
156	0xbea4650f	-0.32108352
157	0x3dc99e82	0.09844686
158	0xbf30d527	-0.69075245
159	0x3e480d9c	0.19536442
160	0x3da18cf6	0.07888214
161	0xbf137678	-0.57602644
162	0xbbcbb39d	-0.00621648
163	0xbe197707	-0.14986812
164	0xbd8e714d	-0.06955204
165	0xbc8af05c	-0.016960315
166	0xbd3e0c5b	-0.0463985
167	0x3e16bf69	0.14721455
168	0x3e7c46b4	0.24636346
169	0x3e7ce208	0.24695599
170	0x3ed6279a	0.4182709
171	0x3f266446	0.64996755
172	0x3ec7ef3a	0.39049703
173	0x3e543c35	0.20726092
174	0x3f20c437	0.627994
175	0x3e77c94f	0.24197887
176	0x3f933619	1.1500884
177	0x3e7860ab	0.24255626
178	0xbdd727a9	-0.105056114
179	0xba88379a	-0.0010392547
180	0xbe446b3a	-0.19181529
181	0xbbceca56	-0.0063107414
182	0xbd326209	-0.043550525
183	0xbe379a60	-0.17929983
184	0x3d56e2d4	0.052462414
185	0xbe83528f	-0.25648925
186	0x3c661c95	0.0140449
187	0x3db0abd1	0.086265214
188	0xbe8c95fc	-0.2745818
189	0x3dfc6b44	0.12325147
190	0xbed518af	-0.41620395
191	0x3d52b4fc	0.05144213
192	0xbed63b4b	-0.41842112
193	0xbd31349e	-0.04326307
194	0x3e2a47e4	0.16628987
195	0x3e2f063f	0.17092226
196	0xbe8e01a0	-0.27735615
197	0x3e1b73db	0.15180914
198	0xbf1989d3	-0.5997593
199	0xbe0b6833	-0.13613968
200	0xbf1eaa67	-0.61978763
201	0xbcb1ae3b	-0.021689525
202	0x3e95edf5	0.2928311
203	0x3e9bcc6e	0.30429405
204	0xbe9cc283	-0.3061715
205	0x3e2861ca	0.16443554
206	0xbf41e384	-0.75737786
207	0xbe278712	-0.16360119
208	0xbf681b89	-0.90667015
209	0xbf0a4151	-0.54005915
210	0xbe6104cc	-0.21974486
211	0xbe7415f1	-0.23836495
212	0xbee8bac6	-0.45454997
213	0xbc05f9a3	-0.008177194
214	0xbe998136	-0.29981393
215	0xbe688a4b	-0.22709005
216	0xbdcc6f31	-0.099821456
217	0xbf382d54	-0.71944165
218	0xbcd01394	-0.02539996
219	0xbf906eda	-1.1283829
220	0xbf03b7ab	-0.5145213
221	0x3b079324	0.0020687068
222	0xbe290cb2	-0.16508749
223	0xbbb4f6bb	-0.0055225766
224	0x3cbde32f	0.023179619
225	0x3cbb1bfa	0.022840489
226	0x3dc0f1a9	0.09421093
227	0x3b672ffd	0.0035276406
228	0xbeddc16e	-0.43311638
229	0xbd2293a3	-0.03969158
230	0x3d07b4cd	0.03313141
231	0x3da319ec	0.079639286
232	0x3d869a93	0.065724514
233	0x3ea5108d	0.3223919
234	0x3adaaefd	0.0016684231
235	0x3e9b1ff4	0.30297816
236	0xbe5d5789	-0.21615423
237	0x3d84b409	0.064796515
238	0x3dff0b97	0.124533825
239	0x3e41c951	0.18924452
240	0x3e2b9cf7	0.16759096
241	0x3f06e50d	0.52693254
242	0x3e3665c8	0.17812264
243	0x3f49bf4f	0.7880754
244	0xbd700ee9	-0.05860797
245	0x3e09793c	0.13425153
246	0x3e436e6c	0.19085091
247	0x3e9c69a0	0.30549335
248	0x3e29940b	0.1656038
249	0x3f32f0d1	0.69898707
250	0x3d367ac4	0.044550672
251	0x3f3e2fa5	0.7429145
252	0xbe151ef0	-0.14562583
253	0x3e8b4b36	0.2720582
254	0xbdd1878e	-0.10230933
255	0x3f4c4bdb	0.79803246

sequential/dense_1/MatMul f4 [10, 20]
0	0xbed737f6	-0.42034882
1	0x3f13cb6a	0.5773226
2	0x3d87cfce	0.066314325
3	0xbbeb883f	-0.0071878727
4	0x3ebd5ad6	0.36983365
5	0xbf2c0f2b	-0.67210644
6	0x3f75a64e	0.95956886
7	0xbeca0ce6	-0.39462966
8	0xbf4cafd1	-0.79955775
9	0x3ecd38a6	0.40082282
10	0x3f6b12f7	0.91825813
11	0xbfa6e154	-1.3037515
12	0x3f742fa0	0.9538517
13	0x3d94ad65	0.07259635
14	0xbe370eeb	-0.17876785
15	0x3f1e9d7a	0.6195904
16	0x3f4817e8	0.7816148
17	0xbf038dfc	-0.51388526
18	0x3ea9e817	0.33184883
19	0x3fb29590	1.3951893
20	0x3f10358c	0.56331706
21	0x3ea2e476	0.31814927
22	0x3f1f7c38	0.6229892
23	0x3e1ad233	0.15119247
24	0x3f54072e	0.82823455
25	0x3eabe07a	0.335697
26	0xbf035b81	-0.513115
27	0x3f2780fd	0.65431195
28	0xbe04d649	-0.12972368
29	0xbe27cc0e	-0.16386434
30	0x3ef6b4b7	0.4818475
31	0xbd5ce567	-0.053929713
32	0x3d2a7e96	0.041624628
33	0x3efc0596	0.49223012
34	0x3f3ea05b	0.74463433
35	0x3f87d12b	1.0610708
36	0x3e5c742f	0.21528696
37	0x3faf5e4d	1.3700653
38	0x3f23f8ed	0.64051706
39	0xbe076f88	-0.1322614
40	0xbc6633ac	-0.0140504055
41	0x3ea0440b	0.31301913
42	0x3dfe2b4e	0.124106035
43	0x3ea6a338	0.325464
44	0x3eeafc26	0.458955
45	0x3f0fbcc5	0.56147414
46	0x3fed0c7a	1.8519433
47	0x3dd6f041	0.104950435
48	0x3f4a4ff4	0.7902825
49	0xbee59acb	-0.4484466
50	0x3f2a2069	0.66455704
51	0x3f0a1ed1	0.5395327
52	0x3b813940	0.0039435923
53	0x3f1c8bdd	0.61150914
54	0x3ef0ed8e	0.4705624
55	0x3eca18b5	0.39471975
56	0xbbd7b5e8	-0.006582964
57	0x3f181b83	0.5941698
58	0x3ef2bd37	0.47409984
59	0xbc1fbeab	-0.009750049
60	0x3f871a8a	1.0554974
61	0x3d92aedd	0.07162259
62	0x3e378f9c	0.17925876
63	0xbd34255e	-0.04398095
64	0x3e262584	0.16225249
65	0x3f53422c	0.82522845
66	0xbdd0d8b4	-0.10197583
67	0xbca83ccf	-0.020536808
68	0x3bff693f	0.0077945287
69	0x3de118c6	0.10991053
70	0x3f694c09	0.91131645
71	0x3ecb8e6b	0.39757094
72	0x3f64f3d4	0.8943455
73	0x3dcb196e	0.0991696
74	0x3f17b7b2	0.5926467
75	0x3f83faa5	1.0310866
76	0x3ba87a98	0.0051415674
77	0x3f394408	0.7236943
78	0x3ebe37f7	0.37152073
79	0x3fd40bb3	1.656607
80	0x3f35f1b4	0.71071935
81	0xbf0f0144	-0.55861306
82	0x3f435401	0.76300055
83	0x3f5e50ed	0.8684223
84	0x3f3cc428	0.7373681
85	0x3f78a622	0.971285
86	0x3e90222e	0.28151077
87	0x3eedcad2	0.46443802
88	0xbda00698	-0.07813758
89	0x3f880606	1.0626838
90	0x3e136e59	0.14397563
91	0xbe05a705	-0.13051994
92	0x3dd0f4fa	0.102029756
93	0xbe0e146c	-0.13874978
94	0xbe1f9a65	-0.1558624
95	0x3d8e5492	0.06949724
96	0x3f2940e0	0.66114616
97	0xbef25e62	-0.47337633
98	0x3ed4e8ca	0.41583854
99	0x3dfd584c	0.12370357
100	0x3f71068a	0.941506
101	0x3f61c940	0.8819771
102	0x3f1d5c5c	0.61469054
103	0x3eee4b9a	0.46542054
104	0xbd8ea5b7	-0.06965201
105	0x3f87bd5f	1.0604666
106	0xbf0d063b	-0.5508763
107	0x3f68ac4e	0.90887916
108	0x3df51de2	0.1196859
109	0x3d77584c	0.06038694
110	0xbde7888e	-0.113053426
111	0x3f34abe1	0.70574766
112	0x3d85bf71	0.06530655
113	0x3e993709	0.299248
114	0x3e91d870	0.2848544
115	0xbf843004	-1.0327153
116	0x3e7e86da	0.2485613
117	0x3f13644e	0.5757493
118	0x3e47f76a	0.19527975
119	0x3d674066	0.0564579
120	0x3f0de7f5	0.55432063
121	0x3e6c0468	0.23048556
122	0x3ee212c7	0.4415495
123	0x3ea45371	0.3209491
124	0xbf305595	-0.6888059
125	0x3cc94a4a	0.024571557
126	0x3f9af4c1	1.2105943
127	0x3e12813e	0.14307114
128	0x3f114020	0.5673847
129	0x3f0aea40	0.5426369
130	0xbf7e7866	-0.99402463
131	0xbeaf7788	-0.34270883
132	0x3f2a1bb9	0.6644855
133	0xbf51c2ef	-0.8193807
134	0x3f1e29e9	0.617827
135	0xbfa01407	-1.2506112
136	0xbcc8af5a	-0.024497677
137	0xbeab460f	-0.33451888
138	0xbf49ed56	-0.7887777
139	0x3f415479	0.7551952
140	0xbdba6793	-0.091017865
141	0x3e1c4118	0.15259206
142	0xbfa7360a	-1.3063366
143	0xbf5729ae	-0.84047973
144	0x3f1ad3a4	0.6047919
145	0x3ea085a1	0.3135195
146	0x3e6ce472	0.2313402
147	0x3f925088	1.1430826
148	0xbe35b5e7	-0.17745171
149	0x3f6105a1	0.87899214
150	0xbf99faf3	-1.2029709
151	0x3c818cc7	0.015814198
152	0x3eae1f08	0.3400805
153	0xbfaff607	-1.3746957
154	0xbf3f8ce1	-0.7482434
155	0x3f374d6e	0.71602523
156	0x3e77c330	0.24195552
157	0xbe89aba9	-0.2688878
158	0x3f20207b	0.6254956
159	0xbd7053f4	-0.058673814
160	0x3e243b8e	0.16038343
161	0x3f6699d7	0.9007849
162	0x3e4dce4d	0.20098229
163	0x3f3aa6a0	0.729105
164	0x3c8fc60d	0.017550493
165	0x3e71dce8	0.23619425
166	0x3d8fe72e	0.07026516
167	0x3f3e8d8b	0.7443473
168	0x3f7e250a	0.9927527
169	0x3ef58c05	0.4795839
170	0x3fc0fc89	1.5077068
171	0x3f307926	0.6893486
172	0x3eccb4cd	0.3998169
173	0x3fcaa406	1.5831306
174	0x3aaebf35	0.0013332131
175	0x3e2813ee	0.16413853
176	0x3f6f43d4	0.9346287
177	0xbdc05528	-0.09391242
178	0x3c5e38cb	0.013563345
179	0xba959084	-0.0011410867
180	0x3d4eb7d6	0.05046829
181	0x3f895ed6	1.0732067
182	0xbec1b5d2	-0.3783403
183	0xbeba9515	-0.36441866
184	0xbdafc1e0	-0.085819006
185	0xbe6256f3	-0.22103481
186	0x3d96491d	0.07338164
187	0x3f21d73a	0.63219035
188	0xbd643f5a	-0.05572448
189	0xbe9677fe	-0.29388422
190	0xbd224360	-0.039615035
191	0xbd3ce81b	-0.04611979
192	0x3a741938	0.0009311619
193	0x3dc5ee3f	0.096645825
194	0x3c73953c	0.014867123
195	0xbc26e928	-0.010187425
196	0x3ff2032e	1.890722
197	0x3f35fdc8	0.71090364
198	0xbe2fe6f4	-0.17177945
199	0x3a0a94f1	0.0005286476

sequential/dense_2/MatMul f4 [18, 10]
0	0x3d06ce2a	0.032911457
1	0xbd8f1044	-0.06985524
2	0x3f16d51d	0.58918935
3	0x3f30ace1	0.6901379
4	0x3e8ccffc	0.2750243
5	0xbd9b0d85	-0.07570938
6	0xbefa89ff	-0.48933408
7	0xbef8fb01	-0.48629
8	0x3e458d29	0.1929213
9	0x3e157b47	0.14597808
10	0xbed462b9	-0.4148157
11	0x3ebefdf7	0.37303135
12	0xbeb102d8	-0.34572482
13	0x3d56ce6b	0.05244295
14	0x3cd9e58b	0.026598712
15	0x3e35d30d	0.1775629
16	0x3e7b1547	0.24519835
17	0xbd3e3313	-0.046435427
18	0x3f2572b2	0.64628136
19	0xbe700c4b	-0.2344219
20	0xbf18a8cb	-0.5963256
21	0xbeb82231	-0.35963586
22	0x3f0dec61	0.5543881
23	0xbf14c17f	-0.5810775
24	0xbf023fc4	-0.5087855
25	0x3f4ccf07	0.800034
26	0x3efb8757	0.49126694
27	0xbe2023b6	-0.15638623
28	0xbe1a715b	-0.15082304
29	0xbf350294	-0.7070706
30	0x3e0bb391	0.13642718
31	0x3ed8fd20	0.4238062
32	0xbf22a48a	-0.63532317
33	0x3f1419ac	0.5785167
34	0xbe26d539	-0.16292275
35	0xbe4f3eca	-0.20238796
36	0xbf2d0f7c	-0.6760175
37	0xbef81032	-0.48449856
38	0x3efd22fa	0.49440747
39	0x3e620fab	0.2207629
40	0x3e4afbe9	0.19822659
41	0x3e71bd8e	0.23607466
42	0x3f0341ac	0.5127208
43	0xbfb47c43	-1.4100422
44	0x3f0eb3dc	0.55743194
45	0xbd9ab307	-0.07553678
46	0xbe287e4d	-0.1645443
47	0xbf4944cf	-0.7862062
48	0xbe545adc	-0.20737785
49	0x3f0e4caa	0.5558573
50	0x3e7f2d17	0.24919544
51	0xbf35dbd9	-0.71038586
52	0xbe81ad38	-0.25327468
53	0xbceba656	-0.028765839
54	0xbe2b1dc9	-0.16710581
55	0xbe990bf1	-0.29891923
56	0x3f189a8a	0.5961081
57	0xbf166d57	-0.5876059
58	0xbe08e557	-0.13368736
59	0xbf10fbc5	-0.5663417
60	0xbe830e0e	-0.2559666
61	0x3ccb1c13	0.02479366
62	0xbe80fb10	-0.25191545
63	0x3e6d51b7	0.23175703
64	0x3f35f81c	0.7108171
65	0x3ec6dcf2	0.38840443
66	0xbf761c71	-0.9613715
67	0xbe94fd51	-0.29099515
68	0x3e13b1ce	0.14423296
69	0x3f0c5c1d	0.54828054
70	0xbfa57336	-1.2925785
71	0x3f0bd0f1	0.54615694
72	0xbeb80e9c	-0.35948646
73	0x3ea7e13b	0.32789025
74	0x3d49cc22	0.04926694
75	0x3f28323f	0.6570167
76	0xbe9f5d54	-0.3112589
77	0x3ee20f77	0.44152424
78	0xbf7903e7	-0.9727158
79	0xbf5f66fc	-0.87266517
80	0xbf60915d	-0.87721807
81	0x3eebf68d	0.4608654
82	0x3f87c613	1.0607322
83	0xbe5b6ca3	-0.2142816
84	0xbef0fe33	-0.4706894
85	0xbeb8c72f	-0.36089465
86	0xbf4d3876	-0.8016428
87	0xbed5fddc	-0.41795242
88	0x3e6d1e7a	0.23156157
89	0xbfd88392	-1.6915152
90	0xbebf982e	-0.3742079
91	0xbf621315	-0.88310367
92	0xbe46c414	-0.19410735
93	0x3ecf8d99	0.40537718
94	0xc00a2ef7	-2.1591165
95	0xbf4672bd	-0.77518827
96	0x3f9f71c5	1.2456595
97	0xbeee05cb	-0.46488795
98	0xbf0243d2	-0.50884736
99	0xc0419cd8	-3.025198
100	0x3f466d77	0.7751078
101	0xbfbab718	-1.4587126
102	0xbe9295a3	-0.2862979
103	0xbd90bf86	-0.0706778
104	0xbf730b14	-0.9493878
105	0xbf49c83a	-0.78821146
106	0xbe45e91a	-0.19327202
107	0xbe98c06f	-0.29834315
108	0xbdd9caf7	-0.106344156
109	0x3f195384	0.5989306
110	0x3f5952ac	0.8489177
111	0xbed85645	-0.42253318
112	0xbd4826b8	-0.04886505
113	0x3de60c81	0.11232854
114	0xbf2521fd	-0.64504987
115	0xbfbbea31	-1.4680845
116	0xbef6efa6	-0.48229712
117	0xbf55d9f0	-0.8353567
118	0x3e966f68	0.2938187
119	0xbe478538	-0.19484413
120	0xbe1b0bda	-0.1514124
121	0xbe1d446c	-0.15358132
122	0xbfbcca93	-1.4749321
123	0xc0100b17	-2.2506769
124	0x3f035b16	0.5131086
125	0x3f1a7a1a	0.6034256
126	0xbddbb591	-0.107279904
127	0xbf6d1ec9	-0.926251
128	0x3d72b640	0.05925584
129	0x3f1fc0d4	0.6240361
130	0x3e8625dc	0.2620076
131	0xbfb43374	-1.4078202
132	0xbefbb057	-0.49157974
133	0x3cc5d842	0.024150971
134	0xbfbe6d5d	-1.4877125
135	0xbfa458f9	-1.2839652
136	0x3f55e66b	0.83554715
137	0xbea19190	-0.31556368
138	0xbf2d3187	-0.676537
139	0xbfa58952	-1.2932532
140	0xbf4d7fb7	-0.80273
141	0xbf9408ad	-1.1565148
142	0xbe7702f6	-0.24122223
143	0xbfb0e451	-1.3819677
144	0xbec933b8	-0.3929727
145	0x3dfc0ade	0.1230676
146	0x3ed76e9f	0.42076585
147	0x3f2df4e9	0.6795183
148	0x3f0edd5e	0.5580653
149	0x3e9fceea	0.3121255
150	0x3e649915	0.22324021
151	0x3f3aef7b	0.7302167
152	0xbd9a161a	-0.07523747
153	0xbe94fa42	-0.29097182
154	0xbf4d9ea1	-0.80320174
155	0xbf1b82b9	-0.6074634
156	0xbf405879	-0.75135
157	0x3f26cecc	0.65159297
158	0xc034f860	-2.8276596
159	0xbf7673de	-0.9627055
160	0x3f590227	0.8476891
161	0xbf83a699	-1.0285217
162	0xbd064ef1	-0.03279013
163	0x3e80229a	0.250264
164	0x3eacf8ef	0.3378367
165	0xbf95b0ba	-1.1694558
166	0xbf4c53b7	-0.7981524
167	0x3f13b67d	0.5770033
168	0xbfc45d87	-1.5341042
169	0xbf19adc6	-0.6003078
170	0xbf9b3f8a	-1.2128766
171	0x3d7ace93	0.06123216
172	0x3d150694	0.036383227
173	0x3e5733df	0.21015881
174	0x3dedca0d	0.11610804
175	0xbd8c9686	-0.068646476
176	0xbf267ec5	-0.65037185
177	0x3f6f86e9	0.9356523
178	0xbea46a93	-0.3211256
179	0xbf66d51e	-0.9016894
