model/keypoint_classifier/keypoint_classifier.tflite (tflite, 7160 bytes, 6 tensors)

sequential/dense/BiasAdd/ReadVariableOp f4 [20]
-1.4042698 -0.6028747 -0.5711527 -0.36797348 -1.2363963 1.1713903 -0.3473832 -0.6065978
-1.2647399 -1.038383 -0.06960834 -0.78178614 -0.9242541 -0.98277336 -0.9594934 -0.412499
-0.8316169 -0.4746892 -0.11402651 0.9042117
00000000: 1dbf b3bf ff55 1abf 1037 12bf 0567 bcbe
00000010: 3c42 9ebf 1ef0 953f 36dc b1be fe49 1bbf
00000020: ffe2 a1bf bce9 84bf d18e 8ebd 2323 48bf
00000030: eb9b 6cbf 0997 7bbf 5ca1 75bf 1233 d3be
00000040: d8e4 54bf 760a f3be bb86 e9bd 6b7a 673f

sequential/dense_2/BiasAdd/ReadVariableOp f4 [18]
-0.7541088 -0.14411128 0.86201 0.041359004 0.25091597 0.19875655 -2.0524426 -0.00809439
0.2764296 0.45395884 0.121457264 -0.49915996 0.7846059 0.7102925 -0.92003065 0.9045708
-0.038637035 0.10434855
00000000: 460d 41bf e891 13be b0ac 5c3f 0f68 293d
00000010: 0f78 803e d686 4b3e 385b 03c0 559e 04bc
00000020: 2e88 8d3e 4b6d e83e 96be f83d e591 ffbe
00000030: efdb 483f bbd5 353f 2187 6bbf f491 673f
00000040: de41 1ebd b1b4 d53d

sequential/dense_1/BiasAdd/ReadVariableOp f4 [10]
0.82042503 0.7391626 1.2989669 -0.5392334 0.531204 0.57821596 0.076769695 -0.22179963
0.24324596 0.377172
00000000: 6007 523f c339 3d3f 8c44 a63f 330b 0abf
00000010: fcfc 073f f605 143f 6e39 9d3d 711f 63be
00000020: 7815 793e b01c c13e

sequential/dense/MatMul f4 [20, 42]
-0.026072472 0.16790712 -0.27095735 -0.7712368 -0.15787238 -0.38912755 -0.20858237 -0.2575028
-0.36119604 0.09571406 -0.2395178 -0.4594592 -0.04668719 -0.36859494 0.0057756216 -0.14852299
-0.017222542 -0.058842205 -0.23441453 -0.2854763 -0.1093528 -0.12713347 -0.00932001 0.0045832503
-0.014733677 0.008219169 -0.17707579 -0.22436047 -0.10285546 -0.08096439 0.1284873 0.06266788
0.20942946 -0.012415401 -0.060520906 -0.12308447 -0.19889432 0.029464155 -0.048167404 0.1722247
0.010607292 0.11679275 0.30702066 -0.23332942 -0.07043436 -0.38152605 -0.0041698627 -0.07791474
-0.03238729 0.07138891 -0.07588546 0.07674853 0.21749075 -0.046593376 0.013594561 -0.0042958395
-0.15371615 0.059625745 -0.22116181 0.08528579 0.3045171 -0.014512331 -0.07331951 0.0783179
-0.007394435 0.08959237 0.2164527 0.11426256 0.27637655 0.00967256 -0.14715643 0.09166751
-0.015868206 0.15998876 0.20964615 0.27223167 0.0346227 0.095143914 -0.14033824 0.15225449
0.029119443 0.04748164 0.17017089 -2.2190323 -0.09217365 0.31003582 0.60697705 -0.25109968
0.45866233 -0.12644923 0.62195945 -0.3331421 0.72320485 -0.39125717 0.9639338 -0.33854276
0.47119457 -0.16031796 0.22403282 -0.11305535 0.06717061 -0.06763508 0.8802248 -0.24878739
0.14216228 0.045735806 -0.35626322 0.122369476 -0.7741589 0.09449381 0.6084616 -0.17959699
0.07235576 0.14748494 -0.34850398 0.1441952 -0.74115765 0.14001548 0.47605887 -0.03615855
0.19236416 0.14392428 0.084334254 0.25595286 0.07353538 0.19402844 -0.20619144 0.26927847
-0.08122664 0.13429908 -0.09187973 -0.11838952 -0.4486189 -0.36994338 -1.4730253 -0.23341364
-0.041951153 0.18658306 0.13440605 0.04939182 0.14838761 0.05947719 0.14163157 0.038975243
-0.1954083 0.20560461 0.19125724 0.012207713 0.18960157 -0.03923104 0.012224307 0.023936857
-0.3883372 0.22749133 0.20084041 -0.026218953 0.5081608 -0.12749471 0.511741 0.16706312
-0.36299124 0.29925415 0.17043172 0.006617532 0.3794089 -0.17428659 0.44580942 0.010358371
0.26095033 -0.20824732 -0.42302248 -0.29762575 -0.15590706 -0.12741598 -0.18131676 -0.021809893
-0.22878653 -1.4367933 -0.09516384 -0.089147955 -0.019233992 0.016013399 0.018666452 0.037642837
-0.009018081 0.0007960601 -0.10664215 -0.09100202 0.008321956 -0.021935664 0.0054225745 -0.01410691
-0.086430795 -0.052363545 -0.04343844 -0.082079984 0.07405571 -0.01671709 0.057368398 -0.04256662
-0.009454939 -0.14630511 0.02005502 -0.09267506 0.078457005 0.03959546 0.084377564 0.14358811
0.027390894 0.14964843 0.20973396 -0.03140223 -0.04698583 0.34167963 -0.12330501 0.1912131
-0.040860865 0.041946217 0.034011096 -0.062547 -0.1656793 -0.061353855 -0.0025968428 -0.10582466
0.09042327 -0.05453416 0.17985308 -0.12995853 -0.13118254 -0.11956896 -0.016397744 0.14636199
0.021858593 0.3362956 -0.0055872216 0.35429922 -0.15237822 -0.052644514 0.013850722 0.25276726
0.08323668 0.6219041 0.13596144 0.8544347 -0.13805296 -0.01254971 -0.005475694 0.2833588
0.06788269 0.5805449 0.13718164 0.626869 0.27986896 -0.13616481 0.44498608 0.92547697
00000000: f095 d5bc d8ef 2b3e ecba 8abe c66f 45bf
00000010: 4ca9 21be ba3b c7be 9e96 55be 68d7 83be
00000020: b0ee b8be bc05 c43d 2744 75be 3c3e ebbe
00000030: 113b 3fbd 7ab8 bcbe 6d41 bd3b 6916 18be
00000040: 4a16 8dbc 8604 71bd 5d0a 70be f329 92be
00000050: 5cf4 dfbd 472f 02be f5b2 18bc 172f 963b
00000060: 8565 71bc b2a9 063c 5b53 35be c0be 65be
00000070: e2a5 d2bd a8d0 a5bd 2d92 033e 0458 803d
00000080: ad74 563e f769 4bbc c5e4 77bd b613 fcbd
00000090: f4aa 4bbe d05e f13c 2f4b 45bd ac5b 303e
000000a0: 35ca 2d3c 0a31 ef3d d031 9d3e e8ed 6ebe
000000b0: e43f 90bd 6257 c3be 58a3 88bb c391 9fbd
000000c0: 89a8 04bd 5934 923d d669 9bbd 552e 9d3d
000000d0: e5b5 5e3e b2d8 3ebd b9bb 5e3c 1dc4 8cbb
000000e0: c467 1dbe 203a 743d 3e78 62be 51aa ae3d
000000f0: aae9 9b3e 21c5 6dbc 8a28 96bd 2365 a03d
00000100: 044d f2bb 347c b73d c7a5 5d3e 7d02 ea3d
00000110: 3a81 8d3e a879 1e3c 2db0 16be 2dbc bb3d
00000120: 0afe 81bc 18d4 233e 7bad 563e f361 8b3e
00000130: 88d0 0d3d d0da c23d d4b4 0fbe 9ae8 1b3e
00000140: e68b ee3c 1c7c 423d 4741 2e3e a004 0ec0
00000150: 8ac5 bcbd 04bd 9e3e d962 1b3f 2390 80be
00000160: cad5 ea3e e87b 01be bc38 1f3f 9a91 aabe
00000170: f423 393f dc52 c8be 5ec4 763f 7a55 adbe
00000180: 6a40 f13e 642a 24be dc68 653e 9089 e7bd
00000190: bf90 893d 4384 8abd 6a56 613f 1fc2 7ebe
000001a0: fd92 113e 7855 3b3d 2268 b6be d99c fa3d
000001b0: 472f 46bf f885 c13d 24c4 1b3f 46e8 37be
000001c0: 422f 943d 4b06 173e 1d6f b2be e8a7 133e
000001d0: 82bc 3dbf 3860 0f3e fdbd f33e fd1a 14bd
000001e0: 1cfb 443e e360 133e 70b7 ac3d 410c 833e
000001f0: b899 963d 64af 463e d923 53be dede 893e
00000200: 275a a6bd b385 093e 712b bcbd 3476 f2bd
00000210: 60b1 e5be 3869 bdbe 188c bcbf fc03 6fbe
00000220: f9d4 2bbd a10f 3f3e bda1 093e 144f 4a3d
00000230: ecf2 173e 5b9e 733d de07 113e 81a4 1f3d
00000240: 1d19 48be 048a 523e f0d8 433e dc02 483c
00000250: ea26 423e bab0 20bd 7648 483c 3a17 c43c
00000260: 22d4 c6be 7df3 683e 1ca9 4d3e 21c9 d6bc
00000270: d416 023f f98d 02be 7501 033f 9812 2b3e
00000280: fdd9 b9be d737 993e a785 2e3e e2d7 d83b
00000290: e241 c23e 2f78 32be 2241 e43e 28b6 293c
000002a0: 489b 853e c93e 55be 6796 d8be 6762 98be
000002b0: 1aa6 1fbe 5679 02be 1aab 39be a9aa b2bc
000002c0: 0447 6abe d8e8 b7bf 42e5 c2bd 3493 b6bd
000002d0: 9b90 9dbc 882e 833c 63ea 983c 602f 1a3d
000002e0: 93c0 13bc b0ae 503a 3367 dabd 445f babd
000002f0: d058 083c 6cb2 b3bc daaf b13b ab20 67bc
00000300: a102 b1bd 287b 56bd 81ec 31bd 8d19 a8bd
00000310: 85aa 973d 47f2 88bc 20fb 6a3d 565a 2ebd
00000320: e3e8 1abc 02d1 15be 6d4a a43c 6ccc bdbd
00000330: 11ae a03d d92e 223d 25ce ac3d c308 133e
00000340: de62 e03c 703d 193e 80c4 563e a09f 00bd
00000350: 3774 40bd a2f0 ae3e 5687 fcbd 5ecd 433e
00000360: b95d 27bd cccf 2b3d 384f 0b3d a418 80bd
00000370: d6a7 29be 2e4e 7bbd cb2f 2abb 99ba d8bd
00000380: d62f b93d 365f 5fbd 682b 383e d913 05be
00000390: b754 06be 92e0 f4bd 9054 86bc ebdf 153e
000003a0: cb10 b33c f02e ac3e 0315 b7bb b566 b53e
000003b0: 0909 1cbe c6a1 57bd 24ee 623c b66a 813e
000003c0: fe77 aa3d 1b35 1f3f 7a39 0b3e 3cbc 5a3f
000003d0: c15d 0dbe 4d9d 4dbc 736d b3bb 6814 913e
000003e0: 1406 8b3d 979e 143f 5879 0c3e 7d7a 203f
000003f0: fc4a 8f3e ca6e 0bbe 37d5 e33e 0fec 6c3f

sequential/dense_1/MatMul f4 [10, 20]
-0.52956307 0.19174363 0.0009355395 0.08412805 -0.06707686 0.8285552 0.19085988 -0.3507496
-0.21699733 1.0632664 0.85307795 1.164817 -0.34718668 0.42433152 -0.63810575 0.6180544
1.0369012 2.1942294 0.116934836 0.6637737 0.24807301 0.9797553 -0.03803895 0.16210555
0.29056793 -0.6269909 0.7390631 -0.0903328 0.13846356 1.650123 -0.033757247 1.9338647
0.87663347 0.8365096 0.056034386 0.2353493 0.8952256 0.6884339 0.043911617 0.14305189
0.14809385 -0.07813713 0.19411698 -0.27253556 -0.19294895 0.27454105 0.45739877 -0.16410513
-0.060292456 -0.12568496 -0.009686456 -0.088952795 -0.13779946 1.7321271 -0.056738824 0.6194931
-0.07466444 -0.25689197 0.2505056 0.24336724 0.064221784 -0.04793534 0.69923615 0.81645197
0.50063807 0.696649 0.55378306 1.0384307 0.6556921 0.057961922 0.4932485 0.10427435
-0.1061984 0.49628228 1.1150548 -0.06463212 0.38432625 1.3327503 0.97259 0.55071115
1.3475049 -1.0049357 1.0808281 0.57682365 1.5416892 0.86271137 0.34837654 -0.057525996
1.4099953 0.20578715 0.7762816 0.092391 0.821404 -0.16882147 0.1454811 0.99006253
-0.48360145 -0.37107965 0.33045593 0.5113463 0.2490898 1.8033793 0.23164155 1.4304987
1.3511535 0.03668984 -0.9381184 -0.12623377 0.54814714 -0.05464094 0.052298386 -0.0541022
0.54055786 0.028316546 -0.055749565 0.2719528 0.21310274 -0.3237558 0.18281928 0.03404904
1.3436278 0.05386254 0.16863893 0.58808684 0.5711468 0.8681103 -0.7327428 0.26796207
0.26194057 0.13264877 -0.24877031 0.13927367 0.3348338 0.45834067 0.30962428 0.3948338
0.060039464 0.26363763 0.2123571 0.8435872 -0.1995291 -0.34608716 -0.06317749 0.17471004
-0.026059255 0.7203601 -0.14690067 -1.3098541 -0.0937229 -0.078760676 0.5267503 -0.058465097
-0.628469 -0.10885809 0.77055115 0.59327227 0.6699954 -0.26591945 0.5837703 -0.014526224
1.4047354 -0.18106644 -1.3738916 -0.14116737 1.0275495 -0.073943555 0.2535071 0.7287033
0.11716008 0.11092633 -0.039048593 0.012602731 0.60798 -0.06849738 0.8243894 -0.17464687
0.5189692 0.88892907 0.9158271 -0.43096447 -0.5652606 1.1827675 0.44429985 0.5376635
-0.22539724 0.8586157 0.91168326 0.2537574 0.5706487 -0.0592738 -0.097250655 -0.11826157
0.8228112 -0.61960346 0.21346591 -0.47467 -0.07582793 0.1427346 0.12309264 1.1538206
00000000: 7291 07bf 7158 443e fe3e 753a 544b ac3d
00000010: 985f 89bd 321c 543f c670 433e 7495 b3be
00000020: 8c34 5ebe 1d19 883f 5163 5a3f b918 953f
00000030: 74c2 b1be fb41 d93e e65a 23bf d038 1e3f
00000040: 2eb9 843f 416e 0c40 887b ef3d 13ed 293f
00000050: da06 7e3e 3ed1 7a3f bbce 1bbd fffe 253e
00000060: 52c5 943e 7a82 20bf 3d33 3d3f 6700 b9bd
00000070: 64c9 0d3e 3b37 d33f 0a45 0abd e188 f73f
00000080: 0d6b 603f 7e25 563f 5084 653d 68ff 703e
00000090: 812d 653f 343d 303f abdc 333d 327c 123e
000000a0: eaa5 173e 5c06 a0bd 9ac6 463e c889 8bbe
000000b0: 6994 45be a590 8c3e 2c30 ea3e 2d0b 28be
000000c0: 39f5 76bd 8fb3 00be f1b3 1ebc e22c b6bd
000000d0: 4d1b 0dbe 57b6 dd3f f866 68bd 1a97 1e3f
000000e0: abe9 98bd 5887 83be 4542 803e 4335 793e
000000f0: b686 833d d957 44bd 2401 333f ff02 513f
00000100: d129 003f 9757 323f bac4 0d3f 4ceb 843f
00000110: 70db 273f 7b69 6d3d 118b fc3e ca8d d53d
00000120: 8c7e d9bd b618 fe3e 1eba 8e3f d85d 84bd
00000130: 69c6 c43e 9097 aa3f a9fb 783f 68fb 0c3f
00000140: 0a7b ac3f bca1 80bf 9358 8a3f b7aa 133f
00000150: 1256 c53f a7da 5c3f 695e b23e 61a0 6bbd
00000160: ba7a b43f deb9 523e 64ba 463f 7e37 bd3d
00000170: 8847 523f 89df 2cbe fff8 143e bd74 7d3f
00000180: 9c9a f7be 27fe bdbe 8531 a93e 97e7 023f
00000190: 6611 7f3e 22d5 e63f 7133 6d3e 951a b73f
000001a0: 99f2 ac3f 1648 163d 8728 70bf 6d43 01be
000001b0: 5f53 0c3f 2ecf 5fbd d536 563d 459a 5dbd
000001c0: 0062 0a3f 1af8 e73c a859 64bd 663d 8b3e
000001d0: 9b37 5a3e 52c3 a5be fa34 3b3e 0277 0b3d
000001e0: fffb ab3f f79e 5c3d afaf 2c3e dc8c 163f
000001f0: ad36 123f 7a3c 5e3f 0895 3bbf 5332 893e
00000200: 131d 863e 14d5 073e a5bd 7ebe c29d 0e3e
00000210: 566f ab3e a1ab ea3e 1387 9e3e a827 ca3e
00000220: f1eb 753d 83fb 863e 2474 593e 55f5 573f
00000230: 5b51 4cbe 5632 b1be 3363 81bd 30e7 323e
00000240: 387a d5bc 8569 383f 216d 16be 4da9 a7bf
00000250: cbf1 bfbd 474d a1bd 1cd9 063f 1979 6fbd
00000260: 58e3 20bf fef0 debd d742 453f b1e0 173f
00000270: d284 2b3f 9826 88be f871 153f 66ff 6dbc
00000280: 5fce b33f 7b69 39be aedb afbf 2e8e 10be
00000290: be86 833f b86f 97bd afcb 813e 4d8c 3a3f
000002a0: a0f1 ef3d 582d e33d 6bf1 1fbd af7b 4e3c
000002b0: 94a4 1b3f 5b48 8cbd 2f0b 533f a1d6 32be
000002c0: 2adb 043f db90 633f a573 6a3f 60a7 dcbe
000002d0: ebb4 10bf ed64 973f 457b e33e 51a4 093f
000002e0: 89ce 66be 3dce 5b3f 1364 693f 7dec 813e
000002f0: 0916 123f 16c9 72bd 5a2b c7bd 1f33 f2bd
00000300: c1a3 523f 559e 1ebf cf96 5a3e f207 f3be
00000310: ac4b 9bbd 0529 123e fe17 fc3d 65b0 933f

sequential/dense_2/MatMul f4 [18, 10]
0.1914187 0.19476467 -0.37659732 0.8847604 -0.30470926 -0.019884832 0.23894455 0.1470502
-0.53704697 -0.16520905 -0.16560765 -0.044665378 -0.4219615 -0.11412966 0.7675426 -0.26817262
0.15136813 -0.582326 0.019814204 0.12117304 -0.052887198 -0.9527061 0.8646882 -0.19611818
0.38690767 -0.6671916 0.10294587 -0.7016863 -0.24472713 0.013672013 0.4092997 0.097034544
-1.8128068 -0.022868762 -0.15381688 -0.15732478 -0.08468908 0.29124138 0.08594517 0.56722546
-1.5312122 0.01344038 0.7924708 0.33425495 -0.53138787 0.19728327 0.26933414 -0.96699804
-0.81969583 0.34084582 -0.08140081 0.5002778 0.249576 -0.6142278 0.44520497 -1.3157837
-0.5135846 -2.2083814 -0.32104126 -0.7474331 -0.56391245 -0.14326166 -0.4444546 0.2848272
0.047808405 0.34069142 0.040994514 0.2544104 -0.007538493 0.4858162 -0.5726556 -2.360042
-0.9535385 0.16362102 0.7076232 0.43561667 -0.5222158 0.18518953 0.32358164 0.0715801
0.057453416 -1.115651 -0.42415515 0.2630449 -0.3966564 -1.1261549 0.049632806 -0.6010891
-0.28197333 0.7303779 0.62773454 0.12858704 0.2683608 -0.9919379 0.40482387 -2.2077043
-0.44998312 -0.7156869 -2.7703025 -1.4428326 -0.1368594 0.64908355 0.09263746 -0.7836471
-1.0905603 -0.125183 -0.6723525 -1.9861693 -0.07708832 -0.6252387 0.8388668 0.049098004
0.1835091 -0.2860296 -0.6308303 -0.86263794 -1.3067167 -0.62263334 -0.09502277 -0.54919505
-1.8760029 -0.117162384 0.22490345 -1.3137807 0.36293828 0.2754676 -1.460641 -0.802097
-0.55257 1.0104246 0.3090504 0.3945268 0.5778999 -1.6176535 0.044491798 -2.453909
-1.3213744 -1.1605884 -0.95013946 -1.1188846 -1.0245279 -0.19602846 0.4748318 -2.1308131
0.32940853 0.6491132 0.6378753 -1.2294574 -0.43580517 -0.6478329 0.23078449 -0.9290695
-0.26568705 0.47607046 -2.6724708 -0.52491266 -0.8365693 0.8966376 0.8909462 -0.5894041
-0.72661847 0.8059249 -0.0526843 -0.0008599425 -0.67698085 -2.009288 -0.2109484 -0.16792008
0.6649206 -0.91999197 -0.36186242 -1.6736795 -0.5048764 0.022630773 -0.19585861 -0.4909865
0.4518016 0.3837253 0.6137065 -0.47237968
00000000: 4403 443e 6470 473e 5dd1 c0be a87f 623f
00000010: da02 9cbe 84e5 a2bc e1ad 743e 5494 163e
00000020: e97b 09bf 902c 29be 0d95 29be 0bf3 36bd
00000030: 560b d8be d0bc e9bd ac7d 443f ec4d 89be
00000040: 3f00 1b3e 5113 15bf 6651 a23c 9229 f83d
00000050: 3fa0 58bd 8ce4 73bf 355c 5d3f 34d3 48be
00000060: c318 c63e 12cd 2abf 49d5 d23d b7a1 33bf
00000070: c099 7abe 9400 603c bb8f d13e 0cba c63d
00000080: 0e0a e8bf 4557 bbbc 2c82 1dbe bf19 21be
00000090: 7871 adbd 971d 953e 0504 b03d b035 113f
000000a0: c3fe c3bf 0a35 5c3c 5edf 4a3f 7723 ab3e
000000b0: 0909 08bf a004 4a3e 2ae6 893e 2f8d 77bf
000000c0: 96d7 51bf 5883 ae3e 78b5 a6bd 3512 003f
000000d0: da90 7f3e 083e 1dbf e8f1 e33e 9a6b a8bf
000000e0: 487a 03bf 1f56 0dc0 855f a4be c757 3fbf
000000f0: 915c 10bf 2fb3 12be 8e8f e3be dfd4 913e
00000100: bfd2 433d 1b6f ae3e dde9 273d 1442 823e
00000110: 7605 f7bb e7bc f83e 8f99 12bf ee0a 17c0
00000120: 191b 74bf 458c 273e cb26 353f 2609 df3e
00000130: efaf 05bf 53a2 3d3e 7eac a53e 9698 923d
00000140: 4654 6b3d a7cd 8ebf dd2a d9be d2ad 863e
00000150: 8c16 cbbe d825 90bf c54b 4b3d fae0 19bf
00000160: cf5e 90be 0cfa 3a3f 36b3 203f 52ac 033e
00000170: 9666 893e a4ef 7dbf 1345 cf3e 074b 0dc0
00000180: 3064 e6be 4237 37bf a34c 31c0 bdae b8bf
00000190: df24 0cbe 572a 263f b5b8 bd3d 199d 48bf
000001a0: 7b97 8bbf f92f 00be 4b1f 2cbf cc3a febf
000001b0: 7be0 9dbd a50f 20bf f9bf 563f fd1a 493d
000001c0: cfe9 3b3e 7972 92be 187e 21bf d7d5 5cbf
000001d0: 7e42 a7bf e664 1fbf 4c9b c2bd 0c98 0cbf
000001e0: dd20 f0bf d5f2 efbd 174d 663e f729 a8bf
000001f0: 0cd3 b93e 170a 8d3e 49f6 babf 3b56 4dbf
00000200: 3a75 0dbf 9855 813f db3b 9e3e 6bff c93e
00000210: 3ff1 133f 450f cfbf 083d 363d d80c 1dc0
00000220: cc22 a9bf 298e 94bf 573c 73bf 9c37 8fbf
00000230: bb23 83bf afbb 48be 271d f33e 3e5f 08c0
00000240: 3ca8 a83e 482c 263f cc4b 233f dc5e 9dbf
00000250: db21 dfbe 60d8 25bf c552 6c3e 80d7 6dbf
00000260: 2208 88be 82bf f33e c309 2bc0 ad60 06bf
00000270: 6829 56bf 0b8a 653f 0d15 643f 30e3 16bf
00000280: ab03 3abf 1851 4e3f 7ecb 57bd c46d 61ba
00000290: 9e4e 2dbf 2d98 00c0 db02 58be 3ef3 2bbe
000002a0: 3d38 2a3f 9884 6bbf 0846 b9be 213b d6bf
000002b0: 943f 01bf 2c64 b93c 298f 48be 9562 fbbe
000002c0: 8a52 e73e a477 c43e df1b 1d3f c0db f1be
