model/keypoint_classifier/keypoint_classifier.tflite (tflite, 6896 bytes, 6 tensors)

sequential/dense/BiasAdd/ReadVariableOp f4 [20]
000000 17 f1 46 bf f1 61 0e bf e4 d8 fa be c3 93 0f bf
       -0.77711624 -0.55618197 -0.489936 -0.5608484
000010 d6 c2 65 bf 17 25 2b bf bc 47 8e 3e cf 5d e9 3b
       -0.8975042 -0.6685347 0.27789104 0.0071217786
000020 16 49 a4 3e 7d ad be be 45 4e 3d bf 8a 30 5e bf
       0.3208701 -0.37241736 -0.73947555 -0.86792815
000030 35 b5 be be 7f 82 21 bf df d2 31 bf a3 c8 69 be
       -0.37247625 -0.63089746 -0.6946239 -0.22830443
000040 07 87 b4 be d5 8c 8c bf 1e c4 b3 3e 4f 46 83 bf
       -0.35259268 -1.0980479 0.35110563 -1.0255831

sequential/dense_2/BiasAdd/ReadVariableOp f4 [12]
000000 9c c5 2e bf 9f 71 8a bd 09 71 0d bf d4 bf 1e 3e
       -0.6827028 -0.06759953 -0.552506 0.15502864
000010 77 86 96 3e 49 56 1d 3f b1 b4 36 bf 4b ce 70 3e
       0.29399464 0.61459786 -0.71369463 0.23516195
000020 88 86 73 3d 6b bf 11 3f 88 1c fd 3e 05 02 33 be
       0.05945447 0.56932706 0.4943583 -0.17481239

sequential/dense_1/BiasAdd/ReadVariableOp f4 [10]
000000 a0 6a 3f 3f c3 44 15 3d ec ba 2d 3f 32 6d 6d 3f
       0.7477207 0.03644253 0.67863345 0.92744744
000010 01 7d 65 3e 6c c9 1a 3f d3 a9 93 bd bf 72 2c 3e
       0.22410966 0.60463595 -0.07210126 0.16840647
000020 45 10 15 3e 46 99 e7 3e
       0.14556988 0.45234126

sequential/dense/MatMul f4 [20, 42]
000000 90 b0 fc bd 7a 3c 9e 3e b0 89 9b 3d 38 b3 87 3e
       -0.12338364 0.30905515 0.07594621 0.2650392
000010 be 49 95 3d b8 e4 55 3e e1 ce 3c 3d c4 20 11 3e
       0.07289456 0.2088803 0.046095733 0.14172655
000020 ad 9a 90 3d 39 0c b8 3d 40 73 c8 3d 72 b6 a8 3d
       0.07060752 0.08986706 0.09787607 0.08237924
000030 49 29 a1 3d fb 0b 1f 3e 9b 7d 14 bb 2e 40 28 3e
       0.07869203 0.15531914 -0.0022657875 0.16430733
000040 e9 56 b7 3c dd 91 44 3d 19 56 be 3d 1c 44 bd 3d
       0.02238031 0.04799067 0.092937656 0.092415065
000050 f2 d3 ea 3d 56 55 a9 3d fb 91 0b be ed 9c d7 bd
       0.114662066 0.0826823 -0.13629906 -0.10527978
000060 13 97 02 bf 93 2e 19 bf cf b7 a4 3d 0f 98 1a 3e
       -0.5101177 -0.5983669 0.08042871 0.15097068
000070 03 8c d4 3d 17 6e 73 3d 79 65 d4 bd 61 60 7c bf
       0.103782676 0.05943116 -0.10370917 -0.9858456
000080 53 41 16 bf b2 85 52 bf 22 81 ae 3d ae 7f 42 3e
       -0.58693427 -0.8223525 0.08520724 0.18994018
000090 a7 51 0d 3e b5 76 04 3e bf 14 4e 3d c9 b0 fb bc
       0.13800679 0.12935908 0.050312754 -0.030723946
0000a0 70 f8 09 3d c8 2c c5 bd 50 40 19 3d 60 b1 bc bc
       0.033684194 -0.09627682 0.03741485 -0.023033798
0000b0 6f 15 82 be fa 84 94 3e 7c 36 63 bc fd ef 10 3e
       -0.25406978 0.29007703 -0.013867971 0.14154048
0000c0 92 e9 a0 3c ca 4e 73 3d 37 bf 9f 3c 7b 01 8d 3c
       0.019642625 0.05940131 0.019500358 0.01721262
0000d0 f0 42 81 bd 8b 9e 05 3e 1e b3 96 3c a0 e7 e4 3d
       -0.063115954 0.1304876 0.018395957 0.111769915
0000e0 0c ab 39 3d 69 d1 ed 3d 8a fd 45 3e 0b 57 0e 3e
       0.04532914 0.116122074 0.19334999 0.13900392
0000f0 a2 00 23 bd 71 6b 96 3d 37 11 1b bc 2e ed 47 3d
       -0.039795525 0.073447116 -0.009464554 0.048810177
000100 35 ea 28 3c 13 97 f6 bd 9a fc aa 3d 43 1d 0e c0
       0.010309746 -0.12040534 0.08348961 -2.220536
000110 1b 69 54 bd a6 6d 8d 3d 00 92 4c bd 49 6b cb 3d
       -0.05185805 0.069056794 -0.049943924 0.099325724
000120 ca 24 06 3d 68 91 17 3d 7a ec 81 3d 38 e3 ab 3d
       0.03274993 0.037003905 0.063439324 0.08392948
000130 e3 2d 3e bc 2b 1f a5 3d 8a 69 93 bd 47 10 27 3e
       -0.01160762 0.080625854 -0.07197864 0.16314803
000140 60 4c 2f bd 84 51 8f 3e 67 b4 fc 3c b9 c9 85 3e
       -0.042797446 0.2799188 0.030847741 0.26130465
000150 40 e1 86 bb 20 8d f0 3d e9 0f 85 3d bc fe d1 bd
       -0.0041162074 0.117456675 0.06497175 -0.10253665
000160 cf aa 0e bc 9d fa 03 bc d1 1e 35 3c 13 eb f1 3c
       -0.008707716 -0.008055356 0.0110547105 0.029531037
000170 ce 2a 38 3b ef ae 1e 3d 0e d0 d7 3c ac 45 5d 3c
       0.0028101685 0.03874105 0.026344325 0.013505381
000180 64 f6 46 bc 0e 9b 3f 3d 94 77 d3 b8 0d 5a 6f 3d
       -0.012143705 0.04677873 -0.00010083537 0.05843549
000190 05 68 20 bc 65 35 77 3d 0d 1d 88 3c 75 f7 21 3d
       -0.009790425 0.060353655 0.016615415 0.039542634
0001a0 d5 7c 02 bd 46 6e 90 3d e1 99 3e 3c 8c 94 ab 3d
       -0.03185733 0.07052283 0.011633367 0.083779424
0001b0 9d f3 0b 3b e8 49 ed 3d b6 87 b8 3d 08 ec bc 3d
       0.0021354922 0.11586362 0.0901026 0.09224707
0001c0 5c 60 10 bd 75 82 d9 3d 2c e8 d9 bc 3e e5 0c 3e
       -0.035248145 0.10620586 -0.026599966 0.13759324
0001d0 e7 28 1a 3e 46 cc ed bf 50 54 52 3c 72 83 2a 3e
       0.15054666 -1.8577964 0.0128374845 0.16651705
0001e0 28 15 0a bd 87 13 0b 3e e6 fa 96 bd 22 1d 15 3e
       -0.033711582 0.13581668 -0.07372074 0.14561895
0001f0 4a 25 8d bc a4 f6 06 3e 80 39 7e 3e fc 34 6a 3e
       -0.017229695 0.13180023 0.24826622 0.22871774
000200 0b e0 7e 3d b8 a5 19 3f f1 bb 39 3d 65 08 ba 3e
       0.062225383 0.6001849 0.04534525 0.3633453
000210 2c 75 e1 3c 0f 17 82 3e 2c 52 84 bd aa 8c 73 3e
       0.027521692 0.25408217 -0.064609855 0.23784128
000220 74 56 e4 bb eb 71 1c 3e 94 30 e2 3c f2 b2 ef 3d
       -0.006968314 0.15277831 0.027611054 0.11704053
000230 2d 43 0a bc d2 54 8b 3d 65 ba 5e bc 85 88 e8 bf
       -0.0084388675 0.068032876 -0.013594245 -1.8166662
000240 fa 65 42 bd ef c1 ec 3d 81 ea cf bc 5a 79 01 3e
       -0.047460534 0.115604274 -0.025380375 0.12643948
000250 84 3e c6 bc a9 7e d1 3d fc 57 de 3c 36 7b 2c 3d
       -0.024199732 0.10229237 0.027141564 0.04210969
000260 35 57 bb bc 65 0c a3 3d c4 2d 72 bd 3b e8 9c 3d
       -0.022868732 0.079613484 -0.059125677 0.07661482
000270 d3 f6 04 3a a6 76 72 3d cb f5 16 bd ab a3 ef bb
       0.000507218 0.059195183 -0.0368555 -0.007313212
000280 db de 3d 3d 65 a5 81 3d 97 29 36 bd 61 fe 3d 3d
       0.04635511 0.06330375 -0.044473257 0.046385173
000290 4d 51 25 bc 54 d4 51 bd 50 84 de 3c e1 e4 ce bd
       -0.010090184 -0.051227883 0.0271627 -0.10102249
0002a0 2b 46 00 be bc d6 25 3e 63 b1 bd be 5e 91 81 bf
       -0.12526767 0.16195196 -0.37049398 -1.0122488
0002b0 f1 b5 d7 bd c9 6a 37 bf 68 4f 29 3e 49 4b c2 be
       -0.105327494 -0.71647316 0.16534197 -0.37948063
0002c0 3c 04 3d 3f a5 26 92 be ab 30 02 3d 0c 88 95 be
       0.73834586 -0.28545108 0.031784695 -0.29205358
0002d0 aa 5d ba bd 0b 05 25 be bb a7 c4 bd dc 64 5b bc
       -0.09099896 -0.16115205 -0.096023045 -0.013390746
0002e0 a9 74 49 bd b8 e6 24 bc 84 b4 aa 3e f0 75 64 be
       -0.04918352 -0.010064773 0.33340847 -0.22310615
0002f0 3a ba 6a be 8b 99 8d bc 58 b0 84 be a5 2b 07 3e
       -0.22922602 -0.017285129 -0.2591579 0.13200243
000300 95 e4 6c be 0d 3b c4 3d 0d 14 f6 3e 8e 29 37 be
       -0.23134072 0.095815755 0.48062173 -0.17886946
000310 8c bc 2a be 44 30 33 bd 51 44 c7 bd 8d e7 0f 3e
       -0.16673487 -0.0437472 -0.09729827 0.14053173
000320 e6 ac 5f 3d c6 59 a4 3d 32 87 61 3e 80 ef bb be
       0.05460825 0.080249354 0.22024229 -0.36706161
000330 38 a2 ea bd 5b 2e 6b be 78 59 ec bd b5 d6 38 3d
       -0.11456722 -0.22966902 -0.11540502 0.045126636
000340 71 e2 9e bd d4 1b 9d 3d 43 c5 3a be 2c ca ad 3d
       -0.07758034 0.076713234 -0.18239312 0.08485827
000350 86 94 d4 be 32 70 9f bf 8f 1f 47 be ad 31 f0 be
       -0.41519564 -1.2456114 -0.19445632 -0.469129
000360 98 7e c6 be 4a 39 07 be 49 fe e6 bf c6 75 e8 bd
       -0.38768458 -0.13205448 -1.8046352 -0.113505885
000370 17 34 b1 be 34 1a 7a 3b b5 db 96 be 54 c9 48 3d
       -0.34610054 0.003816259 -0.29464498 0.049020126
000380 dc 9e 76 be 21 e4 b7 3d 2e eb ac bd 67 a3 83 3d
       -0.24084038 0.08979059 -0.084432945 0.06427651
000390 5d 80 8b be 7d 21 91 3d 9e 5f 9d bd 9b 58 96 3d
       -0.2724637 0.070864655 -0.07684253 0.07341119
0003a0 81 fa 1f 3e a6 29 e0 3d 15 6c 34 3e fa 17 89 3d
       0.15622903 0.10945444 0.17619355 0.06694026
0003b0 e5 95 85 3c 5d 5c d1 3d 40 56 ab 3d e8 95 6b 3d
       0.016306827 0.10222695 0.0836606 0.05751601
0003c0 68 9a 4f 3e 74 89 ba 3d 99 19 56 3c 4a 80 86 3d
       0.20273745 0.09108248 0.013067626 0.06567438
0003d0 21 1b 85 3e 1a ba 20 3e 16 f6 dd 3e 9c a0 ea 3d
       0.2599726 0.15695992 0.4335181 0.11456415
0003e0 c8 05 ba 3e 77 5c e9 3d dd e3 81 3e cb 98 ee 3d
       0.36332536 0.113945894 0.25369158 0.11650237
0003f0 14 24 3f be 34 ad 89 be 71 66 1a 3e 89 50 ab be
       -0.18666106 -0.26889956 0.15078141 -0.3345988

sequential/dense_1/MatMul f4 [10, 20]
000000 96 52 b3 3f 82 07 90 3f 61 34 e3 3f 0b 09 5f 3f
       1.4009578 1.1252291 1.775036 0.87123173
000010 0b 8b 4e 3d 72 57 c9 be 40 e4 81 3c 99 5c b5 3d
       0.05042557 -0.39324528 0.015855908 0.08855552
000020 a1 1d cb bd 6e 1c f8 3d 94 f2 96 3f 5b 82 05 be
       -0.09917761 0.121147975 1.1792779 -0.13038008
000030 b8 c7 80 be ea c1 88 be c9 99 85 3f 78 fb 8c 3e
       -0.25152373 -0.26710445 1.0437557 0.27535605
000040 2e c8 97 bc aa f7 28 3f d8 3c bb 3e e2 1b 06 3e
       -0.01852807 0.66002905 0.36569858 0.13096574
000050 6f ed 5c 3e e3 13 5a 3d 3a 2c 04 3f 4f 71 1d 3f
       0.21574949 0.05324162 0.51629984 0.6150102
000060 72 07 d6 3e 51 a3 85 bd 4f 20 5a 3e 92 93 56 3e
       0.41802555 -0.06525291 0.21301387 0.20954731
000070 cc 98 44 be bb 14 9f be a4 10 83 3f 3c 56 62 3e
       -0.19198912 -0.31070504 1.0239453 0.22103208
000080 27 9c 36 3f 79 28 dd 3e eb d0 7f 3f 97 90 63 3e
       0.7133202 0.4319494 0.9992816 0.22223125
000090 02 19 c3 3d 65 1d 12 be f6 99 6c bf 72 b1 88 be
       0.09526254 -0.14269026 -0.92422426 -0.2669788
0000a0 3c 6c 2c be 7a 73 b0 bd 23 74 8d bf 14 4c 9f 3e
       -0.16838163 -0.086157754 -1.1051067 0.3111273
0000b0 76 a1 86 3f 9f d7 84 3f 06 24 be 3e da 48 ca 3e
       1.0518024 1.0378302 0.3713686 0.39508706
0000c0 05 4a 5c 3e 98 9e 22 be db 49 10 3f de 6d 81 3e
       0.21512611 -0.15880811 0.56362695 0.25279135
0000d0 49 1b a8 be 12 80 2d 3f 4b ef d9 3e df 7b 02 bf
       -0.32833317 0.67773545 0.4256538 -0.5097026
0000e0 98 a4 3e 3d ee cd 5a 3f 8d b7 bc 3e 7a 73 6b 3f
       0.046543688 0.85470474 0.36858788 0.9197308
0000f0 48 8f 10 3e 25 07 01 3f ad 03 07 be 17 57 03 40
       0.14117157 0.50401527 -0.13184996 2.0521905
000100 01 80 8a 3e 51 91 a8 be ad 1f 08 3e 51 ad 08 3e
       0.27050784 -0.32923368 0.13293333 0.13347365
000110 0f 09 c5 3e 3b bd 80 3e fc 6b 17 40 64 54 27 3f
       0.38483474 0.2514437 2.3659658 0.65363145
000120 81 38 ac be 72 4a 93 3c 8c 6d 0b be dc 53 27 be
       -0.3363686 0.017979834 -0.13616008 -0.16340584
000130 33 9e df 3d 85 bd 39 bd 8a 8c b6 bd 9a e9 28 3f
       0.10918846 -0.045346756 -0.089135244 0.6598145
000140 43 bc da bc 06 ea bd 3a 23 ed ea bd 16 17 7d bd
       -0.026701098 0.00144893 -0.114710115 -0.061789595
000150 14 b6 11 3f ca 83 55 3f 38 b1 1e 3e 8a 75 7f bf
       0.56918454 0.8340422 0.15497291 -0.99788725
000160 b2 e9 02 bf 21 49 74 3f c7 93 c9 bd ef 3f 1e bf
       -0.5113784 0.95424086 -0.098426394 -0.61816305
000170 df 77 81 bf b0 1f 66 be 3d cc f0 bc e4 9e 34 3e
       -1.0114707 -0.22473025 -0.029394263 0.17638737
000180 ba cf 04 bd ee 8b 88 be 32 0c 7d be b6 70 e8 be
       -0.032424666 -0.26669258 -0.24711683 -0.45398492
000190 39 2a 8d 3f f0 d8 c8 3f 2a 7b 58 3f d4 eb 1f be
       1.102851 1.5691204 0.84562933 -0.15617305
0001a0 7a 66 12 3f af 22 6a 3e 3e 43 38 3f 99 b2 ac bc
       0.57187617 0.22864793 0.71977603 -0.021081256
0001b0 ad 35 70 3f fc dd 23 3f 7a 4e 08 bd 3e 4c 0c bf
       0.938319 0.64010596 -0.033277966 -0.54803836
0001c0 b6 fd a8 3e 14 a1 d2 3d 35 3b d5 bc 77 7f f7 3d
       0.33006066 0.102846295 -0.026029209 0.12084859
0001d0 8f 37 48 bd a8 da 09 3e f1 62 bc bc b3 70 4d 3f
       -0.04888111 0.13462317 -0.022996398 0.8025009
0001e0 9a e5 84 bc bc 2a 73 3d e5 49 3b 3e 81 e2 22 3e
       -0.016222764 0.059366927 0.18289907 0.15906717
0001f0 0e 86 8c 3e 20 9d 1e 3f d6 f4 6a 3f 9b df 20 3f
       0.27446026 0.61958504 0.9177984 0.62841195
000200 88 8b 18 3f 96 51 80 3e 60 57 6c 3e 14 af 92 3e
       0.5958791 0.25062245 0.23080206 0.286492
000210 c8 3a e0 3e f9 e5 76 3d b4 7e 0c 3d 14 1d 0d 3f
       0.43794847 0.060277913 0.03430052 0.55122495
000220 4a 5b 24 3f 2f f8 80 be 4f 96 4c 3f 5b 7d 31 bf
       0.64201796 -0.2518935 0.7991685 -0.693319
000230 33 29 a4 3e a7 3a 92 3d 1e 11 04 bc 24 01 ae be
       0.32062683 0.07140093 -0.008060722 -0.33985245
000240 0d 3f 67 3f 0f d0 61 3e 2b c5 74 3f dd 58 52 3f
       0.9033058 0.22052024 0.95613354 0.82166845
000250 dc b5 25 3f 4b 81 53 3e fa d8 1f bf fd 78 ba 3f
       0.6473062 0.2065479 -0.62440455 1.4568173
000260 06 0f d8 3e 73 5a 21 3f 26 29 18 3f 34 6f 02 3f
       0.42198962 0.6302864 0.5943779 0.5095093
000270 de 92 a7 3f 62 11 57 3f e5 13 38 3f 4e d8 96 3f
       1.3091695 0.840109 0.71905357 1.1784761
000280 66 b8 92 3e e3 50 02 3d b9 c0 9f 3f 50 7a ab 3c
       0.2865631 0.03181542 1.2480689 0.020932347
000290 a1 97 15 bf 07 fe 3d 3f 3a 2f 31 3d ef 24 8a 3f
       -0.5843449 0.7421574 0.04325793 1.0792521
0002a0 1c bf dd bd 00 04 bb 3c 3e 20 b1 bc cd df ea 3d
       -0.10827467 0.022829056 -0.02162182 0.11468468
0002b0 9b 7b b8 3e 83 23 a9 3f 1d b6 32 bd 20 7b 81 3e
       0.36031803 1.3213962 -0.043630708 0.2528925
0002c0 6f 58 38 be b0 16 0b 3f 7a 20 1e 3f db ea b0 be
       -0.18002485 0.54331493 0.61768305 -0.3455418
0002d0 37 dd 19 bf 1f 76 aa 3c dc 77 6c bc 62 8d 78 3e
       -0.6010317 0.020808278 -0.014432874 0.24272683
0002e0 4c 6d 6b bf 62 33 9f bd 71 28 d0 bd 26 38 09 3f
       -0.9196365 -0.07773472 -0.101639636 0.536013
0002f0 66 ba e4 be 49 e7 1a bd 1d e2 86 3d f7 6f 4f bd
       -0.4467346 -0.037818227 0.065860964 -0.050643887
000300 6e 92 2c 3e ba 9c b1 3d 41 09 f6 3e fe a9 16 3e
       0.16852733 0.08672471 0.48053935 0.14713284
000310 c0 9e bd 3e 1e 59 ba be e3 63 d8 3c 99 71 5a 3f
       0.3703518 -0.36396116 0.026414817 0.85329586

sequential/dense_2/MatMul f4 [12, 10]
000000 4d ce a7 3d 79 78 e4 3e fc c7 c2 be 38 e8 79 3e
       0.081936456 0.44623163 -0.380432 0.2440499
000010 80 2e 6c 3e 97 97 a4 3e 55 19 08 3f 29 aa 2d be
       0.23064613 0.32146904 0.53163654 -0.16959442
000020 92 3a 26 3f b5 72 a5 be f0 66 00 bf a3 75 85 bf
       0.6493312 -0.32314077 -0.5015707 -1.0426525
000030 d4 3b a1 3e ad 95 71 3e 88 60 0b 3f 69 e2 16 3e
       0.31490958 0.23592253 0.5444417 0.14734806
000040 6e ea 18 bf 11 d7 34 3f bb 39 28 3e 94 99 13 3f
       -0.5973271 0.70640665 0.16428272 0.57656217
000050 89 e5 92 bf ac dd 07 bf 72 1c 91 bf 33 0e 94 bf
       -1.1476299 -0.5307262 -1.1336806 -1.1566833
000060 47 f8 a4 bf 36 aa f8 be d5 77 15 be ca 01 7e bf
       -1.2888268 -0.4856736 -0.14596494 -0.9922148
000070 bb 83 aa bf ec 23 ad bf 1d f7 c5 3e be 50 d6 be
       -1.3321451 -1.3526587 0.38665095 -0.41858476
000080 7b 39 d9 be 6c 93 b8 bf f0 7c 11 3e 0a 48 2c 3f
       -0.42426667 -1.441999 0.14207816 0.6729742
000090 c1 29 e8 be 02 90 9b 3e b4 53 e9 3e b3 b0 ff 3e
       -0.45344356 0.30383307 0.45571673 0.49939498
0000a0 90 67 c8 be 7e 29 1a 3f 8f ff 99 3f 41 ab 90 3e
       -0.39141512 0.6021956 1.2031115 0.28255656
0000b0 6d 4c 67 be 6f f2 8f bf e9 46 0c bf 6c f2 d8 be
       -0.22587748 -1.124586 -0.547957 -0.42372453
0000c0 e0 2e 04 bd 85 c2 3c be 3c 70 29 3e 40 2c 72 bf
       -0.032271266 -0.18433578 0.1654672 -0.9459877
0000d0 4e 2c e9 3e 9e 12 38 3f 20 06 36 bf 70 c3 df 3e
       0.45541614 0.7190341 -0.71103096 0.43703794
0000e0 6a 81 99 bf f5 c9 26 bf a4 b6 17 c0 6c d1 68 bf
       -1.1992619 -0.6515191 -2.3705225 -0.9094455
0000f0 24 8b 18 bf 2a 1e a9 3e f3 e2 16 3f a4 2e 7c bf
       -0.5958731 0.33030826 0.5894005 -0.9850867
000100 bf 39 0b bf 03 15 92 3d ef d9 0a bd 22 ee 12 3f
       -0.5438499 0.07132914 -0.033899244 0.5739461
000110 b7 cf 5c be 8e 5b 56 bc 04 00 28 c0 a7 c8 6d 3c
       -0.21563612 -0.013083352 -2.625001 0.014513171
000120 63 64 3b bf fb 10 46 3e 1c 84 68 3f 5e 62 f3 3d
       -0.7320005 0.19342415 0.9082658 0.118839964
000130 5e d2 f4 3e 93 93 0a 3f e0 1e 7a bf d5 ad c3 bd
       0.47816747 0.5413143 -0.9770336 -0.0955464
000140 8f 8d 73 be ea b7 48 bf 4b e1 1a bf 69 f8 e9 3d
       -0.23784469 -0.7840563 -0.6050002 0.114243336
000150 7b be e9 be 89 14 d5 bf cc 60 da 3e ef 53 57 3e
       -0.45653138 -1.6646892 0.42651975 0.21028112
000160 57 15 68 3e 5e 4a 81 3f f1 46 84 be a0 85 8d bf
       0.2266439 1.010082 -0.25835374 -1.1056404
000170 85 de 9e bc db b4 75 3f eb e1 4f bf 74 f3 2d 3f
       -0.019393215 0.9597909 -0.812041 0.67949605
000180 39 6b ad be cf 58 ac bf 17 f4 21 c0 cc 5b 19 bf
       -0.33870867 -1.3464602 -2.530523 -0.59905696
000190 07 32 0c 3f d8 1e a1 3e 17 dd 32 bf 17 7f 03 3e
       0.54763836 0.31468844 -0.69868606 0.1284145
0001a0 5e dd 8b bf 05 19 1b 3e 5b 8c 99 be 81 8c 38 bf
       -1.0926931 0.15146263 -0.29989895 -0.7208939
0001b0 5e 9b ec 3d d7 d2 93 3d 46 bf 58 3f 8d 2d 13 3e
       0.115530714 0.07217949 0.8466686 0.14372845
0001c0 23 99 00 bf 8f 30 09 3e 8f 9a 10 c0 a4 90 06 3d
       -0.5023367 0.1339743 -2.2594335 0.032852784
0001d0 d9 f9 f6 bf 48 49 98 bf 97 47 2c 3e ea 89 da 3d
       -1.9294997 -1.1897364 0.16824184 0.10670836
