model/keypoint_classifier/keypoint_classifier.tflite (tflite, 7160 bytes, 6 tensors)

sequential/dense/BiasAdd/ReadVariableOp f4 [20]
00000000: 67c4 903f d98b a7be 54b4 00bf fe0f 39bf
00000010: 5c26 6dbf 7ae5 98be d03a 8dbf 206b bc3e
00000020: ca34 4ebf 4dcc 4cbe e242 4cbe 61fd 19be
00000030: bc6c f93e 3578 29bf d757 56bf 4007 cfbf
00000040: b42c 18bf 6db4 4abf fd67 82bf 7b01 41bf
1.1309937 -0.32723883 -0.5027516 -0.7229003 -0.92636657 -0.29862577 -1.1033573 0.3680048
-0.805493 -0.1999981 -0.19947389 -0.15038063 0.4871577 -0.66199046 -0.8372778 -1.6174088
-0.5944321 -0.7918156 -1.0187985 -0.75392884

sequential/dense_2/BiasAdd/ReadVariableOp f4 [18]
00000000: 19a3 9ebf db17 80be beae 203f cdbe 2f3a
00000010: f50e e5bc f564 5d3e b143 7dbf ded7 0a3f
00000020: 438d b0be 1c91 4d3f f4e1 4c3d 5aa0 043e
00000030: a594 8c3f f979 bdbd 6345 b8be 3ce2 6e3f
00000040: cc16 80be 93e3 8a3e
-1.2393523 -0.250182 0.62766635 0.0006704152 -0.027961234 0.21620543 -0.98931414 0.5423564
-0.34482774 0.80299544 0.050020173 0.12951794 1.0982863 -0.0925178 -0.35990438 0.93313956
-0.25017393 0.2712675

sequential/dense_1/BiasAdd/ReadVariableOp f4 [10]
00000000: 3dcf 2f3e 36f2 023f f13f 5d3e 48b2 083e
00000010: ddc0 2f3e 430b 913f 58b8 103d 0a8b 613f
00000020: 072d 543f eb71 48be
0.17168899 0.51150835 0.21606423 0.13349259 0.17163415 1.1331562 0.035332054 0.8810278
0.82881206 -0.19574706

sequential/dense/MatMul f4 [20, 42]
00000000: 6476 2d3e a117 38be eaae a2be 6afc cb3f
00000010: 3cf2 9ebd 95d0 733f 5871 0dbe cfe6 233f
00000020: db1e a7bd 70be e93e 3dcf ebbc bf19 1a3e
00000030: f9bd ee3b 4c2a aa3d 704d d33d 4e5c fb3d
00000040: 0f09 343e e988 be3d d770 073e 9d22 98bd
00000050: a519 6c3d 8ce6 be3d 6fd7 12be 9a20 063e
00000060: db9f abbe 4433 d43d aacc e03d fd6c 0fbe
00000070: 1b69 3e3e bfea 813d 8d65 2d3d 2828 ac3c
00000080: 784f 32be 22f5 293d 4aa7 fe3d a0d0 36be
00000090: 935f 7a3e e5b6 d53d 84c2 ff3d 1cd7 6e3e
000000a0: bf8e 76bd cec7 843e 3440 fd3d 94ee 513e
000000b0: 2391 7d3f 5bc4 4a3e f070 0e3f b00e c6bd
000000c0: 1149 203f 56a1 e5bd 12d0 023f a680 96bd
000000d0: 66d8 92be 9c98 a13c ee95 0ebe 64b6 c83c
000000e0: f5aa a4bd 1ca5 87bd dd02 d2bd 56a8 28be
000000f0: d0ce 96be 0045 6d3c b8cf 71be 6706 5c3d
00000100: 4c06 afbe c93e 5c3e a6d9 c3be 1f00 b73e
00000110: e151 64be c851 be3d b7c9 52be b238 133e
00000120: 7753 17bf 5630 483e bce5 7fbf ea85 403f
00000130: f675 24bd 384e 123c de0a d1bc d026 a23d
00000140: bd76 dcbd bd2e 3b3e edc6 99bc b91b cc3e
00000150: c0cb 71bc 0e7c 87bd 4908 6bbe 4a63 d93e
00000160: 23cb 14be 3333 a63e c611 c53d 4e15 8d3e
00000170: 18fa 323e 1248 693e 338f 29be 1a69 b9be
00000180: 24e0 6d3d 6713 9fbe 7a55 b13d d361 5dbf
00000190: 21d4 ce3d 800c 50bf f82f 493d 3dbe 01bf
000001a0: a339 91bc b169 a93b c2d9 633c 8162 ee3d
000001b0: 722f 923d 9de9 a43c a003 da3d 4f66 f1be
000001c0: 0e34 9fbd 66e2 053e a907 84bd d515 b93e
000001d0: fd41 0bbd ca42 8c3e 4534 083e e084 f2be
000001e0: f9f8 a7bd 72f0 c43d 3008 36be 02e6 a43e
000001f0: c7f8 3cbe 480b a03e 15ea 20be dc4c 1f3e
00000200: b982 5ebd e219 5f3f a4b0 56bd 6484 923e
00000210: 8746 0b3c 9874 063e 0f5c 903c b5ea 193e
00000220: ec5d 833d 69e3 983d b134 043d 6bc1 923d
00000230: 00ab 233d e09c d03d 9e08 303c df4f ec3d
00000240: 0454 203d 035c 073c 60b1 9d3c d040 8b3d
00000250: 25e9 273d 57f3 c13d 4767 bcbc ff23 fbbf
00000260: d651 d1bd c814 3a3c fd51 933d 50bb 333c
00000270: 54df ec3d 92b5 9fbe 0284 263e 1132 2dbf
00000280: a9cf 4dbc de76 8b3d 40c9 f6ba 32d9 083e
00000290: dcf3 293d 71b7 3a3e d164 d23d d952 203e
000002a0: a0d1 82bc 6cf0 883d 77c0 433f 9034 b73d
000002b0: 1ace 4a3f 32c5 683d 58c9 923f d132 1bbd
000002c0: a075 a33f 6b87 2fbd ef8e 9a3e 5333 66be
000002d0: 748d dc3d e80e 7fbd 8f95 40bd f8d7 083e
000002e0: 2da3 22be a668 793d b494 493e 731e c9be
000002f0: 733c 34bd ee4d 4b3d 4d2d 72bd e3f3 613e
00000300: c239 b9bd 1638 173e 27af 693e c479 f3be
00000310: 5568 88bd c4a2 283d 1c07 11be aedb 343d
00000320: 2249 67be eaca 483e 6618 be3d 0972 29be
00000330: b38a 2abe 4d71 20be 4f22 d2be ae45 d0be
00000340: 26bc 2cbf e9bc 20bf 409c a9bc 803b 6ebb
00000350: b00d 083f f395 4e3d fec0 493e f104 67bd
00000360: bf8d 933e 0f4b 95bd f352 c43e 8195 59be
00000370: 5e56 753d af52 893e 2a60 713e 0bc1 933e
00000380: 006a 953e 5121 943e 83e2 563e 98a9 0b3e
00000390: 5a55 b1bd 8701 0a3e 9d7c 343e 8422 fb3c
000003a0: 3e91 033f 8a71 05bb 566b 513f 9a61 e4bd
000003b0: d230 77be a752 2f3e ed41 e3bd 9450 b63d
000003c0: 6ad9 fa3e 48ca 33bc 398e 723f 11ee 9ebe
000003d0: 5812 febe 2d8a a13e 8020 78be f6dd b83e
000003e0: 6940 c53d c0ba cc3e a829 6d3e 71cf ba3e
000003f0: f25b 8f3e 281b 31bd d25f 1ebf c67c 593e
0.16939694 -0.17977764 -0.31774074 1.5936406 -0.07761046 0.95240146 -0.13812768 0.6402406
-0.08160182 0.45653105 -0.028785342 0.15048884 0.00728583 0.08308849 0.103175044 0.12273465
0.1758158 0.09303457 0.13226639 -0.07428477 0.057641644 0.09321317 -0.14339994 0.13098374
-0.33520398 0.10361341 0.109765366 -0.1400642 0.18594782 0.063436024 0.042333174 0.021015242
-0.17413127 0.041493542 0.124342516 -0.17853022 0.24450521 0.10435275 0.12488273 0.23324245
-0.060194727 0.2593369 0.123657614 0.20501167 0.99049586 0.19801466 0.5564108 -0.0967077
0.6261149 -0.11212413 0.5109874 -0.073487565 -0.28680724 0.01972609 -0.13924381 0.024501033
-0.0804042 -0.06623289 -0.102544524 -0.16470465 -0.2945466 0.014481783 -0.23614395 0.053717043
-0.34184492 0.21508326 -0.3825199 0.3574228 -0.2229686 0.09292942 -0.2058476 0.14377096
-0.5911173 0.19549689 -0.9995992 0.75204337 -0.04015156 0.008929782 -0.025517877 0.07917559
-0.10764835 0.18279548 -0.018771613 0.398649 -0.01475805 -0.066154584 -0.2295238 0.42458564
-0.14530616 0.32460937 0.09622531 0.27555317 0.17478216 0.22781399 -0.16558532 -0.36213
0.058075085 -0.3106949 0.086588815 -0.8647739 0.10099054 -0.81269073 0.049118012 -0.50680906
-0.017727679 0.00517007 0.013906898 0.11639882 0.07137956 0.020130927 0.10645223 -0.47148368
-0.077736005 0.13074645 -0.064467736 0.3614947 -0.03399848 0.27394706 0.13301189 -0.47367
-0.08201785 0.09616174 -0.17776561 0.32206732 -0.18454276 0.31258607 -0.15714295 0.15556663
-0.054323886 0.8714887 -0.05241455 0.2861663 0.008500702 0.13130414 0.017622022 0.1503094
0.064143986 0.0746525 0.032276813 0.07165798 0.039958 0.101861715 0.010744242 0.11538672
0.039142624 0.008261683 0.019249618 0.067994714 0.04099383 0.094702415 -0.022998465 -1.962036
-0.10220687 0.011357494 0.071933724 0.010969952 0.11566034 -0.31193215 0.16261294 -0.6765452
-0.012561717 0.068097815 -0.0018828288 0.13364103 0.041492328 0.1823404 0.102731355 0.15656604
-0.015969098 0.06686482 0.76465553 0.089455724 0.79220736 0.056828685 1.1467695 -0.03789026
1.2770271 -0.042853754 0.30187175 -0.22480516 0.107691675 -0.062270075 -0.04701763 0.13363636
-0.15882559 0.060890816 0.19685632 -0.39281043 -0.04400296 0.049634866 -0.059125233 0.22065692
-0.090442196 0.14767489 0.22820722 -0.47553837 -0.06660525 0.04117085 -0.14162868 0.044154815
-0.22586492 0.19608656 0.092819974 -0.16547407 -0.16654472 -0.15668221 -0.410418 -0.4067816
-0.6747459 -0.62788254 -0.020704389 -0.0036351383 0.53145885 0.05043597 0.19702527 -0.056401197
0.2881908 -0.07289707 0.38344535 -0.21248437 0.05989682 0.26820895 0.2357184 0.28858218
0.29182434 0.28931668 0.20984845 0.13638914 -0.08658858 0.13477145 0.17625661 0.030656107
0.51393497 -0.0020361864 0.81804407 -0.111514285 -0.24139717 0.17121373 -0.11096559 0.08902088
0.48994 -0.010973521 0.94748265 -0.31041005 -0.4962337 0.31550732 -0.24231148 0.36106843
0.09631426 0.3998623 0.23160422 0.3648639 0.27999836 -0.04323879 -0.6186496 0.21239004

sequential/dense_1/MatMul f4 [10, 20]
00000000: 9d73 123f bace 093f 3c68 623e eb57 9c3f
00000010: a80f 993c b0b3 8b3f 6bf0 6a3d 40ee 263f
00000020: 2a46 443f 60e1 443e c6a8 bb3b 9d3e 16be
00000030: dff2 6d3f 960b 6b3f 89a7 483d c02f 9ebe
00000040: 3e8d 3ebd 1ca7 853f 3833 5dbf 75f8 823f
00000050: 002c 823f a51c 8b3f 49f1 34be d835 cebd
00000060: 371d 49be ea00 843f d437 c1be c016 9ebd
00000070: 1aad c83e cb0d af3e 4c37 fb3d d9ea d03f
00000080: 7b68 d9be f952 1d3d 9bac cebe 6880 1ebd
00000090: 4673 f6bd 498f ff3e f06e 4a3f d90b 07be
000000a0: 2d4b 3d3f fe38 183e 237b 073e 7cec 7f3d
000000b0: 6607 ba3e 5320 9a3e cc5e 153f 64ca d43e
000000c0: f5cd a03d 4d99 8b3e 9d91 e13f 78e5 093f
000000d0: 4018 863e c0e0 85be d35f 58bf 6ade 623e
000000e0: 2ffa 813f 22bb b4bd cbd9 063e e770 ce3d
000000f0: 91b7 44be 215b ae3e 6449 473e 3350 82bd
00000100: 65c5 263f 6309 9f3d 3d87 503d 9e25 9fbe
00000110: 1ea5 973f 9faf 83be ef25 80bf 3f3a a03d
00000120: 3317 54bf 1a88 b93c 7ddb 003f 50aa 4f3f
00000130: 510c 52bd fc92 9a3f 76f5 a73c be3a 323d
00000140: 0113 11be cdbb adbd e44c a33e 67d1 bf3f
00000150: a667 d93e e9b5 00be eb6d 963f 97e4 253e
00000160: 55ac 663e f93d b8be ce46 203e b79f 5ebd
00000170: 3164 f2bc d7b6 5c3f c029 fc3e d439 2fbe
00000180: 522b 543f 7cd6 c83e f9d1 893d e2c8 983f
00000190: cf63 963e 65a9 9abe 473f ce3e 38d4 423f
000001a0: 2e7e 8d3e 6cb1 c53e a59b f63e 489c 453d
000001b0: 73af e8bd 5ef1 85bc 18fd 913e d1df dcbd
000001c0: 3e8a 3dbe ad48 c7be e730 093d 6a33 7c3f
000001d0: 146e 283e 711e 8ebd 7a71 cb3d de7b 4d3f
000001e0: 7c48 63bc 9404 353d f4c0 423f 656c ba3e
000001f0: aee7 0d3f 95ac ac3e 58be 863e 1373 bb3c
00000200: 4111 0cbd f9b3 273f 5f56 203e 1992 563f
00000210: b9f8 033f 41ae d53c 2a18 023f 5452 bd3f
00000220: 2708 8bbe 2f22 9b3d 0e4e c43f 8ca8 f63e
00000230: fef6 093f 7b1e 11be b2f7 8b3f e9f3 cdbd
00000240: 02e6 bc3d 6e17 e2b8 7ab3 853e 2d25 893f
00000250: 56b8 acbd 6514 463f 2579 a63b 686c 1d3e
00000260: 822f 353d 1a26 0040 35ce 973d 9672 e33e
00000270: daf0 3e3e 9829 11bf 0241 94be e79f ff3c
00000280: 05d5 5a3e 3cc6 233d 7d6d b33d 97de 72be
00000290: 33e5 913f 57be 913e 9ae5 99be abc8 3ebe
000002a0: b4e6 3fbe 0a7d 4cbf de49 383e 9d48 d63d
000002b0: 096f 9b3c c319 fe3e 1b74 3d3f 3bc6 0b3d
000002c0: a481 b8be f7b4 99be 0253 833e f08e 42be
000002d0: aef2 943f c282 293e 3e33 eb3d 3d70 90be
000002e0: 84aa d93e 0a37 d13e e631 8c3f 5c77 fe3e
000002f0: 5f0e db3b 5c3e 053f aa96 afbe 5596 333e
00000300: beb0 b63e 385b b9be d000 0e3f ae42 b2bd
00000310: f2f7 223f 1281 61bc cef6 7c3f 0b31 9fbd
0.5720766 0.53831065 0.22110075 1.221433 0.018684223 1.0914211 0.057358187 0.6520729
0.7666956 0.19226599 0.0057269065 -0.14672323 0.92948717 0.91814554 0.0489879 -0.30895805
-0.046521418 1.0441623 -0.8640628 1.0232073 1.0169678 1.0868117 -0.17670168 -0.10068864
-0.19640051 1.0312779 -0.37737906 -0.07719183 0.39194566 0.3419021 0.122664064 1.632167
-0.42462525 0.038409207 -0.40366063 -0.038696676 -0.120337054 0.49914005 0.7907553 -0.13188113
0.73942834 0.14865491 0.13230567 0.06248139 0.3633377 0.30102786 0.58347774 0.41560662
0.07851783 0.27265397 1.7622563 0.53865767 0.26190376 -0.26148033 -0.84521216 0.22155157
1.0154475 -0.08824755 0.13169019 0.10080128 -0.1921065 0.340539 0.1946159 -0.06362953
0.6514495 0.07765462 0.050910223 -0.31083387 1.1847265 -0.25719926 -1.0011576 0.078236096
-0.828479 0.022647906 0.5033491 0.8111925 -0.051281277 1.2076106 0.020502787 0.043513052
-0.14167406 -0.08483086 0.318946 1.498578 0.4246189 -0.12569393 1.1752294 0.16200481
0.22526677 -0.3598478 0.1565201 -0.054351535 -0.02958879 0.8621649 0.49250603 -0.17111903
0.828786 0.3922614 0.06729502 1.1936305 0.29373023 -0.30207363 0.40282652 0.7610507
0.2763533 0.38611925 0.48165622 0.048244745 -0.11361589 -0.016350444 0.28513408 -0.10784877
-0.18509766 -0.38922635 0.033493903 0.9851595 0.16448241 -0.069394 0.09933753 0.8026713
-0.013872262 0.04419382 0.76075673 0.36410823 0.5543164 0.3372542 0.26317096 0.02288202
-0.034196142 0.6550899 0.15657948 0.8381668 0.51551396 0.026084067 0.5081812 1.479075
-0.27154657 0.075748794 1.533632 0.48175466 0.53892505 -0.14171784 1.0934966 -0.10056288
0.09223558 -0.00010780884 0.26113492 1.071447 -0.08433597 0.7737487 0.0050803595 0.15373385
0.04423476 2.0023255 0.07412378 0.4442336 0.18646565 -0.5670409 -0.28955847 0.031204177
0.21370323 0.039983973 0.087611176 -0.23717724 1.1398071 0.2846553 -0.30057985 -0.18631236
-0.1874035 -0.79878294 0.17996928 0.10463069 0.018973844 0.4962903 0.7400529 0.034124594
-0.36036408 -0.30020878 0.25649267 -0.18999839 1.163656 0.16553786 0.11484383 -0.2821063
0.42512906 0.40862304 1.0952728 0.4970044 0.006685063 0.5204828 -0.34294635 0.17537816
0.3568172 -0.36202407 0.5546999 -0.087041244 0.63659585 -0.013763683 0.98814094 -0.07773026

sequential/dense_2/MatMul f4 [18, 10]
00000000: 210d 703e e35b 033f 1f5b da3e 055d 04bc
00000010: 1028 233f f33b e1be 5e97 be3d 3722 ddbd
00000020: 651b 173d 4491 fb3b c80d 8cbe d50f 2c3e
00000030: 05e7 7c3e 6b5f 1cbf 21dd 38be dfa1 353f
00000040: dd42 053f a3a4 8ebe c953 423e 603c 983e
00000050: 9bbb 07be 072d 803e d9e4 a7be 8956 a3bf
00000060: 21fa 1cbf c527 7f3e eeaa d43d 6044 023f
00000070: 9d32 113f 9fcf 2d3e 5c31 9d3e f9da 473d
00000080: 0baf df3e 1a9d 9cbd 5abd 953e df7e 993e
00000090: cea7 efbe 8605 9cbf ca6c f0bd 03c6 fb3e
000000a0: 61de 6ebf 5373 31bf 5925 123f 59c2 973e
000000b0: 5f63 873e cea2 11bf 5cd1 ecbe 89d1 3d3f
000000c0: beca b13e 767b 86bc 3c90 87be 2347 1abf
000000d0: 6e52 8dbf 460d 72bf 68f4 cd3e 97ab 413f
000000e0: 1336 b4bb 2e52 8d3e d84b c8bb 1531 d3be
000000f0: 54d9 2ebf 9de0 793e 303f 593f f11f 133f
00000100: 578b 863c 0597 09bf c28d a13e 1c9d bcbe
00000110: 71f5 58be 3b18 c03e 4cce 05bd c8d2 bd3e
00000120: e59b 0e3f 7822 57bd 7cba 1dc0 70ea a03d
00000130: d513 3f3f 66f2 dcbf 9d19 78be 4da8 1cbe
00000140: 417e 133f 38d2 ed3e e968 433e 5755 26bf
00000150: 7663 d1be 3fb6 d4be 3a29 d5bf a679 103e
00000160: 0d49 5abf de8d 063e e897 e03e 228f 17bf
00000170: 921e f1bf 7fac 0ec0 cea9 21be 2bb8 cf3e
00000180: 9a49 cd3e 5c7e a23e c93a 1ebf 3a87 26bf
00000190: 9200 07bf 6148 acbf 8998 2abe ea43 17bf
000001a0: 5c3f 503f 6c83 193f 7f1d 4bbf 2e17 c53e
000001b0: f48b 0cbf 605f 5dbf 2547 84bc 6be5 b1bf
000001c0: 2248 53bf 2acd c3bc b70a 433f 9a51 3c3e
000001d0: f782 19bf 714f 2c3e 5e1c 2fbf 18de 213c
000001e0: dc87 3fc0 6aa5 49bf 1fc5 033f 5dd9 27bf
000001f0: 5805 e23d eeca d53e d6ac 38bf b263 ae3d
00000200: 628c 513f 340f b43d 5fed 17bf d3c2 efbc
00000210: 0c6b 2fbe b7e2 dfbe 2a54 073f 6034 f13e
00000220: 2feb 9f3e 71b4 9cbf d07a 46be 88b0 d53e
00000230: 779e 06c0 a1e9 08bf 13c3 a93d 8456 5abe
00000240: fa57 4dbe 8570 bb3e 73a7 99bc ca9d 543f
00000250: c69f 91bf 35df fc3e 725e 383f 0183 013f
00000260: 0f0c afbf 45d1 4a3e f5b7 83be c4d1 35bf
00000270: 5d2f 02c0 1e8b 9bbe 7c6b 183f 131a 02c0
00000280: 1408 a93e 4146 14bf 104e cbbf 9506 013f
00000290: fa81 583c 3637 533e 1298 e5bc 38b1 823d
000002a0: daa1 773e c72b 0ac0 4ee2 30bd 4f06 4c3f
000002b0: f9b0 45bf 6b93 fe3e 8202 e0bf c534 44be
000002c0: d4cb bc3e a46f 36be 73d0 98bf 9ff1 90bf
0.23442508 0.51312083 0.42647645 -0.008078818 0.63733006 -0.4399105 0.09306215 -0.107975416
0.03689136 0.007677229 -0.27354264 0.16802914 0.24697502 -0.61083096 -0.18053104 0.7095012
0.5205515 -0.27859983 0.18977274 0.29733562 -0.1325516 0.25034353 -0.32791784 -1.2760783
-0.61319166 0.24917515 0.10384165 0.5088558 0.56717855 0.16973732 0.3070172 0.048792813
0.43688235 -0.07647152 0.29246026 0.29979607 -0.46807712 -1.2189186 -0.117395 0.49174508
-0.93308073 -0.69316596 0.5708824 0.29640463 0.26443002 -0.56889045 -0.4625348 0.7414785
0.34724993 -0.016416293 -0.2647723 -0.60264796 -1.104078 -0.94551504 0.4022553 0.7565245
-0.00549961 0.2760176 -0.006112557 -0.41248384 -0.68300366 0.2440209 0.8486204 0.57470614
0.016423864 -0.5374606 0.31553465 -0.36838615 -0.21187378 0.37518486 -0.032667443 0.37074876
0.55706626 -0.052523106 -2.464507 0.078572154 0.74639636 -1.7261474 -0.2422852 -0.15298577
0.57614523 0.46449447 0.19082989 -0.6497397 -0.40896195 -0.41545293 -1.6653206 0.14108905
-0.85267717 0.13140056 0.43865895 -0.5920278 -1.8837454 -2.2292783 -0.15787432 0.40570197
0.40095216 0.3173703 -0.6180845 -0.6505009 -0.52735245 -1.3459588 -0.1665975 -0.59088004
0.8134668 0.5996616 -0.7934188 0.38494247 -0.5490105 -0.86473656 -0.016147206 -1.3898138
-0.8253194 -0.02390154 0.76188225 0.18390504 -0.5996546 0.1682718 -0.6840266 0.009879611
-2.9926672 -0.78768027 0.5147266 -0.65566045 0.110361755 0.41756386 -0.72138727 0.08515109
0.8185483 0.08791962 -0.59346575 -0.029267704 -0.17130679 -0.43727657 0.528628 0.4711027
0.31234118 -1.2242566 -0.19382787 0.41736245 -2.103422 -0.5348149 0.082891606 -0.21322066
-0.20053092 0.36609283 -0.018756604 0.83053267 -1.1376884 0.49389043 0.7201911 0.5059052
-1.3675555 0.19806392 -0.25726286 -0.710232 -2.0341408 -0.30379575 0.5953901 -2.0328414
0.33013976 -0.579197 -1.5883198 0.5040067 0.013214583 0.2062653 -0.028026614 0.06381458
0.24182835 -2.158922 -0.04318457 0.79697126 -0.77223164 0.49721846 -1.7500765 -0.19160755
0.3687426 -0.17816025 -1.1938614 -1.1323737
