model/keypoint_classifier/keypoint_classifier.tflite (tflite, 7028 bytes, 6 tensors)

sequential/dense/BiasAdd/ReadVariableOp f4 [20]
000000 7e 3a 2e bf fb 08 d3 3e fd ba fb be ab 4a 43 bf
       -0.68058 0.4121779 -0.49166098 -0.7628581
000010 88 ab d9 be b2 49 87 bf 80 77 9d 3d b4 25 05 bf
       -0.4251368 -1.0569365 0.076888084 -0.52010655
000020 5f 90 42 bf 93 38 2a bf b5 06 af 3e be e2 4d bf
       -0.7600154 -0.66492575 0.34184805 -0.80424106
000030 91 75 f8 be d4 2d 7a bf 6c ec 4a bf e8 55 8f bf
       -0.48527196 -0.9772618 -0.79267 -1.1198092
000040 1a ad 1b bf c9 39 6d bf 46 b1 e9 be 40 f9 50 bf
       -0.6081101 -0.926663 -0.4564306 -0.81630325

sequential/dense_2/BiasAdd/ReadVariableOp f4 [15]
000000 db fa 2e bd 26 1e bf bd bd d2 12 bf bc cf 69 3e
       -0.042719703 -0.09331922 -0.5735281 0.2283315
000010 78 d2 5a 3d d2 93 24 bc be db fe bf 91 ec af 3e
       0.053423375 -0.010045009 -1.991081 0.34360173
000020 01 eb 3f 3f ab b2 45 3e e3 4a e4 3e db 55 69 be
       0.7496796 0.19306438 0.44588384 -0.22786658
000030 de 82 f5 3e c4 1a 14 be 78 d5 56 3e
       0.47951406 -0.14463335 0.2097987

sequential/dense_1/BiasAdd/ReadVariableOp f4 [10]
000000 ae 23 1a 3f c1 15 36 3f cb b8 c6 be ab 3d 5f 3f
       0.6021069 0.71126944 -0.3881286 0.8720347
000010 bb 28 92 3e a4 a7 23 3e ae 88 7d 3e fd 99 a4 3e
       0.285467 0.15981919 0.2475917 0.32148734
000020 bf 78 18 3f d8 06 5b 3e
       0.59559244 0.2138933

sequential/dense/MatMul f4 [20, 42]
000000 e8 52 5a 3e 64 65 be 3d 40 26 c4 3e 29 da 02 bf
       0.21320689 0.092966825 0.38310432 -0.51114136
000010 f9 42 db 3d 5d a9 cb bd 18 f9 9d 3e 5c 28 b3 bd
       0.107061334 -0.09944413 0.30854106 -0.08747932
000020 35 1c 25 3f 2a 99 20 bf a8 50 13 3f 84 b7 88 3d
       0.64496166 -0.6273371 0.57544947 0.06675628
000030 70 d7 a8 3e ea d8 8b 3b 41 47 45 3b f9 85 f9 ba
       0.32976866 0.0042678015 0.0030102285 -0.0019037119
000040 df bc 1b be 65 fe 02 bd c4 40 28 3f fa ac 88 3d
       -0.15208767 -0.03198089 0.65723825 0.06673618
000050 b2 79 21 3d a2 6a 29 bc 7f f2 c0 be bc 7f 8b 3d
       0.0394227 -0.010340365 -0.3768501 0.06811473
000060 8f b5 05 bf 50 95 49 3d 50 21 3d 3f 32 55 96 3d
       -0.5223016 0.04921466 0.73878956 0.073404685
000070 3d 0b 22 3e 3f 41 d1 bc e1 66 44 be 6f 97 a4 3c
       0.158246 -0.025543807 -0.1917987 0.02009174
000080 c0 94 8e be 45 30 4b 3c ae 33 ea 3e eb 00 c2 3d
       -0.27847862 0.012401645 0.45742553 0.09472831
000090 cb f8 08 3e 65 b1 0a bd 99 7e 24 be 4f 0a 64 bb
       0.13376157 -0.033860583 -0.16063918 -0.0034796183
0000a0 73 56 aa be 6a 91 38 bb be bb 3c be 38 6c a1 3d
       -0.3326908 -0.0028162845 -0.18430993 0.07881969
0000b0 56 41 95 be 6e 96 08 bf 03 ae 1d be a3 ed d7 be
       -0.2915141 -0.5335454 -0.15398411 -0.4217349
0000c0 34 6d c2 be 9b a3 e2 be a0 9e e3 be 47 07 1a bf
       -0.3797394 -0.44265446 -0.4445696 -0.60167354
0000d0 67 23 b1 bd c8 d2 9c be 51 1c 5f bc 58 31 80 3d
       -0.086493306 -0.30629563 -0.013617591 0.062594116
0000e0 b5 18 6b 3e 46 c4 68 3e 2a 02 7e 3e 49 4c 38 3e
       0.22958644 0.22731122 0.24805513 0.1799785
0000f0 d0 48 08 be 77 72 e6 bd ab 19 f8 bc b2 63 fa 3d
       -0.13309026 -0.11252301 -0.030285677 0.122260466
000100 a9 ba a8 3d e2 c9 22 3c 17 75 09 3d dc 02 a1 3d
       0.082387276 0.009935828 0.03355893 0.078618735
000110 e2 03 a5 bd 30 4d 6e 3e ba 94 71 bd 18 e3 a0 3e
       -0.08057381 0.23271632 -0.058979727 0.3142326
000120 cd be 5a 3e c6 c9 0a 3f 1c 98 b2 3e 34 ff 8f 3f
       0.21361847 0.5421413 0.34881675 1.1249757
000130 22 34 89 be 35 01 f5 3e 92 40 46 bd ca b0 2d 3f
       -0.26797587 0.47852483 -0.048401423 0.67847884
000140 ba c7 5d 3d 11 57 38 3f 08 24 27 3e 3d 08 82 3f
       0.054145552 0.7200785 0.16322339 1.0158764
000150 0e a8 85 be f6 00 91 be e2 59 53 bc 64 f2 1b bf
       -0.26104778 -0.28321046 -0.012899848 -0.60916734
000160 39 87 c4 3d 3e 81 9b be 22 22 2a be b8 8c 69 be
       0.09596104 -0.3037204 -0.16614583 -0.22807586
000170 cc d1 e1 be d4 37 ae be e9 73 27 3f d0 f1 01 bd
       -0.44105375 -0.34026968 0.6541124 -0.03172475
000180 eb d4 f9 3d 64 1e 3d 3e e9 8f 10 be 40 2f bd 3e
       0.12198814 0.18468624 -0.14117397 0.3695011
000190 67 cf 19 be 40 82 89 3e f5 bc 34 3f 2b b0 11 bd
       -0.15020524 0.26857185 0.70600826 -0.035568397
0001a0 f0 14 6f 3e 00 33 b5 3c 1c 17 36 be d8 6f eb 3d
       0.23347831 0.022119045 -0.17782253 0.11495942
0001b0 b9 16 ce be b6 af 04 3e 9b a5 ef 3e 2d 3f 89 bc
       -0.4025171 0.12957653 0.46806034 -0.016753757
0001c0 71 64 1d 3e 53 89 5b bd ef 78 78 be 5e 08 21 3d
       0.15370347 -0.05359776 -0.24264883 0.03931462
0001d0 e8 1e f8 be a1 c6 d8 3d c8 63 b4 bd dc 88 01 be
       -0.4846108 0.105847605 -0.08808094 -0.12649864
0001e0 b9 c7 ba 3e 6b 56 81 be f5 5f ba 3e be ac da be
       0.364805 -0.25261244 0.36401334 -0.42709917
0001f0 98 f5 7d 3e c2 f3 9d be b4 7e 0e 3e c0 86 5e 3d
       0.24800718 -0.30850035 0.13915521 0.054327726
000200 86 fa 82 3e 16 6f 26 3e ee 13 21 3e a2 40 0d 3e
       0.2558176 0.16253313 0.15730259 0.13794187
000210 d4 c1 08 3d 5d b2 a7 3d 50 2d 1d bd 8a 56 0c 3d
       0.033387974 0.08188317 -0.03837329 0.034262218
000220 8b 20 c0 3d 54 00 8b bb 00 08 82 3d 25 96 a2 3d
       0.09381207 -0.0042419825 0.06349182 0.07938794
000230 e6 fb e1 bc 27 a3 ff 3d 47 1f 66 bd ec ae a5 3d
       -0.027585935 0.12482291 -0.056182172 0.08090004
000240 ff d3 11 3e 3c 26 4f 3d bd b3 d2 3d 84 4f d6 3d
       0.14241026 0.050573573 0.102881886 0.10464385
000250 1b 2e e5 bd 78 8d a9 3c 00 c4 33 bf 97 62 4a 3e
       -0.111904345 0.02069734 -0.7022095 0.19764172
000260 07 88 1c 3e 2d 6f 96 3d 11 fa 3d 3e 50 73 21 3e
       0.15286265 0.07345424 0.18552424 0.15766644
000270 60 04 2f bc cd 54 2f 3d 6c 8d 32 bf ac 8c 38 c0
       -0.010682195 0.04280548 -0.6974704 -2.883586
000280 96 48 56 3e 6a 51 2c 3e bd e3 1c 3e 30 39 7a 3e
       0.20926127 0.16827932 0.1532125 0.24435878
000290 70 a7 f3 3d b2 f8 68 3e 43 e5 14 3b 43 4a 71 3e
       0.118971705 0.2275112 0.0022719658 0.23563485
0002a0 40 d8 fe 3c 80 b1 39 3b 74 08 0c 3e 15 83 09 3e
       0.031108975 0.0028334558 0.136751 0.1342891
0002b0 05 2a 81 3e 6e 54 6c bc ba ee ed 3e 46 e2 02 3d
       0.2522737 -0.0144244265 0.46471196 0.031954072
0002c0 b1 e0 93 3f aa 59 3b 3e 58 9a 90 be 2c db 9a bd
       1.1552945 0.18295923 -0.28242755 -0.07561335
0002d0 c2 cc 12 be 35 65 89 3d 0e f2 dc 3c be c5 48 3d
       -0.14335921 0.06708757 0.02697089 0.049016707
0002e0 9f 56 1d 3e 96 c2 bf 3c 47 67 17 be af 1b d6 bd
       0.15365075 0.023408215 -0.14785491 -0.10454499
0002f0 8f 94 78 be b3 61 cf 3d b8 af 7b be 7d d3 bf 3d
       -0.2427542 0.101260565 -0.2457875 0.0936651
000300 59 1f 2f be ae be 6c 3d a0 7e bc 3b eb 07 90 bd
       -0.17101802 0.057799034 0.0057523996 -0.0703276
000310 1e ad 15 be 0a c3 d7 3d 6c 7a ca be 62 90 81 3d
       -0.1461682 0.105352476 -0.39546525 0.06326367
000320 d7 06 0b bf a0 96 3f 3d f9 d4 45 3e 15 98 21 3d
       -0.5430731 0.046774507 0.19319524 0.039451677
000330 d3 b0 3b be 43 5e 27 3e 61 ce 1b bf da f8 f6 3c
       -0.18329172 0.16344552 -0.60861784 0.030147959
000340 48 08 6b bf 76 1d 25 3d 84 ce 97 be 18 f8 58 3d
       -0.9180951 0.0403113 -0.29649746 0.052970976
000350 2d 3e bd 3d ee bb 15 3f cf 5f 6c 3d b8 56 87 3e
       0.09240375 0.5848988 0.057708558 0.2643335
000360 06 20 1d bd 22 c1 6d 3e 12 4a be bd 80 17 23 3e
       -0.038360618 0.23218206 -0.092914715 0.15926933
000370 95 ad fe 3c f8 8c e6 3d b8 e4 3c 3d 56 c5 d4 3d
       0.03108863 0.112573564 0.04611656 0.10389201
000380 31 59 94 bc 9e 62 f9 3d 55 66 43 bd 53 e0 1e c0
       -0.018108936 0.12177013 -0.047705013 -2.4824417
000390 52 8b 9a 3c 22 73 e6 3d 3e 17 b9 bc 5b 44 2c 3e
       0.018865261 0.112524286 -0.02259409 0.1682295
0003a0 b5 5b 13 3d 27 3b 60 3e dd 4f 71 3d ff 07 c6 3d
       0.03597613 0.21897565 0.058914054 0.09669494
0003b0 11 a5 fd 3c 99 d8 ac 3d 34 d4 ba bc b8 4e 34 3e
       0.030962499 0.0843975 -0.022806264 0.17608154
0003c0 ef c1 7e bc 54 a5 2b 3e 34 9b 33 3d bf 2a 6c bb
       -0.015549167 0.16762286 0.043849185 -0.003603622
0003d0 d1 92 f5 3c 91 ac 9e 3d 35 b1 b0 bc f7 95 a2 3d
       0.029977234 0.07747758 -0.021568874 0.0793876
0003e0 89 6e 69 bd d8 1c db bc d1 10 77 bc 1c ae 19 be
       -0.05699018 -0.026747152 -0.015079693 -0.15007824
0003f0 98 32 81 3e 1c c6 cc 3d 67 3f 03 3e ce ea 87 3e
       0.25233912 0.09998724 0.12817155 0.2654633

sequential/dense_1/MatMul f4 [10, 20]
000000 bd d7 52 bf d7 27 06 bf 0a b1 cd 3e 83 91 25 3f
       -0.8236044 -0.5240454 0.40174133 0.6467516
000010 52 8c 3a bf c3 b9 0c be 33 85 57 bf bd 97 3d be
       -0.7287036 -0.13742737 -0.8418762 -0.18514915
000020 1f 99 41 be 59 32 14 3f f4 0c 1f bf 74 79 a7 3e
       -0.18906067 0.57889324 -0.6212914 0.3270985
000030 86 6c 06 3f e1 7d 4f 3f 59 a7 1c be fd 79 07 3f
       0.52509344 0.8105145 -0.15298213 0.52920514
000040 a3 0d 27 be 81 87 27 3f 72 76 3f bf ae 0c 7b be
       -0.16313796 0.6544114 -0.7479011 -0.24516556
000050 aa 3c 32 3f 70 07 ff 3e c3 28 9f 3e 59 bf 4b be
       0.69623816 0.49810362 0.31085786 -0.19897212
000060 02 ad 93 be 36 81 e5 bd cc 83 24 bd ba 1f 98 3f
       -0.28842932 -0.11206286 -0.040164754 1.1884682
000070 fe 7c 1a 3f 48 d9 67 3c 41 f9 85 bd a5 55 3c 3f
       0.6034697 0.014150925 -0.06541682 0.73568183
000080 14 a8 4b be 2d 0f 8f bf 92 00 86 3f 83 b6 6b 3f
       -0.19888335 -1.1176506 1.0468924 0.92075366
000090 b4 b0 fb 3e 16 f0 38 3f 9a 79 2d 3f b7 34 c2 be
       0.4915825 0.7224134 0.67763674 -0.37930843
0000a0 8f d5 2b 3f 14 65 e6 3f 22 ad 1e 3e c5 5a 60 3e
       0.6712274 1.7999597 0.15495732 0.21909626
0000b0 26 ec 80 3f b2 65 40 bd 0f ae c5 3f 1d b9 25 3f
       1.0072067 -0.046971984 1.5443743 0.64735585
0000c0 0c f2 cd bd 97 67 45 3e b8 66 58 3f d0 54 55 3e
       -0.100559324 0.19277798 0.84531736 0.20833135
0000d0 92 1a b6 3e 2d a1 31 3e 26 8f 3e 3f c9 81 b2 3e
       0.35567147 0.1734664 0.7443718 0.34864643
0000e0 3a 04 5b 3f 52 28 f2 3b c4 28 5a 3d 97 1a ac 3f
       0.85553324 0.0073900605 0.053261533 1.3445615
0000f0 1d f0 2f 3e 5f 63 28 3e 21 c5 33 bf f5 fd 17 3f
       0.1718144 0.16444157 -0.7022267 0.5937188
000100 4f 2f 88 bd f0 10 09 40 89 d0 3f bf 99 b7 0d 3f
       -0.066496484 2.1416588 -0.74927574 0.5535827
000110 69 ff b9 3e a0 1f 70 be c4 34 3e 3d 27 02 fa 3e
       0.36327675 -0.23449564 0.04643704 0.48829767
000120 a6 6d 97 3e 01 19 df 3e 6c b2 26 3f d4 6d 3b bf
       0.29575843 0.43573764 0.65116 -0.7321446
000130 8c 06 b7 3d ae af 67 3f 65 71 4e be e7 85 03 bf
       0.089367956 0.9050244 -0.20160444 -0.51376194
000140 1f f9 a1 3f 17 d6 88 3e a8 9c 86 3f ca 27 63 be
       1.2654151 0.26725838 1.0516558 -0.22183147
000150 f9 f4 47 3f 7e e5 f8 bc 8b 46 73 3b 0e 14 25 3f
       0.78108174 -0.030382868 0.0037120904 0.64483726
000160 e9 6e 9f 3f fb 12 b0 3d 57 0c 5f 3f 4c e3 58 bb
       1.2455722 0.0859737 0.87128204 -0.0033094464
000170 e6 1a ae 3e 52 88 0f 3f 25 70 8c 3f df e3 34 3d
       0.34004897 0.56067383 1.0971724 0.044162627
000180 f5 03 b9 be fe 29 b5 bd c7 14 3e 3f e5 99 25 3f
       -0.3613583 -0.088459 0.74250454 0.6468795
000190 6e f7 89 3f bd 63 08 be 52 b2 6f bc 55 9b 61 3e
       1.0778635 -0.13319297 -0.014629917 0.2203191
0001a0 ca 93 62 be ac f8 6a 3d 27 94 ab be c5 67 e0 be
       -0.2212669 0.05736606 -0.3351147 -0.4382917
0001b0 73 55 b7 3f b2 19 27 be 2a a6 e0 3e 48 b7 07 bd
       1.4322952 -0.16318396 0.43876773 -0.033133775
0001c0 67 08 14 3f 46 fa 01 3f 52 99 80 be 72 a1 0b bb
       0.5782532 0.5077251 -0.25116974 -0.0021305946
0001d0 e1 13 1b bc 6d b6 83 3c 46 6b fc 3e b4 bc d0 be
       -0.009465189 0.016078198 0.49300593 -0.4076897
0001e0 ba 1e 7f be a2 54 4c 3d 9f 43 30 3e 8d 39 04 40
       -0.24914065 0.0498854 0.17213295 2.0660126
0001f0 60 ea 87 3e 6f 50 14 bd ca b0 8b bd 0b c6 f3 bc
       0.26546 -0.03620952 -0.06820829 -0.02975752
000200 74 8f 06 be 7b 16 82 3e 12 09 2f 3f c2 e8 fb 3e
       -0.1314066 0.25407776 0.68373215 0.49201018
000210 45 ac a3 bd 61 23 11 3f da 1a 43 bc 45 b9 bd bd
       -0.07991842 0.5669461 -0.011908257 -0.09263853
000220 68 6c c4 3e 24 de bf 3f 2d 3b 57 3f 18 d6 27 3f
       0.38363957 1.4989667 0.8407467 0.65561056
000230 ee d7 92 3e 61 a4 34 bf 08 13 85 3e 38 81 20 bf
       0.28680366 -0.7056332 0.25991082 -0.6269717
000240 44 4c 94 3e 83 63 a1 3c 74 f4 5d bf 95 f3 87 bd
       0.28964436 0.019700771 -0.8670113 -0.066382565
000250 7a 86 1e 3e c6 6f 10 3e e1 32 1e bd 46 a3 b4 3c
       0.15480986 0.14105138 -0.03862274 0.022050511
000260 e9 5d 0c 3f 44 df 9d 3f 22 0c 51 be 08 b7 32 3e
       0.54830796 1.233376 -0.20414785 0.17452633
000270 7d 04 6b bf 9f cf ac bf f5 d6 c4 bb 75 44 11 3e
       -0.91803724 -1.3500861 -0.00600707 0.1418627
000280 a2 89 07 3e ba 0d b6 ba 31 7b ff bc d3 3e a1 be
       0.13236097 -0.0013889589 -0.031186672 -0.31493244
000290 f7 dd 9d be 46 6a 87 3f 42 a2 9a bc bf fc 6e 3e
       -0.30833408 1.0579307 -0.018876199 0.23338602
0002a0 34 1f 2a 3d f7 4b 8f 3f 54 69 90 3c 22 cf a2 3f
       0.041533664 1.1195058 0.01762835 1.2719462
0002b0 2b 4e 8b 3f d7 79 d6 bd 2f 0e 0a 3e 49 5c e7 3f
       1.088323 -0.10472458 0.13481973 1.8075038
0002c0 89 48 f0 bd 79 1b 2c be fc 39 15 bf 1f 74 26 3f
       -0.11732585 -0.16807355 -0.582916 0.65020937
0002d0 96 29 dd 3e 19 0c 0f 3e cd 7b af be 83 87 f4 3d
       0.4319579 0.13969459 -0.3427414 0.11939909
0002e0 85 42 bd 3d c0 57 80 3f 0b 6e 7e 3f be 88 0b be
       0.09241203 1.0026779 0.9938666 -0.13626382
0002f0 f2 9e c1 be de 86 80 be 50 59 4f bd 94 c0 1b 3f
       -0.37816578 -0.25102895 -0.050622284 0.60840726
000300 2b 34 e6 3e cb 46 be 3d 26 08 2d be 59 23 2e bd
       0.44961676 0.092908464 -0.1689764 -0.04251418
000310 db de 38 be c6 8f a2 bd c5 ca 8e 3e d0 6c 93 3e
       -0.18053763 -0.07937579 0.27889076 0.28793955

sequential/dense_2/MatMul f4 [15, 10]
000000 1c a5 f7 be 74 a3 28 be 52 be 19 3f 6f 55 a5 3e
       -0.48368156 -0.16468602 0.6005603 0.32291743
000010 35 09 81 be f8 27 a3 bd 94 48 3a 3f e1 2e 87 3d
       -0.25202337 -0.07966608 0.72766995 0.06600738
000020 31 54 28 bf 53 3c 28 3e f3 99 18 be 02 2b ca 3e
       -0.65753466 0.16429262 -0.14902477 0.39485937
000030 a5 28 75 3e ba 1c 58 bf 4e e9 f6 3d a5 2b 33 3f
       0.23941286 -0.84418833 0.12056218 0.6998847
000040 fb 31 91 3e bd 14 b5 bf 92 e2 b8 3e e7 5e 01 be
       0.28358445 -1.4146954 0.3611036 -0.12633859
000050 dc 8e 55 bf 2a e1 b4 bf 86 8b 67 bf ac 7d fa bf
       -0.8342111 -1.4131215 -0.9044727 -1.9569602
000060 bb bb 74 c0 bd 19 5b bf 85 16 08 bf af 3a 14 c0
       -3.8239582 -0.8558615 -0.5315936 -2.3160818
000070 15 8c d8 bf 07 82 99 bf c5 4f 15 3f 56 95 71 bc
       -1.691775 -1.1992806 0.58324844 -0.014745077
000080 fe db ef 3e 57 93 5b bf c7 03 79 be 4b 8f 76 be
       0.46847528 -0.857717 -0.24317847 -0.240781
000090 ca 52 6e 3f 03 81 9f 3e a2 7c 45 bf 79 ef a3 bf
       0.93095076 0.31153116 -0.771433 -1.2807456
0000a0 2c 5b 39 bf da a5 82 bf ab f6 dd be 6f dc 88 bd
       -0.7240474 -1.0206864 -0.43352255 -0.06682669
0000b0 d6 10 d8 3e a6 f7 5e be 8c de 35 bd ee 8d c7 3e
       0.42200345 -0.21774158 -0.04440169 0.3897547
0000c0 4c f1 fe 3e cb 01 a5 3e 89 dc 63 be c7 cb 3d 3f
       0.4979347 0.3222793 -0.22252096 0.74139065
0000d0 83 5b a6 bf 25 f1 f5 3e cd b3 93 bf 8b 11 30 bf
       -1.2996677 0.4803554 -1.1539246 -0.6877677
0000e0 12 81 73 3d 48 74 0d bf fd fd 89 3e cc ff 68 bf
       0.059449263 -0.55255556 0.2695159 -0.91015315
0000f0 3e b2 7d 3e 32 a9 54 be d1 81 1a 3f 12 e1 fd be
       0.24775025 -0.20767668 0.60354334 -0.49585778
000100 46 ab 09 3f 0e f3 0d be 87 df d1 be 30 3e 68 3e
       0.5377697 -0.1386225 -0.4099085 0.22679973
000110 40 b2 48 bd a8 c2 95 be e5 58 b2 bf 5b c8 6d 3f
       -0.048998117 -0.29250073 -1.3933378 0.92883843
000120 37 91 09 3f f7 93 8f bf 16 af de 3d fb 44 aa 3e
       0.53737205 -1.121703 0.10873239 0.33255753
000130 12 8d 50 bf a8 af 4b bf 67 a6 10 c0 fc 9f 86 bf
       -0.81465256 -0.79564905 -2.2601564 -1.0517573
000140 fe 0f 26 bf 53 fd 5b bf d6 f6 88 3e 2b 97 8c bf
       -0.6486815 -0.8593342 0.2675082 -1.0983633
000150 dc 00 27 3f 70 0c 17 3f da 3f 80 bd a4 e6 e9 bf
       0.65235686 0.59003353 -0.06262179 -1.8273511
000160 b7 99 ae bf a9 68 0c 3c 9c e4 52 be 99 9f 8c 3f
       -1.364066 0.008569875 -0.2059502 1.0986205
000170 e3 1c 4d bf 8c 66 ec 3e 86 bb 0d c0 62 78 0c c0
       -0.801222 0.46171987 -2.2145705 -2.1948476
000180 5e 92 74 be 5f 7b 96 bf 4e eb 42 be 23 1a 65 bd
       -0.2388396 -1.17564 -0.19035074 -0.05593313
000190 63 a5 b9 3e c6 b5 e8 be 1a 7d 46 bd 08 01 f2 3e
       0.36258993 -0.45451182 -0.04845915 0.47266412
0001a0 a5 c2 9f bf c4 2d 18 bf c4 95 f8 3e 91 bf 0c 3f
       -1.2481276 -0.5944483 0.48551762 0.5497981
0001b0 e2 c7 32 bf 92 3f 5e 3d 37 fd e9 3e da 40 0b bf
       -0.69836247 0.054259844 0.45701 -0.5439583
0001c0 02 db 0a c0 5e f4 ad 3e 87 d0 d2 bf 6e 81 f7 bd
       -2.1696172 0.339755 -1.6469887 -0.12085234
0001d0 e9 ba 11 3f 10 4e 17 3f 87 42 02 bf 71 3a 85 3e
       0.5692583 0.5910349 -0.5088276 0.2602115
0001e0 b5 93 15 3f c9 42 00 bf 73 43 67 bf 5b 6e a3 bf
       0.5842851 -0.50101906 -0.90337294 -1.2768053
0001f0 cd 55 18 3e fe 20 cf 3e 1e a9 4d bf 14 e3 0f 3f
       0.1487648 0.4045486 -0.8033618 0.5620587
000200 39 66 3c 3e 55 91 db be aa 8f 43 bf d2 51 1c bf
       0.1839837 -0.42884317 -0.7639109 -0.6106235
000210 36 2e e6 bd d7 25 3a bf 04 90 94 bf 23 ec b5 bf
       -0.11239283 -0.7271399 -1.160645 -1.4212688
000220 8a 5b b9 be 7a 57 02 be 3e 57 90 3f b1 f6 80 3f
       -0.3620265 -0.12728682 1.1276624 1.0075284
000230 2c bf b3 bf 84 5f ba 3d 02 e5 47 bf 3d 2d 5c 3f
       -1.4042716 0.091002494 -0.78083813 0.8600653
000240 9c 3e 07 3e e5 11 5b be 4f 92 b7 bf 08 19 ae bf
       0.13207477 -0.21393545 -1.4341525 -1.3601389
000250 c5 b4 a4 be 2d e8 80 bf
       -0.32169166 -1.0070854
