model/keypoint_classifier/keypoint_classifier.tflite (tflite, 6616 bytes, 6 tensors)

sequential_2/dense_8/BiasAdd/ReadVariableOp f4 [5]
-0.66571355 0.43640652 0.3516332 -0.21531938 -0.11143278
00000000: 346c 2abf ad70 df3e 4409 b43e af7c 5cbe
00000010: df36 e4bd

sequential_2/dense_7/BiasAdd/ReadVariableOp f4 [10]
0.6213123 -0.20365873 0.5890312 0.0644994 0.26508585 0.41037384 -0.54300356 -0.011344045
-0.29565775 0.32608414
00000000: 530e 1f3f ea8b 50be c0ca 163f 4318 843d
00000010: 55b9 873e 851c d23e 4802 0bbf 60dc 39bc
00000020: 7460 97be 80f4 a63e

sequential_2/dense_6/BiasAdd/ReadVariableOp f4 [20]
-0.24858513 -0.47641972 -1.0513481 -0.43824396 -0.34285042 -0.62795424 -0.18470629 -0.41685098
0.25559956 -0.76169944 -0.3752512 -0.5368221 -0.5304166 -0.63203925 -0.58181286 -0.39314553
-0.597914 -0.46354824 -0.32675296 -0.5593226
00000000: 1a8d 7ebe 49ed f3be 9392 86bf 8361 e0be
00000010: 178a afbe 9cc1 20bf a523 3dbe 7e6d d5be
00000020: f2dd 823e bcfe 42bf ed20 c0be 2c6d 09bf
00000030: 62c9 07bf 53cd 21bf b0f1 14bf 5f4a c9be
00000040: e410 19bf 3256 edbe 2a4c a7be c42f 0fbf

sequential_2/dense_6/MatMul f4 [20, 42]
-0.021513492 -0.107885525 0.034340937 0.49349838 0.057484984 0.22776774 0.040030375 0.18627867
0.008355162 0.20958003 -0.0034390083 0.119037114 0.05047991 0.10030611 0.05285575 -0.03639659
-0.25064483 -1.451886 0.012179774 0.13766871 -0.030810231 0.13000652 -0.013501793 0.11944669
0.0853222 0.029483045 0.039694797 0.14360549 -0.0811438 0.12799878 -0.119022235 0.031492062
0.15060715 -0.029928613 0.07186712 0.17324449 -0.10598011 0.07216501 -0.12898056 -0.04461285
0.062228855 -0.11732817 -0.18469553 -0.014892608 0.8074039 0.6938369 0.44087845 0.15078239
0.48753875 -0.02513 0.3841028 0.05751608 -0.093515776 0.0079503395 0.05578548 0.038605224
0.12328984 -0.037735432 0.07799268 -0.045905232 -0.070133254 -0.041951798 -0.010994501 -0.036462497
-0.23169433 -0.13024345 -0.3400442 -0.03698619 -0.044858433 -0.012287443 -0.118468605 0.0080317715
-0.2952457 -0.059910927 -0.8941979 -0.23548071 0.21603453 -0.03454033 -0.0014340938 0.09642089
-0.4363641 0.16214254 -0.62432224 0.24749476 -0.21538174 -0.08226088 -0.7586472 -0.19068559
-0.35571146 -0.26002213 -0.3068119 -0.20745829 -0.3588756 -0.31098655 -0.12999262 -0.025996799
-0.038585432 0.065935776 0.1192363 0.18553013 0.2094195 0.19226356 -0.22208838 0.013673643
0.0014190197 -0.17327127 -0.10263152 -0.24921754 -0.20384753 -0.1281599 -0.1351255 -0.054930177
0.12152156 -0.19060653 0.02653286 -0.27566883 -0.193116 -0.19465151 -0.06363959 -0.10282811
-0.053548206 -0.10280047 -0.02409742 0.09079142 -0.15286179 0.1728234 0.23774117 0.13317144
-0.06699595 -0.072829396 -0.10684954 -0.24136879 -0.24829328 -0.27785003 -0.4195102 -0.26309624
-0.020178385 0.24083664 -0.025935033 0.04762258 -0.008174821 -0.042430434 0.028655691 -0.07471781
-0.086223744 0.2144854 -0.009899604 -0.20242529 0.19155978 2.7356102e-05 0.03524416 0.2732272
-0.16593915 0.20715366 -0.113616474 -0.16613841 0.2778583 0.14613515 0.5800462 1.0387255
-0.18140069 0.019865694 -0.07250344 -0.15201047 0.17957865 0.010691077 0.39004475 0.48772648
-0.22971207 0.038616836 0.09844864 0.10032194 0.025596986 -0.25400704 0.06253966 -0.5492919
-0.01610162 -0.54081994 -0.14743213 0.14324783 0.026447805 -0.03001881 -0.03522135 -0.094628304
-0.03949988 0.0036596134 -0.07236974 0.08536838 -0.024241412 -0.1304087 -0.09845121 0.20868902
-0.12762806 0.77231354 -0.09369397 0.052606277 0.07261974 -0.058963533 0.110884584 0.47413927
-0.24559076 0.7673599 -0.043185614 -0.06040369 0.052155476 -0.1207855 -0.13582553 0.3122927
0.10929738 0.7443798 0.2387206 0.15621859 1.0287552 -0.29122624 0.72662115 -0.2157201
0.5118018 -0.18994161 0.3707869 -0.30734703 0.186335 0.25577345 0.15689908 0.16955607
-0.2461468 0.20645466 -0.43259868 0.16482225 0.102555394 0.22030614 0.26922756 -0.045626465
0.35446075 -0.11927674 0.35705113 -0.26277968 0.13165595 0.008499267 0.26889035 -0.06508001
0.3434413 -0.23105422 0.23130207 -0.3073852 0.253237 -0.006373399 0.17866328 -0.018231088
0.13924299 0.14257231 0.16288698 0.22013469 -0.0824859 0.077912 0.26621678 0.12720919
00000000: 103d b0bc 16f3 dcbd 15a9 0c3d d2ab fc3e
00000010: 6075 6b3d f23b 693e e4f6 233d d6bf 3e3e
00000020: 17e4 083c 269c 563e fc60 61bb bbc9 f33d
00000030: 06c4 4e3d 4a6d cd3d 457f 583d 9714 15bd
00000040: 8554 80be 67d7 b9bf ad8d 473c 07f9 0c3e
00000050: bd65 fcbc 6e20 053e a036 5dbc 77a0 f43d
00000060: 68bd ae3d 6d86 f13c 0397 223d 510d 133e
00000070: b82e a6bd 1d12 033e eec1 f3bd d2fd 003d
00000080: c338 1a3e da2c f5bc 122f 933d 0167 313e
00000090: 1a0c d9bd 40cb 933d 7b13 04be f7bb 36bd
000000a0: afe3 7e3d c049 f0bd d320 3dbe 2000 74bc
000000b0: 06b2 4e3f 4c9f 313f d2ba e13e b366 1a3e
000000c0: ae9e f93e 6edd cdbc 1fa9 c43e fb95 6b3d
000000d0: 3385 bfbd 2442 023c 517f 643d 8320 1e3d
000000e0: 627f fc3d 7890 1abd a0ba 9f3d 2007 3cbd
000000f0: 06a2 8fbd a6d5 2bbd 4822 34bc b359 15bd
00000100: 4741 6dbe 8a5e 05be 461a aebe d57e 17bd
00000110: 7abd 37bd 4551 49bc ab9f f2bd b197 033c
00000120: 722a 97be 2965 75bd 27ea 64bf db21 71be
00000130: 2838 5d3e 297a 0dbd 34f8 bbba 5178 c53d
00000140: 1e6b dfbe b208 263e 95d3 1fbf 446f 7d3e
00000150: 088d 5cbe 6478 a8bd b436 42bf 1543 43be
00000160: d01f b6be 9f21 85be 7316 9dbe f26f 54be
00000170: 8bbe b7be a139 9fbe c91c 05be 3df7 d4bc
00000180: c20b 1ebd 5609 873d 2932 f43d 9cfb 3d3e
00000190: 1172 563e bde0 443e 236b 63be 6a07 603c
000001a0: 66fe b93a 066e 31be 7930 d2bd e232 7fbe
000001b0: 68bd 50be 593c 03be 575e 0abe 77fe 60bd
000001c0: 4ce0 f83d 5c2e 43be 715b d93c 7724 8dbe
000001d0: 33c0 45be ba52 47be 7955 82bd 8b97 d2bd
000001e0: 5d55 5bbd 0e89 d2bd f467 c5bc daf0 b93d
000001f0: cd87 1cbe 9ef8 303e 6c72 733e 185e 083e
00000200: 2c35 89bd 9427 95bd eed3 dabd 6129 77be
00000210: 9840 7ebe 5c42 8ebe 0aca d6be 8db4 86be
00000220: 244d a5bc e19d 763e b575 d4bc e50f 433d
00000230: afef 05bc 89cb 2dbd 57bf ea3c a705 99bd
00000240: 1396 b0bd 10a2 5b3e f331 22bc 9348 4fbe
00000250: 3f28 443e c87a e537 2e5c 103d 70e4 8b3e
00000260: f4eb 29be 1720 543e c1af e8bd 3020 2abe
00000270: 7143 8e3e 74a4 153e e87d 143f f5f4 843f
00000280: 1ac1 39be 61bd a23c af7c 94bd a2a8 1bbe
00000290: 77e3 373e a129 2f3c f2b3 c73e 49b7 f93e
000002a0: a439 6bbe b02c 1e3d 719f c93d 9775 cd3d
000002b0: c5b0 d13c 360d 82be cb14 803d 659e 0cbf
000002c0: 8be7 83bc 2d73 0abf 73f8 16be 8faf 123e
000002d0: 11a9 d83c 02ea f5bc 4344 10bd 7ccc c1bd
000002e0: a0ca 21bd 20d6 6f3b 9636 94bd 9ed5 ae3d
000002f0: ed95 c6bc dc89 05be caa0 c9bd 93b2 553e
00000300: eeb0 02be 57b6 453f a0e2 bfbd ae79 573d
00000310: a9b9 943d bf83 71bd 7517 e33d 62c2 f23e
00000320: 257c 7bbe b371 443f 66e3 30bd dc69 77bd
00000330: fba0 553d 635e f7bd d915 0bbe d4e4 9f3e
00000340: 4ed7 df3d ad8f 3e3f 2c73 743e c4f7 1f3e
00000350: 40ae 833f 9b1b 95be d803 3a3f bbe5 5cbe
00000360: 7105 033f 0e80 42be c8d7 bd3e 975c 9dbe
00000370: 9ace 3e3e bdf4 823e 27aa 203e 1ba0 2d3e
00000380: e80d 7cbe da68 533e 937d ddbe 2ac7 283e
00000390: 9008 d23d ef97 613e 32d8 893e d1e2 3abd
000003a0: e17b b53e 5d47 f4bd 68cf b63e 0f8b 86be
000003b0: d1d0 063e 8240 0b3c ffab 893e ab48 85bd
000003c0: 8ad7 af3e 7a99 6cbe 73da 6c3e 9861 9dbe
000003d0: 48a8 813e f2d7 d0bb 82f3 363e 5d59 95bc
000003e0: b795 0e3e 7afe 113e d8cb 263e fd6a 613e
000003f0: 5eee a8bd 5490 9f3d 914d 883e 2043 023e

sequential_2/dense_7/MatMul f4 [10, 20]
0.4488776 0.4809565 -0.077085584 0.46600947 0.7303259 1.0943509 0.82925445 0.0063303877
0.8195479 -0.056066208 0.103439465 -0.051993765 0.77470267 0.8319107 -0.11539985 0.055927403
1.0054941 0.43687987 1.1596189 0.28042766 -0.039682146 -0.23537345 0.80065995 -0.045927193
-0.45830968 0.6493074 0.28022984 0.6309175 0.1956378 -0.1457504 0.6475518 0.221684
-0.05183672 -0.7429912 0.53053784 0.6054677 0.1658754 0.4638318 0.16280694 -0.7389884
0.41353357 -0.50126857 -0.3214091 -0.44769543 -0.5890221 0.03977813 0.3994121 -1.2169799
0.38668793 -0.23249604 -1.1827718 -1.0411357 0.1338423 0.26153734 -0.68610233 -0.67204964
0.301043 -0.91721874 0.55647135 -0.15954633 0.052981608 0.7133298 -0.27295867 0.45308322
-1.2225168 0.04479523 0.11124728 -0.43508267 0.058595046 0.47186923 0.30856484 0.7295917
0.044843473 0.038793724 -0.93189985 0.49789187 -0.0549052 0.65502226 0.04242919 -0.5135274
0.25775468 0.21557663 -0.096099645 0.647756 0.5875991 0.20658135 0.006087783 0.60138303
0.392596 -0.46442828 0.32061172 0.16714105 -0.049176972 -0.18733923 -0.4698528 0.61873126
-0.4401932 0.5427339 0.56309855 0.4162301 1.2351371 0.6743975 -0.79213065 -0.48243934
-1.0569204 -0.023762967 -0.21105818 -1.0425773 -0.6613739 0.478988 -0.38859388 0.28138953
0.5814298 -0.118612245 0.34310538 -0.19408202 0.10192376 -0.122491084 -0.17617254 -1.1039708
-0.06339505 0.6656438 0.3223438 -0.4039016 -0.0748443 -0.1878927 0.25447085 0.0051718107
0.0096035125 -0.14014877 0.14692435 -0.040923495 -0.2925345 -0.15097882 0.50057477 -0.14359091
0.12940769 -0.29936427 0.11562921 -0.12528646 -0.502742 0.22066824 0.8034774 0.18505728
0.15299799 0.38460708 0.40249196 0.30641264 0.24187568 0.8737013 0.2683907 0.40428087
0.41948888 1.1450341 0.04603089 -0.14579597 0.5175651 0.5977565 -0.5699599 0.5186415
0.5862848 0.36798406 -0.12066635 0.74005914 0.6631191 0.09516237 0.09489395 -0.020176481
0.07184754 -0.20289843 0.09753212 0.47049916 0.23658106 -0.13018839 0.8065531 -0.24212295
-0.27577648 0.48059887 0.3407879 0.36105213 -1.3743223 -0.36031267 0.2654582 -0.6642989
-0.2027515 -0.035547215 -0.78637826 0.5364173 -0.55848795 0.4541362 0.5556 0.5460549
-0.12466329 -0.4607784 0.51967466 -0.2546108 -0.80919826 -0.92705625 -0.6598222 -0.12481139
00000000: 49d3 e53e ee3f f63e 0cdf 9dbd cb98 ee3e
00000010: a3f6 3a3f b113 8c3f 054a 543f 246f cf3b
00000020: e4cd 513f aea5 65bd 12d8 d33d 6af7 54bd
00000030: ea52 463f 1af8 543f c256 ecbd 2214 653d
00000040: 08b4 803f b8ae df3e 646e 943f 3794 8f3e
00000050: bf89 22bd bd05 71be 0df8 4c3f 271e 3cbd
00000060: 91a7 eabe 0339 263f 497a 8f3e cf83 213f
00000070: 4755 483e 983f 15be f4c5 253f 2101 633e
00000080: be52 54bd ac34 3ebf 54d1 073f eeff 1a3f
00000090: 3edb 293e 5d7b ed3e ddb6 263e 582e 3dbf
000000a0: acba d33e 2353 00bf bc8f a4be 5638 e5be
000000b0: 27ca 16bf 64ee 223d be7f cc3e ffc5 9bbf
000000c0: f6fb c53e 7113 6ebe 1165 97bf ef43 85bf
000000d0: f50d 093e 39e8 853e 67a4 2fbf 720b 2cbf
000000e0: 4f22 9a3e d9ce 6abf e874 0e3f 1d60 23be
000000f0: 3e03 593d c89c 363f 3dc1 8bbe 86fa e73e
00000100: 6e7b 9cbf 347b 373d 9dd5 e33d 28c3 debe
00000110: 5c01 703d d898 f13e 36fc 9d3e 86c6 3a3f
00000120: caad 373d 2be6 1e3d fd90 6ebf afeb fe3e
00000130: 46e4 60bd 8aaf 273f 3bca 2d3d 8876 03bf
00000140: 6cf8 833e 1fc0 5c3e e4cf c4bd 56d3 253f
00000150: e56c 163f 108a 533e 067c c73b 3df4 193f
00000160: 5802 c93e 8bc9 edbe 3827 a43e 0627 2b3e
00000170: cb6d 49bd dbd5 3fbe 8c90 f0be 2c65 1e3f
00000180: 0161 e1be 9cf0 0a3f 3a27 103f 1d1c d53e
00000190: f918 9e3f 51a5 2c3f 13c9 4abf 4a02 f7be
000001a0: 2b49 87bf 8eaa c2bc a31f 58be 2c73 85bf
000001b0: cd4f 29bf ea3d f53e c7f5 c6be 4a12 903e
000001c0: 95d8 143f faea f2bd 82ab af3e 70bd 46be
000001d0: 67bd d03d 9bdc fabd 9366 34be ea4e 8dbf
000001e0: 44d5 81bd a267 2a3f 3f0a a53e 31cc cebe
000001f0: f847 99bd f266 40be 014a 823e 4b78 a93b
00000200: 0d58 1d3c 2983 0fbe 5673 163e 659f 27bd
00000210: 15c7 95be 319a 1abe ab25 003f 7f09 13be
00000220: 7383 043e 4646 99be 02cf ec3d 184b 00be
00000230: b3b3 00bf dbf6 613e b2b0 4d3f a87f 3d3e
00000240: 81ab 1c3e 38eb c43e 6d13 ce3e 1ee2 9c3e
00000250: 42ae 773e e3aa 5f3f 816a 893e e7fd ce3e
00000260: 3fc7 d63e 7a90 923f e38a 3c3d 8a4b 15be
00000270: 257f 043f 9206 193f e4e8 11bf b0c5 043f
00000280: c316 163f 6868 bc3e eb1f f7bd 8474 3d3f
00000290: 2cc2 293f 7de4 c23d c257 c23d 2649 a5bc
000002a0: ce24 933d 9bc4 4fbe ecbe c73d 44e5 f03e
000002b0: 4e42 723e 1b50 05be 447a 4e3f 14ef 77be
000002c0: 9332 8dbe 0e11 f63e c07b ae3e d3db b83e
000002d0: cbe9 afbf e77a b8be 23ea 873e 7e0f 2abf
000002e0: 179e 4fbe f599 11bd 1650 49bf a552 093f
000002f0: 11f9 0ebf 8a84 e83e cd3b 0e3f 41ca 0b3f
00000300: 784f ffbd 25eb ebbe 6609 053f 595c 82be
00000310: 9e27 4fbf 8f53 6dbf 1cea 28bf 1d9d ffbd

sequential_2/dense_8/MatMul f4 [5, 10]
0.09938872 0.71317554 -0.49138433 0.7269859 1.0071052 -0.6043585 0.7039766 -0.5428113
1.0274081 -0.49701986 0.43154094 0.58534265 -0.54040474 -0.25879204 -0.7390067 -0.6082179
0.58713263 0.73846036 -0.3925856 -0.88596547 0.742178 -0.77218074 1.462302 -1.8073112
-0.24840082 -0.32058856 -0.5408695 -0.9269607 -0.8251818 -0.062271547 -1.4278893 0.5817154
-0.67986727 0.5930252 -0.14304842 -0.6939406 0.41576698 -0.041617483 -0.36108932 0.82657766
-0.62183267 -1.0582479 -1.0223714 0.3991433 -1.149632 1.261461 -1.0034262 -0.7832573
0.22861725 0.41629922
00000000: 508c cb3d ac92 363f ba96 fbbe bf1b 3a3f
00000010: d3e8 803f 3db7 1abf cf37 343f aef5 0abf
00000020: 1c82 833f 6379 febe eff2 dc3e 04d9 153f
00000030: f757 0abf 6480 84be 8b2f 3dbf 2bb4 1bbf
00000040: 534e 163f bd0b 3d3f fb00 c9be a2ce 62bf
00000050: 61ff 3d3f a3ad 45bf b62c bb3f f955 e7bf
00000060: c95c 7ebe 2f24 a4be 6c76 0abf 4c4d 6dbf
00000070: 1d3f 53bf 7310 7fbd 14c5 b6bf 4deb 143f
00000080: c80b 2ebf 80d0 173f 497b 12be 17a6 31bf
00000090: 69df d43e 1877 2abd b3e0 b8be 989a 533f
000000a0: 6d30 1fbf ab74 87bf 11dd 82bf 835c cc3e
000000b0: 2427 93bf 8e77 a13f 4570 80bf 8d83 48bf
000000c0: a41a 6a3e 2c25 d53e
