model/keypoint_classifier/keypoint_classifier.tflite (tflite, 6676 bytes, 6 tensors)

sequential/dense/BiasAdd/ReadVariableOp f4 [20]
00000000: cabd abbe 1b4b 5cbf 88d5 16be c15a 35bf
00000010: e77f 06bf d04f e5be 9fe7 33bf 4bd0 28bf
00000020: 2c25 72bf dbb4 663e c119 33bf 5caf e53e
00000030: 1d22 01bf 7dd7 13bf b5d4 1dbf af49 643e
00000040: 19b6 cabe 0891 7bbf dcd0 d33e 7fee 25bf
-0.33543235 -0.860521 -0.14729893 -0.70841604 -0.52538913 -0.44787455 -0.702753 -0.6594283
-0.9458797 0.22529928 -0.6996117 0.4486035 -0.5044268 -0.57750684 -0.6165269 0.22293733
-0.39592054 -0.98268175 0.41370285 -0.6481704

sequential/dense_2/BiasAdd/ReadVariableOp f4 [7]
00000000: a40b 75be c538 cebe 381b 293f 0822 433f
00000010: f0d1 403e c60a 4dbe cef4 07bf
-0.23930222 -0.40277687 0.6605716 0.762238 0.18830085 -0.20023641 -0.5310792

sequential/dense_1/BiasAdd/ReadVariableOp f4 [10]
00000000: 761c 943e d3b5 0c3f a4f8 2e3f 3d26 73be
00000010: da07 773e 39a6 97be a9a5 8dbe d142 d73e
00000020: e1bc 573f 44c3 10be
0.28927964 0.5496494 0.68348145 -0.23745055 0.24124089 -0.29619005 -0.2766545 0.42043164
0.8427258 -0.14136988

sequential/dense/MatMul f4 [20, 42]
00000000: f46c f6bd 5803 483d c36c 7d3e 832e 7a3e
00000010: eb34 d03c f953 4ebe 92b6 46be 1abb aabe
00000020: d113 d5be 78fa d5bd b40e bc3d 0dc6 213d
00000030: 126c e7bc ab33 7b3c 769a 8dbd 86c8 693c
00000040: 7d80 00be a1f0 bc3d 190b 853d 06ad a13d
00000050: 5b91 4d3c e884 a7bd 72fd c53e dfb1 42be
00000060: 7dbe 5b3f 01c3 17be 4452 0ebe 148f 083e
00000070: 341f bf3c 3725 dfbc e38b 033f 94af 19be
00000080: e22a 583f ad8a 3abf 3a77 8fbe 8725 f53d
00000090: 7bc2 15be 8a94 163d ea46 3a3d f593 a53d
000000a0: 5a18 433e ffd6 f03d 80af 63bb 04cf e0bd
000000b0: 10d6 30bd 387b fdbe c67f 273e fa75 e0be
000000c0: e02f 673e 33c3 06bf 9e0b bf3d a64f 47be
000000d0: 24b4 32bc de3b dd3c 5937 703c 7b87 d0bd
000000e0: 78b5 ff39 24d1 5fbc d5da 74bd efca 183c
000000f0: 2b53 f33d 3368 b93c df80 6bbe 7271 813b
00000100: b98c 3fbd 38dd 6b3e 8363 c33d 977a 793e
00000110: 651f a23e 980d e5bc 2db2 24bd 1323 debd
00000120: 9377 51bd c683 6a3e f13d d23d 5bb6 8d3e
00000130: 8936 253a c9b0 f0be 68e0 4d3d 2891 1ebf
00000140: 5f4b 72bd b027 97be 984a 00bd 16ad 57be
00000150: 3016 edbd 90f8 cf3c 206b b33d 281b b13e
00000160: 6199 1d3e 5216 9f3e b0f3 943e 2ec3 a03e
00000170: fd85 e33e 29b3 b53e afbb d6be d2a5 02be
00000180: 31b2 ecbe de07 7dbe b425 2ebf 6bd5 91bd
00000190: de50 c8be b5df e3be 69a2 76be 193f 85be
000001a0: a0e7 03bd 0e81 a23c aa8d 453e 15c4 5d3d
000001b0: a067 3b3e c4f1 eabc 9847 6b3c 368c 10be
000001c0: 77f2 4a3d 2cc0 1f3e 7e45 2b3e c908 053e
000001d0: b840 f33d f1cb 273d eec4 8a3e a384 a5ba
000001e0: 0fdf 973d 72c3 613e 8cc4 da3d bf2f 8d3e
000001f0: bac0 473e a26b 853e 5a07 8a3e c47f 78be
00000200: 37a1 463f 7111 1dbf 5ca7 b13e 652b 47bf
00000210: bd92 c93e 1a70 bcbe d0b9 62bc 7ab7 de3c
00000220: e697 823f 9430 e4be f3ae 66bd 1f0a 09be
00000230: 7095 7ebe d58a 283e dea6 b4be 5c69 6a3e
00000240: 1e27 133f 5c2c f2be 2738 973d 8b9b 2abe
00000250: 371f 96bd f4a5 043e b7d8 92bd 3e84 103e
00000260: d301 0e3f 9f12 86be c256 27bd a88b babd
00000270: 58d8 0bbe 44ab 2a3e fe1b debd e6a2 533e
00000280: ff18 1d3e f3f1 82be deb1 203e ec3e 48be
00000290: 5e0f 103d ea5f ad3d 1c46 df3c baa3 213e
000002a0: d241 1a3e 485b 4e3e fa57 183f 772c 92be
000002b0: 0115 f93e a83a 37be a84f 0c3e 08ec 35be
000002c0: d030 8bbd 6bd7 19bf d8a6 c33e 393b 64be
000002d0: b7a7 453d 9cac cfbd 28e8 30be be79 543d
000002e0: cd7b 6abe de4b 2d3e 7c71 033f 63cd 40be
000002f0: 5ccf a03e b4dd 44be 76b4 07be b46e 2b3d
00000300: e3c8 68be 3979 8a3d 2f5c ec3e 0412 a7be
00000310: 4477 503e 0c85 82bd 9347 11be e583 ec3d
00000320: f6fe 3abe e0ef 0f3e 2d76 4b3f a8f5 a9be
00000330: 9d03 913e 2d59 4d3b 0855 b43d e032 3e3e
00000340: 1999 023d 76b2 883e d463 753e a02d 0c3c
00000350: ecac 473e a33b 7c3e 9a11 d6bc ccef f03d
00000360: 4792 38bd 094b a43d e4eb 20be c9a2 253e
00000370: ad52 c2bc 1ab8 3f3d eaef ce3b 345b 7e3d
00000380: 28f9 823d 8ae0 033d fe28 dc3d 31d1 a9be
00000390: 749e c1bc a9cb bf3d 89cf c5bd 98ab 8c3d
000003a0: 9768 bb3d 3381 f2bc 5d10 4a3e 335b 57bf
000003b0: d2bc afbd a243 153e ad52 10be 22c7 c33d
000003c0: 854e 3b3c 1a81 79bd e135 6f3f d092 e1bd
000003d0: 3336 e4bd 9d80 503e a2b4 4bbe 7ef9 1a3e
000003e0: 9fda 27be e435 a63d 4253 7b3d 77cc e8bc
000003f0: a0b4 773e 583b 6c3d 6710 01bd 5da3 4f3e
-0.120325 0.048831314 0.2474852 0.24431805 0.025415858 -0.2014922 -0.19405583 -0.33345872
-0.4161668 -0.10448164 0.09182492 0.039495517 -0.028249774 0.015332143 -0.06914227 0.014269
-0.12549014 0.09225584 0.06496257 0.0789433 0.0125468625 -0.08179647 0.38669926 -0.19013165
0.8583754 -0.14820482 -0.1389857 0.1333583 0.023330308 -0.027239425 0.51385325 -0.15008384
0.84440434 -0.7286785 -0.2802065 0.119700484 -0.1462497 0.03676275 0.045477785 0.08084861
0.19052258 0.11759757 -0.0034742057 -0.10976985 -0.043172896 -0.4950807 0.16357335 -0.4384001
0.22576857 -0.526416 0.09328388 -0.19463977 -0.010907207 0.027006086 0.014661633 -0.10182091
0.00048772595 -0.013660703 -0.059779007 0.009325727 0.118810974 0.022632694 -0.22998379 0.0039502913
-0.046765063 0.23033607 0.09540465 0.2436317 0.31664577 -0.027960584 -0.040208984 -0.108465336
-0.051139425 0.2290183 0.10265721 0.2767819 0.0006302377 -0.47009876 0.05026284 -0.6194024
-0.05915391 -0.29522467 -0.03132114 -0.21062121 -0.115764976 0.025387079 0.08760667 0.3459103
0.1539054 0.31071717 0.2909217 0.3139891 0.44438162 0.3548825 -0.41940066 -0.12758568
-0.462297 -0.24710032 -0.6802628 -0.07120784 -0.39124197 -0.44506612 -0.24085392 -0.26024702
-0.032203317 0.019836929 0.19292322 0.054142077 0.18301249 -0.028679736 0.014360331 -0.14115986
0.04954764 0.15600652 0.16725728 0.12991633 0.118775785 0.040965978 0.2710337 -0.001262803
0.07415592 0.22047213 0.106820196 0.2757549 0.19507113 0.2605868 0.26958734 -0.24267489
0.77589744 -0.6135474 0.34697998 -0.7780059 0.39369765 -0.36804277 -0.013838246 0.027187098
1.0202606 -0.44568312 -0.05631919 -0.13382767 -0.24861693 0.1645921 -0.3528356 0.22891754
0.57481563 -0.4729947 0.07383757 -0.16660897 -0.073301725 0.12953931 -0.07170241 0.14112946
0.55471534 -0.26186082 -0.040854223 -0.091086686 -0.13656747 0.16666895 -0.10845183 0.2066761
0.15341567 -0.25575218 0.15692851 -0.19555253 0.035170905 0.0846556 0.02725511 0.15785113
0.15064171 0.20152009 0.5950924 -0.2854955 0.48648837 -0.1789347 0.13702261 -0.1776582
-0.067964196 -0.60094327 0.3821323 -0.22288217 0.04825565 -0.101403445 -0.1727606 0.051873915
-0.22898789 0.16923472 0.5134504 -0.18828349 0.31408203 -0.19225198 -0.13252434 0.04185362
-0.22732882 0.06761403 0.4616408 -0.32630932 0.20357996 -0.06373033 -0.1418746 0.115485944
-0.18261322 0.14056349 0.79477197 -0.33195233 0.2832307 0.003133367 0.08805281 0.18574095
0.031884287 0.26698655 0.23963863 0.0085558 0.19499558 0.24632125 -0.02613144 0.117644876
-0.045061376 0.08022124 -0.15714985 0.16175379 -0.023721064 0.046806432 0.006315221 0.062098697
0.06395179 0.03219656 0.10750006 -0.33167413 -0.023635127 0.09365017 -0.09658725 0.068686664
0.09150808 -0.029602623 0.19732805 -0.84123534 -0.085809365 0.14576581 -0.14094038 0.09559466
0.011432295 -0.060914136 0.9344159 -0.110143304 -0.1114315 0.20361562 -0.19893125 0.15134236
-0.16391991 0.081157476 0.061358698 -0.028417809 0.24189997 0.057673782 -0.031509783 0.20277162

sequential/dense_1/MatMul f4 [10, 20]
00000000: 572f 5ebf 2ada bd3d 97b9 313e b5e3 9a3c
00000010: 1fa1 f13d 9d49 483f faa6 6e3f 3a98 d93e
00000020: f258 51be 434c 0f3d 8321 8abc 0418 ddbc
00000030: 6b4c 68bd d845 523f 27dc bc3e 17d1 1a3c
00000040: 0eb9 463f e533 c9bd 2ac3 ad3d 84ac f93e
00000050: c8f0 003f 0e27 603e 378d e3bc 0c0c d4be
00000060: f837 e23b 96c3 353f 557a b2bc bee2 3ebd
00000070: 5828 833f b4ae 8b3d 9196 483d a6ef 62bd
00000080: 51cc 5c3f 7d38 a33e bf1d bebe 064f 73bc
00000090: ef9a fcbd 0887 153d 16c7 16be c0ef 353f
000000a0: fe7b 6fbe e053 2bbe 5ad4 a43e 0675 20be
000000b0: cd53 ab3d fdf2 03be 2fd8 2cbf 6a37 24be
000000c0: 0f0d adbf 4996 c53e 3c0b eebc 3211 eb3d
000000d0: 7831 a33d 03cd 9abe 3a5d dabd 5cc5 e7ba
000000e0: ea83 b8be 26c5 82be 7dc3 6ebf 741d dd3e
000000f0: da5d c3bc e14f 823f 95c7 9b3c 01c6 293f
00000100: e4af 623e c27e 61be e8b9 df3e 7d1a 9f3e
00000110: 6f2b c1be 8cd5 633d 9231 f33e baac 2b3e
00000120: 5a00 f13d 0bb2 b63f 5b6e 50bd 4747 00be
00000130: 61ad 1d3f 3109 dfbd 5ff7 71ba a410 733f
00000140: 0919 a93d 4e7c 0c3f 04c7 373f 20b3 5a3f
00000150: 5d47 c63e e3cf e8be eed5 e8be 5784 4b3f
00000160: acc2 0ebd a568 863e f835 fc3e 1718 9f3e
00000170: 2d51 8b3c 8e5d 79be 2769 333f a030 cd3d
00000180: 2f36 a7be f562 a73f a7d2 353d 579f 99bd
00000190: 83ac eb3c fbfe 913e f7e3 873d b56a 933e
000001a0: 91b4 06be 5099 1fbd 93cc 8a3f 1afa 1f3f
000001b0: d10f ee3e 8957 243a 8042 553e 8e5f 0b3e
000001c0: 0241 af3e 0b27 213e 675c 3a3f a699 043f
000001d0: b065 07bd 40cb 4c3f d946 64bd 098a 9e3e
000001e0: 0cfd f73e e25a 16bf d624 ea3e f4d7 be3e
000001f0: e94a a43e 532f 703f b628 273f 0570 563e
00000200: fd26 993d 5c9a 3a3f 5a79 1d3f 26a1 643f
00000210: b5d2 983e 0a04 8abb 7fa2 ccbe 07a8 a23e
00000220: e6b7 923f 723c 19bf 1ef9 9d3e cad9 f93e
00000230: 2e01 983f 5fbc fbbe 7075 643f cdc3 c33c
00000240: bcaa 1f3f 16c6 873f acc3 203e 9e69 703f
00000250: a53a c73e 4865 963d ebea 713f ffcc 833f
00000260: 45a7 94bd 3f3c 053e 9601 6c3f 5e54 3e3f
00000270: cdda 553f 0189 0cbe 6026 c83e 494c 31bf
00000280: cc9b b5be 551d 023f 8ab6 223f 6f67 073f
00000290: 9647 043f cfff b33d 8ef2 c2be 7e2d 0e3e
000002a0: e148 a7bb c1fa a73f 3c26 d63e 37ed 8f3e
000002b0: 6e40 3d3d b4ed 733e b4ce 783e 0c10 033f
000002c0: 956b 93be 64c8 b83e 13a7 903f e917 b2be
000002d0: bf63 cebd 0a42 683e ae18 bfbd 9d5f 47bf
000002e0: b731 6c3f f1ee 13be 5f89 26bd 600f e9be
000002f0: 7a38 18be 013d 74bd e2de 843e 03a7 b83e
00000300: c759 34bd e547 283e bcd5 663f ca7a bdbd
00000310: 14bf cfbb 00b0 9abe 1eb0 c0bd dfeb 333d
-0.86790985 0.09270127 0.17355953 0.018907407 0.117983095 0.78237325 0.93223536 0.42498952
-0.20444086 0.03498484 -0.016861683 -0.02698899 -0.056713503 0.82137823 0.36886713 0.009449265
0.7762612 -0.09824351 0.0848449 0.4876443 0.50367403 0.21889898 -0.027777297 -0.4141544
0.0069036447 0.71001565 -0.021786848 -0.046602957 1.0246687 0.06820431 0.048971716 -0.055404328
0.8624926 0.31879035 -0.3713207 -0.014850384 -0.12334239 0.03650573 -0.14724383 0.71068954
-0.23387143 -0.16731215 0.3219326 -0.15669641 0.08365593 -0.12885661 -0.6751737 -0.16036764
-1.351961 0.3859122 -0.029058091 0.11477889 0.0796842 -0.30234537 -0.10662313 -0.0017682719
-0.36038142 -0.25541037 -0.9326704 0.43186533 -0.023848463 1.0180627 0.019016067 0.66317755
0.2213741 -0.2202101 0.43696523 0.31074896 -0.3772845 0.055623576 0.47498757 0.16765109
0.11767645 1.4273084 -0.050886493 -0.1252719 0.6159268 -0.10890425 -0.00092302816 0.94947267
0.08256728 0.54877174 0.7178805 0.85429573 0.3872632 -0.45471105 -0.45475715 0.7949881
-0.034853622 0.26251712 0.49259925 0.31073067 0.017006481 -0.24352095 0.70082325 0.1001904
-0.32658526 1.3077074 0.044390347 -0.07501095 0.028768783 0.28514847 0.06635278 0.28792349
-0.13154818 -0.03896457 1.0843681 0.62491 0.46496442 0.0006269147 0.20826149 0.1361067
0.34229285 0.1573755 0.72797245 0.5179695 -0.03305596 0.79997635 -0.055731628 0.30964687
0.48435247 -0.58732426 0.4573123 0.37274134 0.32088402 0.9382221 0.65296495 0.2094117
0.074781395 0.72891784 0.6151329 0.89308393 0.29848257 -0.0042119073 -0.39967725 0.3176882
1.1462371 -0.5985786 0.30854124 0.48798972 1.187536 -0.49167153 0.89241695 0.023897076
0.62369895 1.0607326 0.15699643 0.9391116 0.3891193 0.073435366 0.9449908 1.0296935
-0.07258467 0.13011263 0.9218992 0.74347484 0.8353699 -0.13724138 0.39091778 -0.69257027
-0.35470426 0.5082601 0.6355978 0.528922 0.5167173 0.08789026 -0.3807568 0.13884541
-0.0051051234 1.3123399 0.41826046 0.28110668 0.046204023 0.23821145 0.24297601 0.5119636
-0.28793016 0.36090386 1.1300987 -0.34783867 -0.10077619 0.22681442 -0.09330879 -0.7788027
0.9226336 -0.14446618 -0.04065835 -0.45519543 -0.14865294 -0.05962849 0.25951296 0.3606492
-0.04403093 0.16433676 0.9016988 -0.09251936 -0.006339917 -0.30212402 -0.09408592 0.043926116

sequential/dense_2/MatMul f4 [7, 10]
00000000: fe49 333f ac48 db3e 83b9 09bf 8e0b 683d
00000010: a3d9 38bf 8e95 36bd c62f 7c3f d9a5 313f
00000020: 9477 ccbd 7274 67bf 528a 30bf dbdc 8f3d
00000030: 677e 36bf 8c24 8e3e d4cc 273f 34f8 493f
00000040: 28a4 9b3d e682 d83e 18c2 fb3d fad2 8f3f
00000050: 7047 c2be 5343 98bf fcc8 e63e f70f a4bf
00000060: daaa f63e f625 05bf 5f2b ccbe 477e 4a3f
00000070: 058b 133f b285 4fbe 174a 20bf 8afc 783f
00000080: 5500 b33f 651e 27bf cfd2 aabf 76bf 163e
00000090: dfae 15bf 4907 7d3e 96a9 d0bf 6e76 9dbf
000000a0: ee21 a03e 6176 fb3b a945 e4be 834d 163f
000000b0: 420c b1be 6781 d8bf d66a 0abf 504b 8fbf
000000c0: 2c65 6b3f 5739 b0bf 1ba7 383f 9666 28bf
000000d0: 0ea5 27bf 1751 063f 3b3a 993e 32a4 2d3f
000000e0: d684 64bd 3ca5 763e 8ed8 2fbf 1a5f 253f
000000f0: 8b75 18bf acf1 d0bf dd81 c3bf 3fe5 2bbf
00000100: 4910 cebe 0c70 97bf ad1b d7be d697 25be
00000110: a267 95bf 775b f9be
0.7003478 0.42828882 -0.53798693 0.056651644 -0.7220709 -0.04457622 0.98510396 0.6939369
-0.09983745 -0.90412056 -0.6896106 0.07024547 -0.71286625 0.27762258 0.6554692 0.7889435
0.0759967 0.42287368 0.1229288 1.123626 -0.37945127 -1.1895546 0.45075214 -1.2817372
0.48177224 -0.5201105 -0.3987684 0.79098934 0.57634 -0.20265844 -0.6261305 0.97260344
1.3984476 -0.65280753 -1.3345584 0.14721474 -0.5846996 0.2470981 -1.6301754 -1.2301767
0.31275886 0.007674024 -0.44584396 0.58712023 -0.34579664 -1.691449 -0.5406927 -1.1194859
0.9195125 -1.3767499 0.7212998 -0.65781534 -0.6548623 0.52467483 0.2992724 0.6782867
-0.055790745 0.2408647 -0.6868981 0.6459824 -0.59554356 -1.6323752 -1.5274006 -0.67146677
-0.402468 -1.1831069 -0.42013302 -0.16171202 -1.1672251 -0.48702595
