model/keypoint_classifier/keypoint_classifier.tflite (tflite, 7028 bytes, 6 tensors)

sequential/dense/BiasAdd/ReadVariableOp f4 [20]
00000000: 602b 46bf 1ce5 02bf aac8 59bf a966 3ebf
00000010: eaf9 553e 1286 d2be 777a 92be 6e17 05bf
00000020: b311 d3be e36f 98be c19d 16bf 5a36 2bbf
00000030: f86b 3e3e 7e2e aebd 7855 47bf feb3 80bf
00000040: f48b f1be 4198 15bf 4fd8 9b3f 1aae 0dbf
-0.77409935 -0.51130843 -0.85071814 -0.74375397 0.20896116 -0.41117913 -0.28609058 -0.51988876
-0.4122444 -0.29772863 -0.58834463 -0.6687981 0.18595874 -0.085049614 -0.7786479 -1.0054929
-0.47177088 -0.58435446 1.2175387 -0.5534378

sequential/dense_2/BiasAdd/ReadVariableOp f4 [15]
00000000: 21ba 4fbe 78ed aabd e2b9 ecbe 730d 00bf
00000010: bd2e 1a3f a0f4 c63e a68f 37bf 1047 c8be
00000020: 9fd5 443e cb17 533f ec57 2abe 916f 2ebd
00000030: 3a45 b83e 8130 0c3f ff38 3e3e
-0.20285846 -0.08346075 -0.46235567 -0.5002052 0.60227567 0.3885851 -0.71703565 -0.39116716
0.19222115 0.8245818 -0.16635102 -0.042586867 0.35990316 0.5476151 0.1857643

sequential/dense_1/BiasAdd/ReadVariableOp f4 [10]
00000000: c924 913e f901 a83f e75f 943e 5d98 753f
00000010: db8a 8f3f 5a48 95be ebbd e23e 2055 d8be
00000020: badb 613c 1fc3 343f
0.28348377 1.3125602 0.28979418 0.9593561 1.121425 -0.29156762 0.4428552 -0.42252445
0.013785297 0.7061023

sequential/dense/MatMul f4 [20, 42]
00000000: 9818 313e 7ad9 803e 1884 423e 5d9b 3bbe
00000010: 1925 86bd f2b7 03be 6368 67be c2cd f5bd
00000020: 4920 bebe c424 373d e2d8 09bf e21f 10bf
00000030: df83 babd 6488 8ebe 20ac eb3d aa22 803d
00000040: 18fc 093e 2f7d ea3d 99f9 bcbe 8a76 13bf
00000050: 5b41 c6bd 2047 bb3d db09 4f3e 9f12 b43e
00000060: 1803 5f3e f700 9d3e 9cb7 3abe f745 fdbe
00000070: f9a9 03bd a9cd 6f3d 33b0 cf3d d841 6a3e
00000080: 3ec1 973d 2edd c63d c298 febd 92b9 2abf
00000090: e0dc 253d ccd3 47be 8819 ad3c 1b87 3b3d
000000a0: 2fd6 97bc a6f9 87bd e1e9 8dbe 48e1 28bd
000000b0: 1f3f a6be 69a0 b1be 6fb3 d5bd fbb9 f0be
000000c0: 86d6 38be 80fe a1be 9d25 97be 1075 52bf
000000d0: 55b3 363c fcbf 4a3d 57e9 54be aed8 bf3d
000000e0: b83e 3f3b a906 933e 1ce7 e83d 4bc0 563e
000000f0: ea4d 4dbe 1f62 9a3d fddd a2bd 0f63 973d
00000100: cded 143e 7af9 9f3e 52ea 223e 2886 bd3e
00000110: 67bb a4be 807b 293c d500 a6bd 9655 ffbd
00000120: cd27 323d a24a 1f3e 290b 963d 4ca2 f23d
00000130: 2edd a9be 981d dabd 5bbb acbc 3022 23bf
00000140: 04db a23d 3643 2fbf 3eac ba3d 7253 1abe
00000150: 149a b4bd d0f5 413e a442 4bbe f634 d83e
00000160: 24b5 35be 306e 7c3e 7626 37be 10b2 043e
00000170: bcbd 0dbe f5f0 943d 2107 bf3d 81cb d1bc
00000180: ab49 923c b976 7e3d c3ef 323c 9726 a63d
00000190: 47b8 143d f40e 853d ec86 e93d fc66 1cbd
000001a0: ef29 27bd 33bc 843d db67 acbc e31d 00bd
000001b0: b4ee 9dbc b8cf 46bf 051d 833d 208e 5bbb
000001c0: 3147 0dbe 4fc7 a93d 75eb 113e 85a3 50bf
000001d0: de23 bc3f 618a 4bbf c668 b2bd 8fb4 e03d
000001e0: 3049 60be 12c6 103e 34af 22be ee35 c53c
000001f0: bda2 023d 8b6c 2fbe 2ea6 233e e692 60be
00000200: 74f6 edbd 32e2 ab3d 23d2 d7bd 9bfb c2bb
00000210: a816 fcbd 4b05 aa3d 9958 35be c661 b33d
00000220: 1bd5 9bbd 61a0 1dbf cb84 bfbd 27e0 8bbe
00000230: 6f2d 35bd 41fa 3dbd 89e3 2f3a 4154 debc
00000240: 457c 6f3a 3959 30bf 40a2 5c3d 474d 26be
00000250: c6f4 083e 4d39 e9bc b75f 973d babc e2bd
00000260: d78c 543d dcad 4dbf 8c08 9a3d 2fd9 193d
00000270: c56c a73d aa2d 6c3e 7c54 f23d 1033 923d
00000280: 926d d43d 40e7 dcbe efc3 53bd d119 a13e
00000290: 0743 09be d784 0f3f 5aa6 3dbe cb6b d93e
000002a0: 4382 86be 26e5 97bd 81eb d3bd 1a7f a8be
000002b0: 0685 c7bd f1fe 6fbe 57b4 a5be fc8c d6be
000002c0: d0b7 07bf e582 98be b676 f3bc c416 dfbd
000002d0: bfcf 8d3a 242b 223d 4649 463d 0662 833e
000002e0: 5168 fd3d e5f6 953e 1f33 19be a2b7 ffbc
000002f0: 5584 0cbd 9cbd 8fbe 6e37 233e f999 713d
00000300: 61e4 4a3e 58b2 093f 1077 1abe 4c2b c53d
00000310: cee7 eebc ee19 83be 3f8b 343e 4964 083f
00000320: fade 233e c669 d83f 06a7 26be 3e72 5b3e
00000330: fe94 fbbb af3c 163d 7588 cf3c 8c29 be3e
00000340: 36c9 473e 1f0f 933f 78c9 4dbd 176a 94be
00000350: 3fde 383d 338b 1ebf decc 05bc c50a 53be
00000360: 2568 653e b676 1fbe b920 b23e 9746 ae3d
00000370: 0591 13bf 6dc0 403e da39 cfbe cbde c23d
00000380: e425 1abe eba0 b53d cc7f be3c d322 603c
00000390: df8d 6fbf 3e99 323e affc 5bbe 8ee7 ecb9
000003a0: e0ef 89be 9017 02be 6041 7bbe acef cfbd
000003b0: 77a8 90bf f666 413e e47a cdbd 5ca8 493c
000003c0: c3e5 34be cf2b 4cbe 17c3 13bf 5093 8ebe
000003d0: 3ea9 17bf 3aaf 503e 5a5f a9be 47b4 a43d
000003e0: 62a4 17be 1bbc a53d 4ec8 f8bd 039a b43d
000003f0: 76fe a6bd 3043 1f3d 2c01 72be 22e7 01bf
0.17294538 0.2516592 0.18995702 -0.18320985 -0.065500446 -0.12863138 -0.22598414 -0.12002136
-0.37134007 0.044712797 -0.5384656 -0.5629865 -0.09107184 -0.27838433 0.115074396 0.06256612
0.13475072 0.11449658 -0.36909178 -0.5760275 -0.09680434 0.091444254 0.20218603 0.35170457
0.21778524 0.306648 -0.18234104 -0.4946744 -0.03214452 0.058545742 0.10141029 0.2287668
0.07409905 0.097101554 -0.1243148 -0.6668941 0.040493846 -0.19514388 0.021130338 0.045783143
-0.018534748 -0.066394135 -0.27717498 -0.04123047 -0.32470033 -0.34692696 -0.10434615 -0.47016892
-0.18050584 -0.3163948 -0.29520884 -0.82209873 0.0111511545 0.049499497 -0.20792137 0.093675
0.002918167 0.2871602 0.113722056 0.20971791 -0.20049253 0.07538246 -0.07952497 0.07391941
0.14543839 0.31245023 0.15909699 0.37016416 -0.32174227 0.010344386 -0.081056274 -0.12467496
0.04349499 0.15555814 0.073263474 0.11847362 -0.3317656 -0.10650176 -0.021085432 -0.6372404
0.0795193 -0.6846193 0.09114884 -0.15070894 -0.088184506 0.18941426 -0.1984964 0.42227906
-0.17744881 0.24651408 -0.17885765 0.1295855 -0.13841909 0.072725214 0.093275316 -0.025609734
0.017857393 0.06212494 0.010921421 0.08112829 0.036308553 0.06496993 0.114026874 -0.03818415
-0.040811475 0.06481209 -0.021045616 -0.031278502 -0.019278862 -0.77660704 0.064020194 -0.003350146
-0.13796689 0.08289968 0.14249976 -0.8149951 1.4698446 -0.79508024 -0.0871139 0.10971939
-0.21902919 0.14138058 -0.15887147 0.024073567 0.03189348 -0.1713125 0.15981361 -0.21931037
-0.11619273 0.08392753 -0.10538127 -0.005950404 -0.12309009 0.08301791 -0.17709579 0.08758883
-0.07609006 -0.61572844 -0.093515 -0.27319452 -0.044232782 -0.04638124 0.00067096256 -0.027139785
0.0009135644 -0.6888614 0.05386567 -0.16240416 0.13374624 -0.028469706 0.07391303 -0.11071153
0.051892128 -0.80343413 0.075211614 0.037560638 0.08175043 0.23064294 0.1183252 0.07138646
0.103724614 -0.4314518 -0.05170053 0.3146501 -0.13404475 0.5606207 -0.1852049 0.42465052
-0.26271257 -0.074167535 -0.10347653 -0.3290947 -0.09742169 -0.23437096 -0.3236415 -0.41904438
-0.5301485 -0.29787365 -0.029719692 -0.10893014 0.001081936 0.039591923 0.048409723 0.25660723
0.123734124 0.29289928 -0.14960907 -0.031215493 -0.03430589 -0.28074348 0.15939113 0.05898473
0.19813682 0.53787756 -0.15084481 0.09627399 -0.029163267 -0.2560572 0.17631243 0.53278023
0.16003028 1.690728 -0.16274652 0.21430299 -0.0076776734 0.036678966 0.025333622 0.37141073
0.1951035 1.148899 -0.050240964 -0.2898719 0.045133825 -0.6193115 -0.00816652 -0.20609577
0.22403009 -0.15572628 0.3479059 0.08509558 -0.5764316 0.18823405 -0.40473825 0.09515151
-0.15053517 0.08868583 0.023254298 0.013680178 -0.93575853 0.1744127 -0.2148311 -0.0004518595
-0.26940823 -0.12704301 -0.24536657 -0.10153136 -1.1301411 0.18886933 -0.10033205 0.012308206
-0.17665772 -0.19938587 -0.5771956 -0.27846766 -0.5924262 0.20379344 -0.3308056 0.08042198
-0.14808801 0.08092519 -0.1214758 0.08818438 -0.08154003 0.038882434 -0.2363326 -0.50743306

sequential/dense_1/MatMul f4 [10, 20]
00000000: 92d0 03bd 6d04 333e c715 9e3f cf3a aa3c
00000010: de8d 173f 085f f63b 6cdd 5d3e b620 1a3f
00000020: f683 45bd 0fc3 723f bb2b 343f 4d78 18bf
00000030: 4cd1 d83d dad2 693d 7080 b2bd f2d4 083f
00000040: e8ce dc3f 8e1b 133f f277 b9be 5c35 b1bd
00000050: b272 b03e 55b2 27be f7df 943f b85f 893f
00000060: 5baf 9dbf d1ca 223d 53f4 b23d 4852 86bf
00000070: 4469 923e 3186 a8be 6e9b 013f c789 f1bd
00000080: 4cfc a1be 199e 5abd 6700 c23e 385c c93d
00000090: 7d14 6e3f b216 473f 8fee 88bf b579 0abd
000000a0: 8e11 073c 48ca 4c3f bf43 4e3d 4b6f 36bd
000000b0: 0508 bc3e cf1c 8d3f ed17 8a3f 0435 c1bc
000000c0: 95a7 4d3f e296 b83e fbd9 423e 1427 603f
000000d0: 0249 293d 8ea3 743f f99a 023d 2bbf 833f
000000e0: 6044 583e 584b 14be eaac 8f3e 13c9 5d3f
000000f0: 22a2 5abe 2cfc 0d3f 45ec 183f 2c68 babe
00000100: 8cf8 853e 9834 783d 2f76 c4bd 72cd 28bc
00000110: b028 c1bd df43 403f b57a afbf cdbf 213e
00000120: ca1e 543e 448d 47bf c76b 51be 4f69 0d3e
00000130: 3498 803f 8e27 0fbe 269a b93d b2e3 0abc
00000140: 9ce4 ad3e 306c 083d 9f00 683c 10d4 fc3d
00000150: f775 053f d414 83bd 89f2 203d 2cdd f33d
00000160: 1c2c d53e 2828 bfbd 9bba 7f3c 37a4 db3e
00000170: 6dce 1abf 9381 153f ea0e 193f 8bb7 17bd
00000180: a957 ccbe 5437 7b3f c555 13bd 4125 093f
00000190: ad28 b43e 2661 7cbd 4cc9 103f a44e 373f
000001a0: 7e04 fe3e 1e7c b73e 5423 0a3f 50f4 ae3f
000001b0: 7be5 023e 59d4 113d 7a44 0b3c 0fa2 283f
000001c0: 2f43 d33f d5ba 6e3e a499 c33e e13e 363f
000001d0: 06dc 763f 77fd 1bbe 6288 a93f 73a2 653f
000001e0: b79b b13f 1b14 9a3f 8b5b b0bb b4df 253f
000001f0: 332d c53e 7e1b 333e f3e7 8dbe 157d 703f
00000200: ac5d 4b3e 5dfe 4b3f 8938 cb3e b771 643f
00000210: 18f1 073f 91ff 983e 1ad6 b63f fece 53be
00000220: 8eb2 d8be 7eba aabe 13f3 d53c 61bf 0b3e
00000230: 34d8 103e 6de5 133e f655 58be b5d2 3a3d
00000240: 872a 6a3f fc1d fd3e 06e0 e2bd af0e 793e
00000250: a2aa 793f 984e d43c 5c3b e63d 0a77 c73e
00000260: 3800 05be 4a60 ad3f 22fa 463d abfe 0ebe
00000270: dce8 1e3e f1a5 8e3d 86c9 b83e e1eb e7bd
00000280: 7ec5 633e ed95 733e d554 08bd bf33 21be
00000290: 8f2b c4be d624 59be 3fd4 cdbe 90a5 643e
000002a0: 7048 5fbf d747 ba3f d89a 243f daee d33c
000002b0: c007 a1bd 2a8e ebbe bc4f 953e 556b 0abf
000002c0: 8213 9d3f d1e2 043e 40db f7bd d0cf debc
000002d0: 027a 113d 57e0 693e 3a8a d03b 30bb efbd
000002e0: 7336 7abe 2c9f e13e c093 3abd 8c70 af3e
000002f0: 47eb 97bd 5d49 d23e 3885 86bd 22cf aa3d
00000300: 3cce a53e b958 04be 6ee4 9fbe 156c e5bd
00000310: 9d7f 0aba 5ce8 0240 1a2b 86be f8cb 75bc
-0.03218133 0.17482157 1.2350396 0.020779995 0.5920085 0.007518653 0.21666497 0.6020616
-0.04822155 0.94828886 0.7037923 -0.59558564 0.10586795 0.05708585 -0.08715904 0.5344993
1.7250643 0.5746392 -0.36224324 -0.086527556 0.34462506 -0.16376622 1.1630849 1.0732336
-1.2319139 0.039744202 0.087380074 -1.049386 0.28595936 -0.3291488 0.5062779 -0.11793857
-0.316378 -0.05337343 0.37890932 0.098320425 0.9300001 0.77769005 -1.0697802 -0.033807475
0.008243931 0.79996157 0.050357576 -0.04453973 0.36724868 1.1024417 1.0788552 -0.02358485
0.80333835 0.36052614 0.19028465 0.8755963 0.04132939 0.95562065 0.031886075 1.0292715
0.21119833 -0.14481866 0.2806161 0.8663494 -0.21350911 0.5546291 0.5973552 -0.36407602
0.2616619 0.060597032 -0.09592854 -0.010302888 -0.09431589 0.75103563 -1.3709322 0.15795822
0.2071487 -0.7794993 -0.2045127 0.13809703 1.0046449 -0.13979933 0.090626046 -0.008477138
0.33963478 0.0333063 0.014160304 0.12345135 0.52133125 -0.06400457 0.0392938 0.119074196
0.41635215 -0.09333831 0.015608455 0.42898723 -0.6047123 0.5840084 0.5978838 -0.037040275
-0.3991063 0.981313 -0.035970468 0.5357247 0.35187283 -0.061616085 0.56557155 0.7160437
0.49612802 0.3583688 0.53960156 1.3668308 0.12782852 0.0356029 0.008500213 0.6587228
1.6504878 0.23313458 0.38203156 0.71189696 0.9642948 -0.15233408 1.3244746 0.89701
1.3875645 1.2037386 -0.0053820065 0.6479447 0.38511047 0.17490956 -0.27716026 0.9394086
0.19859952 0.79685 0.3969157 0.89236015 0.53102255 0.29882482 1.4284089 -0.2068443
-0.42323726 -0.33345407 0.026116883 0.13647224 0.14144975 0.14442988 -0.21126541 0.045611102
0.9147114 0.4943694 -0.11077885 0.24322008 0.9752599 0.025916383 0.11241791 0.38958007
-0.12988365 1.354501 0.04857839 -0.13964336 0.15518516 0.069652446 0.3609125 -0.11324287
0.22243306 0.23787661 -0.033284027 -0.15742396 -0.38314483 -0.21205458 -0.40200993 0.22328782
-0.87219906 1.4553174 0.6429877 0.02587073 -0.07862806 -0.460069 0.29162395 -0.54070026
1.2271578 0.12977149 -0.121023655 -0.027198702 0.035516746 0.22839485 0.006364134 -0.11705625
-0.24434833 0.4406675 -0.04555106 0.34265554 -0.074179225 0.41071597 -0.06568378 0.08340289
0.32383907 -0.1292447 -0.31228966 -0.11202256 -0.0005283298 2.045432 -0.2620476 -0.015002243

sequential/dense_2/MatMul f4 [15, 10]
00000000: 6590 383f 52c9 bbbe 87fc e6bc 1dcd f23d
00000010: 2b14 5f3c 8e46 1e3f 62a8 3ebf ef35 cd3e
00000020: 6f14 6bbd 8317 613e 39f4 4bbe 3c73 b5bd
00000030: 7978 7b3e f9ed 5ebe e8d3 693d 94c8 b73e
00000040: 9ea4 243f 092d 55be 36df 2bbf a548 d4be
00000050: 77bb 7cbf 2264 98bf 9d3c 40bf adad a3bf
00000060: 59ed bcbf 3bbe 12bf 04c9 ddbe 9592 03bf
00000070: 6840 f7be 1303 8ebf a2ec 063f 8fbd 45be
00000080: 3e30 d53e 010a 4f3f 2f26 90bf 202e 903e
00000090: 0838 d7bd d254 c0bd b87e c83d 8152 81bf
000000a0: b6f0 093e 891d 51bf ebf3 f2be bc82 dbbe
000000b0: ac33 a03d 6c68 89be 824d 1b3f 0614 bbbf
000000c0: 40dc 90bd e9f4 733f 95dc 17be b597 613f
000000d0: 7e94 223e 61cf 1abf d278 fdbc 72e0 86bf
000000e0: 5f9f a9be c5fe 14bf 0952 69bf 4468 203d
000000f0: be84 d4be 7c80 30bf 5099 fcbd 771e 25bb
00000100: 387a 0bbf e326 613e 23c3 293f 372c 2f3f
00000110: 504c bd3e 03ae 46be 8cf7 8cbf 7400 fbbf
00000120: a64f 473f d9c1 2f3f 66a4 033f f899 83be
00000130: 4594 26be 5dd7 b13d 9600 edbf 55cb 1bbf
00000140: ca1f 8fbf c75f c2bf 643b 6aba 8f4b 873e
00000150: 6241 9cbe 69e4 ff3e 9c19 03bf cb78 663d
00000160: da47 b7bf f937 7e3f 16bf a8be ede2 513f
00000170: fd4a 593e 557e bfbf 4d16 c03e 292b 28bf
00000180: be8a 86bf 00e1 5dbf c827 b1bf ad3e 24bd
00000190: a8fd c63e 38e1 9b3e 3535 653d 4fe8 ef3e
000001a0: ccfc 4abf 58a8 aabe 41a1 60bf 0399 f1be
000001b0: da9c 913e 3ff4 d83e 272d ce3e ce34 903e
000001c0: 1bc5 b6bf b625 e43e 0ac1 3ebf fd31 8bbe
000001d0: 2e30 38bf 8a06 39bf 676f 1e3f 31db b83e
000001e0: a9cf c7be a6a7 2abf 2633 f93c 53d8 4d3d
000001f0: 47ef 1a3e 63e2 adbf f851 693f e656 8abf
00000200: 2bb2 e93e 5b77 44bf 74fe e5bf 4c8c 573e
00000210: bb32 e3bf 4a1e a2bf 71d9 6a3f e664 aa3d
00000220: 8e13 053f 02e1 a6bf a18a 00bf eb6b ee3e
00000230: aebd ac3c f684 efbe 9c05 ca3e 11db 3ebf
00000240: 4871 2abe 2c75 36c0 d338 39bd fefc 283f
00000250: cd5d 58bf 1105 323f
0.7209533 -0.36677033 -0.028196586 0.118555285 0.013615648 0.6182641 -0.7447568 0.4008021
-0.057392534 0.21981625 -0.19917382 -0.0885987 0.24557675 -0.21770467 0.057086855 0.35895216
0.64313686 -0.20817961 -0.6713747 -0.41461673 -0.9872355 -1.1905558 -0.7509249 -1.2787377
-1.4759933 -0.5732152 -0.43317425 -0.5139554 -0.48291326 -1.1094688 0.52704823 -0.19310592
0.41638368 0.8087464 -1.1261653 0.2816019 -0.10508734 -0.09391178 0.09789795 -1.0103303
0.1347073 -0.8168569 -0.4745172 -0.4287318 0.07822356 -0.2683748 0.6066514 -1.4615486
-0.07073259 0.9529558 -0.14830239 0.8812211 0.15876958 -0.60472685 -0.0309414 -1.0537245
-0.33129403 -0.5820125 -0.911408 0.039161935 -0.41507524 -0.6894605 -0.123339295 -0.002519516
-0.54483366 0.2198749 0.6631338 0.6842684 0.36972284 -0.19402318 -1.1013045 -1.9609513
0.7785591 0.68655163 0.5142273 -0.25703406 -0.16267498 0.086836554 -1.8515804 -0.60857135
-1.1181576 -1.5185479 -0.00089352415 0.26424834 -0.30518633 0.4997895 -0.5121095 0.05626754
-1.4318802 0.9930416 -0.32958287 0.81986886 0.21220012 -1.4960428 0.37517014 -0.6569086
-1.0511091 -0.8667145 -1.3840265 -0.040098835 0.388654 0.30445266 0.055958945 0.46856925
-0.7929199 -0.3333156 -0.87746054 -0.4718705 0.2843998 0.42373845 0.40268824 0.28165287
-1.4278902 0.4456002 -0.74513304 -0.27186576 -0.71948516 -0.722756 0.61888736 0.3610473
-0.3902562 -0.6666206 0.030419897 0.05025513 0.1513034 -1.3584713 0.911407 -1.0807769
0.45643744 -0.7674462 -1.7968278 0.21049613 -1.7749857 -1.2665493 0.9173804 0.08320026
0.51982963 -1.3037417 -0.5021153 0.4656671 0.02108654 -0.4678113 0.39457405 -0.7455302
-0.16644776 -2.8509016 -0.045220207 0.66011035 -0.8451813 0.6953898
