model/keypoint_classifier/keypoint_classifier.tflite (tflite, 7028 bytes, 6 tensors)

sequential/dense/BiasAdd/ReadVariableOp f4 [20]
000000 a0 fa 75 bf ca 3a 4d 3f 63 81 e3 3d f8 04 01 bf
       -0.9608555 0.8016783 0.11108663 -0.50398207
000010 3b 63 1b bf fb d8 06 bf 5c 02 40 bf fc fa c4 3e
       -0.6069829 -0.52674836 -0.750036 0.38472736
000020 8d 44 31 bf 35 1b 46 bf 08 55 2b bf 5c 1e 4e bf
       -0.69245225 -0.77385265 -0.6692662 -0.80515075
000030 0c 27 42 bf 0a 32 0f bd aa 1f 2e bf 20 49 56 bf
       -0.7584083 -0.03495983 -0.68017066 -0.8370533
000040 d7 7f e5 be 30 77 01 bf e5 45 0e be 85 ab 2c bf
       -0.44824097 -0.5057249 -0.1389385 -0.6744922

sequential/dense_2/BiasAdd/ReadVariableOp f4 [15]
000000 3e c7 f2 3d 6c 82 ac be 38 4d da be 07 e4 3f bf
       0.11854409 -0.33693254 -0.42637038 -0.7495732
000010 de 4d 88 3f 08 58 13 3e 78 d1 d8 bf 0a 76 08 3e
       1.0648763 0.1438905 -1.6938925 0.13326278
000020 c8 72 33 3e d5 8c db 3e 23 43 23 3e f6 19 76 be
       0.17524254 0.42880884 0.1594358 -0.24033341
000030 a8 89 f5 3d a0 5a 20 3f 41 4b 50 3f
       0.119891465 0.6263828 0.8136483

sequential/dense_1/BiasAdd/ReadVariableOp f4 [10]
000000 b8 fc 0b 3f a3 06 74 3f 2f ce f3 3d 63 0c 87 3e
       0.54682493 0.95322627 0.11904561 0.26376638
000010 44 8b 7f bd 13 e4 cd 3e 45 e8 5b be 26 0d 90 3e
       -0.062388673 0.4021307 -0.21475323 0.2813503
000020 d4 7a 99 3f a7 50 5e 3f
       1.1990609 0.86841816

sequential/dense/MatMul f4 [20, 42]
000000 ca 0d 9c 3e 00 f4 b3 ba b8 60 33 bf 7e 56 8d bf
       0.3047927 -0.0013729334 -0.70069456 -1.104202
000010 fb 05 40 be 36 40 c5 be 52 51 00 bf 6a 4e be bd
       -0.18752281 -0.38525552 -0.50124085 -0.092923
000020 67 54 8e bf f0 8a 5a be 32 0f 67 3e 8b eb 80 bc
       -1.1119508 -0.21342063 0.2256439 -0.015737316
000030 5b 63 12 be 5d f5 be 3d 38 62 01 be b3 f4 7d 3e
       -0.14295714 0.09324143 -0.12635124 0.24800377
000040 63 cd ab bc 16 08 a1 3e 6d f9 1f 3e 49 f1 6e bc
       -0.02097196 0.31451482 0.15622492 -0.014583894
000050 f7 fd a8 3d a2 ca 05 bd 52 86 18 3d 24 d9 89 bc
       0.08251565 -0.03266395 0.037237473 -0.016827174
000060 84 61 f4 bd 7d ba b9 ba d8 c6 87 be 6c 62 7f bc
       -0.11932662 -0.0014169958 -0.26518893 -0.01558743
000070 cc 4b 52 3e 35 8d ca bd b8 de b5 bd e5 c3 7f bd
       0.20536727 -0.09890214 -0.08880371 -0.06244268
000080 83 a8 d8 be 34 3a b8 3c 53 bd dc be e2 0c 34 3c
       -0.42316064 0.02248869 -0.43113193 0.0109894
000090 1e 95 a5 3e 78 ce 02 be 88 4c 24 3f a6 f1 09 be
       0.3234033 -0.12774074 0.6417928 -0.13471088
0000a0 e6 01 fc 3e 64 88 cf bc 20 a5 41 bd 9e 35 dd bd
       0.49220198 -0.02533359 -0.047276616 -0.10801242
0000b0 53 f8 94 be 88 46 28 bd 89 ab 48 be f2 0b a0 bc
       -0.29095706 -0.04108289 -0.19596685 -0.019536946
0000c0 a5 17 26 be 14 ff 4a 3d 28 85 ab be db 27 b5 3c
       -0.16219957 0.049559668 -0.33500028 0.022113731
0000d0 2e fe d6 bd 9a 3d 83 bd c3 38 3b bd c2 bd 3e be
       -0.104977 -0.06408234 -0.04570843 -0.18627074
0000e0 c4 30 f3 bc cd d4 b7 bc 80 af 3b 3d 48 b0 ae 3d
       -0.02968634 -0.022440339 0.045821667 0.08529717
0000f0 0d 97 fe bd 64 b5 53 3d 1e 59 02 3c fc 5b c8 bd
       -0.124311544 0.05168666 0.0079558175 -0.097831696
000100 0e 81 02 3c dc 81 8d 3e 94 9d 67 3d 40 53 e6 3e
       0.007965339 0.27638137 0.056546763 0.4498539
000110 e8 ec fe bc 5b f9 0f bd 6b c2 88 bb f9 f8 55 3e
       -0.031118825 -0.035149913 -0.004173567 0.20895757
000120 0b a8 f2 3d 15 65 57 3f c1 21 39 3e eb 5f bb 3f
       0.11848458 0.84138614 0.18079282 1.4638647
000130 9d 5e 03 3d 20 85 99 3d 3e dc 67 bd 30 04 bc 3e
       0.032072652 0.07496095 -0.056606524 0.36721945
000140 f5 bd 68 3d 7f 60 4a 3f e4 77 17 3e ca 43 b4 3f
       0.056821782 0.7905349 0.14791828 1.4083188
000150 a8 25 f0 3d 54 43 8a 3e 93 fe 4a be 00 bd f8 3f
       0.11725932 0.27004492 -0.19823675 1.9432678
000160 06 75 c1 bd 63 4b 99 3f 50 0b ff bd 9a 9c 65 3f
       -0.094461486 1.1976131 -0.124533296 0.8969208
000170 5c aa f4 be 04 3e 47 3f e1 68 5c 3e 5d 3e 8a 3e
       -0.47786224 0.77829003 0.21524383 0.27000704
000180 9f 59 b4 3d 8c 55 53 3e 58 88 6a 3d 20 00 60 3e
       0.08806156 0.20638102 0.057258934 0.21875048
000190 a4 4b c6 3d 7a 54 55 3e c1 72 3e 3e a1 22 fe 3d
       0.09682396 0.20833007 0.18598463 0.12408949
0001a0 bc 9a d8 3d 21 b0 18 be c3 02 fe 3c 78 df 77 be
       0.10576388 -0.14910938 0.031007176 -0.2420634
0001b0 bd 62 18 3d da fe 75 be b6 25 d1 3d 5e b3 a3 bb
       0.03720354 -0.24023 0.10212271 -0.0049957475
0001c0 c2 b2 cf 3d 7a b9 2a be 1e e3 08 3a 3d 9f 48 be
       0.10141517 -0.16672316 0.00052218314 -0.19591995
0001d0 65 82 ab 3d 15 f9 cc 3b 7e 73 5c be 37 20 83 be
       0.0837448 0.006255279 -0.21528432 -0.25610515
0001e0 6d e7 8e bd db 08 04 be 52 26 e3 bd ee a1 72 bd
       -0.06977735 -0.12894003 -0.110912934 -0.05923646
0001f0 7b 47 31 be 1c 0f 3f bd d0 fb 01 3d d3 4c 7d be
       -0.17312424 -0.04664527 0.031734288 -0.24736337
000200 70 f3 f6 bd ec 8d 73 3e 11 1a 74 bd 3a 75 32 3e
       -0.12058151 0.23784608 -0.05959517 0.17427531
000210 4e 80 ac 3b 9e b8 fe 3d 5c 15 60 3d dd f8 c4 3d
       0.0052643185 0.12437557 0.05470787 0.096177794
000220 5a 40 1c bd 4c 4a 27 3d 91 5b bd 3c 52 c2 aa 3d
       -0.038147308 0.04084234 0.023114951 0.08337845
000230 29 01 fe 3b 32 f6 ce 3d 79 b6 8f bc 70 98 d2 3d
       0.007751603 0.10105552 -0.017543064 0.102829814
000240 fa f5 83 bc ca e3 94 3c bc ed ea 3c 30 c8 1e 3d
       -0.016108502 0.018175025 0.028677814 0.038765132
000250 14 5c ff 3d 91 a5 e1 bf d7 50 51 3e 2b 4a fd 3d
       0.124687344 -1.7628652 0.20440994 0.12367662
000260 71 f9 85 3d ae 75 d9 ba dd de 74 3d 5b b1 1a 3d
       0.06541718 -0.0016590857 0.05978285 0.037766796
000270 26 48 32 bd 96 ee 67 3d b7 83 9e 3e 69 9b 17 3e
       -0.043525837 0.056624018 0.30959865 0.14805378
000280 a1 b5 a1 3c 31 55 a8 bc 31 97 9b bc c6 59 49 3d
       0.019739928 -0.020548435 -0.018992992 0.04915788
000290 71 93 33 bd 25 0b d5 3d ac c8 ae bc be ff 8b 3d
       -0.043841783 0.10402516 -0.021335922 0.06835888
0002a0 50 92 96 3c 3a 28 3b 3e 62 7e 08 3c 9f c6 9e 3e
       0.018380314 0.18277064 0.008330913 0.3101091
0002b0 48 40 d0 3d 7f bf 75 bd bd 17 d7 bd f6 13 cb bd
       0.10168511 -0.059997078 -0.105025746 -0.099159166
0002c0 9b d0 41 bd 55 5d 14 be f9 df 6a bd ac 7c 0b bf
       -0.047318082 -0.14488728 -0.057342503 -0.5448711
0002d0 b9 f5 89 bd 4e 3f 11 bd ce 46 f2 3c e6 19 5c 3e
       -0.06736321 -0.035460763 0.029574778 0.21494254
0002e0 fb 95 57 3d f8 99 9d 3e ab 0e c6 bd 49 ab 41 bf
       0.052633267 0.3078153 -0.096707664 -0.75651985
0002f0 18 c8 55 3d 57 2e 0f bb 25 08 70 3d 09 9d 40 3e
       0.052192777 -0.002184769 0.058601517 0.18809904
000300 28 ef 29 bd 55 8e 0e 3e 4f 59 29 bd ee 0c 48 bf
       -0.041487843 0.13921483 -0.041344937 -0.7814473
000310 9a 9b ab 3d c4 62 fd bc 5b b9 d5 3d d5 c0 3a 3e
       0.08379288 -0.030930884 0.104357444 0.18237622
000320 28 1e 02 bd 34 bc a1 bc d2 1a 1f 3c 80 cd 98 bf
       -0.03176704 -0.019743063 0.009710984 -1.1937714
000330 ca 27 b6 3d 12 57 99 bc bc 7d 35 3b a7 eb 63 3e
       0.08894308 -0.018718276 0.0027693352 0.22257863
000340 54 e2 cd bd d1 c9 12 3e 10 6c 60 bd c0 2f f6 bc
       -0.10052934 0.143348 -0.054790556 -0.030052066
000350 9e 0e d6 bd 74 e6 76 3c 1d 7c aa bd 0b d8 1d 3d
       -0.10452007 0.015069593 -0.08324454 0.038536113
000360 50 8a a5 bd 9d 00 8d 3d ca f9 85 bd 6c 96 57 3d
       -0.08083022 0.068848826 -0.06541784 0.052633688
000370 e6 87 52 3d 45 51 2d 3d 26 17 0d bd cc 30 65 3d
       0.051399134 0.042313833 -0.034445904 0.05595474
000380 31 5b 36 bd 85 84 b7 3d 91 00 70 bb ad 9e c9 3d
       -0.04452056 0.08960823 -0.0036621431 0.09844718
000390 9c 5d 04 3e 12 5a 98 3d 35 9e ce bc 36 c3 97 3d
       0.12926334 0.074390545 -0.025221923 0.074102804
0003a0 76 db 4e bc 15 2b 05 3e 38 81 48 3e 53 8c 20 3e
       -0.012625566 0.13004716 0.19580543 0.1567853
0003b0 1d 97 93 3d 0f b9 e5 3d e9 69 cb bc ef a6 d6 3d
       0.07206557 0.11216938 -0.024830775 0.10481059
0003c0 77 4d 25 3d cc 79 10 3e b6 d5 e4 3e fb 28 12 c0
       0.04035708 0.14108962 0.44694299 -2.2837512
0003d0 19 5b 53 bd 5d 08 3c 3e bf 68 0f be 9f cc 29 3e
       -0.05160055 0.18362565 -0.14004801 0.16581963
0003e0 1a 51 4f be 59 87 2a 3e 6f 6a cf bd ed b7 25 3e
       -0.20245782 0.16653194 -0.101277225 0.16183443
0003f0 42 df 97 3e 9c f8 9c be 03 b5 57 3e 3e a2 47 bf
       0.2966252 -0.30658424 0.21065144 -0.77981937

sequential/dense_1/MatMul f4 [10, 20]
000000 89 51 51 be bb b6 19 be 98 65 79 be 06 ec 99 bd
       -0.2044126 -0.15011112 -0.24355161 -0.07515721
000010 04 d7 5e bf f2 40 e3 be 91 b2 b2 3d 20 1e c2 bd
       -0.8704684 -0.44385487 0.08725465 -0.09478402
000020 0d 6b a0 bc b0 83 c2 3e 89 e9 4e 3f 31 94 0b bf
       -0.019582296 0.37991095 0.80825096 -0.54523
000030 b2 ff 21 be 0e b3 69 3e b7 1f 99 be 83 7b a7 3e
       -0.15820196 0.2282221 -0.2990701 0.3271142
000040 a5 47 71 be 55 61 99 3f 59 71 58 3d 23 64 de bc
       -0.23562486 1.1982828 0.05284247 -0.027147358
000050 cd ab 8b 3e 49 98 39 be a1 c2 01 3f 43 3f 6e bc
       0.2727951 -0.18124498 0.50687605 -0.01454145
000060 dd ac 8c 3f d4 a0 3b bf 8b 28 02 3f 4e 60 1b be
       1.0990254 -0.7329228 0.50843114 -0.15173456
000070 39 50 47 3d 90 24 34 3f 57 8a 4a 3f 39 50 8e 3e
       0.04866049 0.7036829 0.7911734 0.2779558
000080 ff 7c f9 be 8e e5 5a 3a d1 c6 b3 bf 6d 56 c4 3e
       -0.48728177 0.00083502464 -1.4045049 0.38347188
000090 a9 23 83 ba 24 b1 8f 3e ad f6 1e 3e a7 07 88 be
       -0.0010005134 0.28064835 0.15523787 -0.26568338
0000a0 a9 e4 10 3f ed fd 3d be f0 ea 28 3e cb 71 91 3f
       0.5659891 -0.18553896 0.16495872 1.1362852
0000b0 ce d8 8d 3e 71 8c 0f 3f 8e b7 de 3e 57 b4 47 3f
       0.2770447 0.5607367 0.43499416 0.7800955
0000c0 82 cc 2d 3f 13 5e 7e 3e 9c ba 8a 3f 8b 94 16 bd
       0.6789018 0.24840574 1.0838199 -0.036762755
0000d0 0d 15 2f 3e 80 91 9c be 3f 6b 06 3f 88 74 3c 3c
       0.17097874 -0.30579758 0.52507395 0.011502393
0000e0 3c b9 5c bd 6d d5 ed 3e 42 2d 40 bf e6 93 4e 3f
       -0.05388759 0.46451893 -0.7506906 0.80694425
0000f0 e0 22 b1 3f 4b 44 39 3f 70 c1 47 3f 8e f1 c7 bd
       1.3838768 0.7236983 0.7802954 -0.0976287
000100 b6 b1 53 3e 49 c6 92 3e 02 b7 88 3f ae f9 1b 3f
       0.2067326 0.28666905 1.068085 0.60927856
000110 cf 45 c8 3d 99 cd 27 3d ab 75 7e 3f 36 5e 00 be
       0.0977894 0.040967558 0.993983 -0.12535939
000120 c1 39 f5 3e 42 2f c8 3f 29 aa 6f 3f 2f 97 4c 3f
       0.47895625 1.5639422 0.9361902 0.7991819
000130 c0 86 34 be 41 f9 1e 3f 22 2a 9c 3f c8 0f cc 3e
       -0.17629528 0.6209908 1.2200358 0.3985579
000140 81 0d 1c 3f 0d f5 31 3f fe da e4 3e b2 e8 07 3f
       0.60958105 0.6951454 0.44698328 0.5308944
000150 2e 40 9e 3d eb 82 a6 bc 5a 9e ad 3f 13 ba 40 3f
       0.07727085 -0.020326098 1.356395 0.75283927
000160 01 43 81 3e 49 ba 94 3f 35 31 30 3d db 6c 9e 3f
       0.25246432 1.161935 0.043015677 1.237697
000170 ce fa df bd 38 23 cb 3e 52 0a 58 bd 11 26 21 3e
       -0.10936509 0.39675307 -0.052744217 0.15737177
000180 88 13 8f 3e 45 fd 1d 3f dd 6e 14 3f e9 eb 44 3f
       0.2794459 0.61714584 0.57981664 0.7692247
000190 0f 48 96 be 0e 2f 9c be 08 f2 4c 3d 2a 2c e1 3f
       -0.2935185 -0.3050465 0.050035506 1.7591603
0001a0 33 8f 40 3e 5b 08 ae 3f 2f e0 28 bf e5 75 09 bd
       0.18804626 1.35963 -0.65967077 -0.0335597
0001b0 f9 9a aa 3f 7a e0 ee 3c d9 bb 1e 3e e6 04 25 3f
       1.3328544 0.029159773 0.15501346 0.644606
0001c0 fd a7 5e 3f 41 55 c7 3e 34 07 9c bd 47 c0 1e 3f
       0.8697508 0.3893223 -0.076185614 0.6201214
0001d0 a1 ed 03 40 df 33 0e 3f e7 63 65 be e7 47 06 3e
       2.0613787 0.555479 -0.22401391 0.13113366
0001e0 a6 16 e9 3e a5 d5 6c 3f c0 16 84 3f dc 94 76 3e
       0.45525092 0.92513496 1.0319443 0.24080223
0001f0 73 d9 5a 3f 2a 72 6a 3f 69 82 fd 3d 6f d2 10 3f
       0.8548805 0.9158045 0.123783894 0.56571096
000200 cf 51 4b 3e a4 b0 43 be 64 01 98 be b1 6d 5f be
       0.19855426 -0.19110352 -0.2968856 -0.21819188
000210 38 94 1c 3f e5 7d 3c be fd d0 88 3e 23 a9 a1 bd
       0.61163664 -0.184074 0.26721945 -0.078935884
000220 b8 5f 2d 3d b1 a9 fe bb 83 a3 67 3e 4d 3a 4e bd
       0.042327613 -0.0077716936 0.22620969 -0.05034857
000230 ba f4 69 be b1 fc 0c bf ef bc 3d 3f 53 80 34 3f
       -0.22847262 -0.55073076 0.74116415 0.7050831
000240 8f 0c a8 bd 93 3d 8e 3f 3a 5c 86 3e b5 cf 69 be
       -0.0820552 1.1112541 0.26242238 -0.2283314
000250 17 aa 00 3f 64 cf b3 bc 12 4a 65 be 58 d3 26 3d
       0.50259537 -0.021949477 -0.22391537 0.040728897
000260 83 87 82 3f 73 9d af 3e af 48 5e 3e 0d ad e2 3e
       1.0197605 0.34299812 0.21707414 0.44272652
000270 c1 12 7d 3f 0c 25 36 be 57 b1 db 3e a0 40 7f bd
       0.9885674 -0.1778757 0.42908737 -0.06231749
000280 27 24 c9 3e ca 87 de be 09 74 74 3e e1 62 4a be
       0.39285395 -0.43462974 0.23872389 -0.19764282
000290 02 43 1d 3f 7a f7 9a 3e 5f 2e 95 3e 01 ea 0e bf
       0.6143037 0.30266935 0.2913694 -0.5582581
0002a0 02 28 91 3c fe e0 fe 3e c6 b9 49 3e 37 d4 95 3f
       0.017719273 0.4978103 0.19699773 1.1705388
0002b0 7d 11 08 3f 3f ed 1f 3e 5d 3f b3 3f 06 96 52 be
       0.53151685 0.15617846 1.4003712 -0.20565042
0002c0 40 73 0d bf bf 1d fb bd c9 d1 34 be d4 3f 0c be
       -0.5525398 -0.12261533 -0.17658152 -0.13696223
0002d0 d4 9c bf 3e 49 4e c1 bf 06 b7 a8 bd 6f 74 f1 3e
       0.37424338 -1.5102016 -0.08238034 0.47159144
0002e0 66 35 32 3f 49 19 02 3f 35 c4 a5 3e 1a 6a 6f bd
       0.6961273 0.5081983 0.32376257 -0.058450796
0002f0 c1 b0 17 3f 0c cc bb bc 8b 0b 3c 3e 49 aa 83 3e
       0.5925408 -0.022924446 0.18363778 0.25715855
000300 f7 bf 4a 3f 2a 7c 92 be 6b fd 8a 3f 8a 6a f9 bb
       0.79199165 -0.28610355 1.0858587 -0.0076115774
000310 f1 36 8c 3f dd eb 4c 3e 3d 1b d5 3d 3a 6a 80 3a
       1.0954267 0.2001185 0.10405586 0.0009797283

sequential/dense_2/MatMul f4 [15, 10]
000000 77 78 4d 3c fc 37 82 bf 3b 41 76 bd 58 77 0b 3e
       0.012540928 -1.0173335 -0.060120802 0.13619745
000010 6b 47 df 3e 16 f8 cf 3e a1 63 b2 3e 97 0f f4 3e
       0.43609175 0.40618962 0.34841636 0.47668144
000020 52 40 d5 be ab 7d 25 3e a2 af bd bd 5e 3c f3 3e
       -0.41650635 0.1616122 -0.09262015 0.47506994
000030 c3 82 14 3f 66 ba 81 3d 28 65 93 3e 7d 9b ab 3d
       0.58012027 0.06334381 0.28788114 0.083792664
000040 ea 4e 34 3e 4d 50 f6 be 0d 70 65 bb 82 2f b1 be
       0.17608228 -0.4810814 -0.0035009414 -0.34606558
000050 20 67 51 bf 6a 62 19 c0 64 ff 3c bf 39 00 9b bf
       -0.8179798 -2.3966317 -0.73827195 -1.2109443
000060 b2 42 16 bf f7 b1 52 3c 63 69 28 bf af 89 21 bf
       -0.5869552 0.012859813 -0.6578581 -0.63100713
000070 ba 9a 93 bf c9 d1 8c bf 51 ae 53 bf c7 8b 2a bf
       -1.1531594 -1.1001521 -0.8268786 -0.66619533
000080 07 06 05 3f 6b 54 11 3f 6b b7 0f bf 82 4e c5 3e
       0.5196232 0.56769437 -0.5613925 0.3853646
000090 bc 9e c4 3e 6d 55 52 3d b6 ed 27 bf e0 41 07 3f
       0.38402355 0.051351 -0.65597093 0.5283489
0000a0 2f 12 81 bf c6 16 ec bd a2 58 2a bf 81 f0 0d 3e
       -1.0083674 -0.11527781 -0.6654149 0.13861276
0000b0 6e 92 ba 3c c0 27 9a bf 41 ee 8c bf 9a fa 3f bc
       0.022774901 -1.2043381 -1.1010209 -0.011717463
0000c0 b8 bf 2e 3f 8f 8b c4 3e ae 88 37 be 51 c6 4c 3f
       0.6826129 0.38387725 -0.17923233 0.79990107
0000d0 28 06 ea 3e c6 f3 b2 bf 82 eb 9b bd 41 66 3d 3f
       0.45707822 -1.3980644 -0.07613279 0.7398415
0000e0 ee bd b1 bf 37 8e 92 be 78 8d 14 bf 47 9f 8d 3e
       -1.3886087 -0.28624126 -0.58028364 0.2766058
0000f0 66 ab 01 3f be 6f 40 be 08 2a 03 be a1 ef 03 3f
       0.5065216 -0.18792626 -0.12809002 0.5153752
000100 78 bf 19 be 88 7e 3d bf ca 56 7d 3e d9 2b 78 be
       -0.15014446 -0.74021196 0.24740139 -0.24235477
000110 6a d5 44 3e dc 6c 8c 3e ba 32 31 3f 33 98 8d 3e
       0.19222036 0.27426803 0.6921803 0.2765518
000120 34 46 cf 3e 3c 2c 9f 3e 11 10 fe 3e 58 9c 64 bf
       0.40483248 0.31088436 0.49621633 -0.8930106
000130 4b 87 97 bf 72 cf 74 be 8f 51 94 bf 05 f2 fa bf
       -1.1838163 -0.23907259 -1.158739 -1.9605108
000140 fc 21 1d bf aa a1 b6 3e bb 1c 79 3e c3 6f 87 3d
       -0.6137998 0.35670215 0.24327366 0.06613114
000150 6f a1 cf 3c 4b 33 42 bf 65 a9 ae 3e b2 61 23 3f
       0.025345532 -0.75859517 0.34113613 0.63820946
000160 9e b9 a8 bf 84 ef 6f bf 65 7b 5f be c2 c5 d4 3e
       -1.3181646 -0.93724847 -0.21824415 0.41557127
000170 12 4c 55 3e c1 c4 b9 bf a6 65 03 3f 81 25 2e 3f
       0.208298 -1.451317 0.5132698 0.68025976
000180 29 b0 cb bf e7 c4 70 be f8 7c 82 bf 52 ca 75 3e
       -1.5913135 -0.23512612 -1.0194387 0.2400296
000190 b1 f5 17 bf af 2e 8b bf 64 06 de 3d d2 c5 d4 be
       -0.5935927 -1.0873622 0.10841063 -0.41557175
0001a0 55 3a 05 bf c2 23 4b 3f ca 19 ca be 7b 88 f8 3e
       -0.5204213 0.7935144 -0.394728 0.48541626
0001b0 d2 f3 94 3e cf 71 a6 3c 78 24 8f bf 63 d6 91 bf
       0.2909227 0.02031794 -1.1183004 -1.1393551
0001c0 ba a3 af 3e c0 9b be bf b3 4f 31 bf ae 24 e5 3e
       0.343046 -1.4891281 -0.69262236 0.44754547
0001d0 ba 19 29 be 6b c5 24 3f d2 cd b1 3e 8c d8 0b 3f
       -0.1651372 0.64363736 0.3472734 0.546273
0001e0 13 3e 4d be cf 87 04 3f 82 cc cd 3e 1f 27 ea bc
       -0.2004321 0.5176973 0.4019509 -0.028583108
0001f0 39 c7 b6 bf bc 5a 13 c0 ae bc 5b bf 9f 27 a7 bf
       -1.4279548 -2.302413 -0.8583478 -1.3058966
000200 b8 d3 2f 3f f2 98 33 3f 59 19 f1 3e c6 85 38 3f
       0.6868243 0.7015525 0.4708965 0.7207912
000210 b3 37 92 bf 12 4b be bf 51 46 ca 3e 61 1c 7f bf
       -1.1423248 -1.486666 0.39506772 -0.9965268
000220 70 36 83 3f 14 01 1b c0 be ff 6b 3f af 8a 36 bf
       1.0250988 -2.4219408 0.92187107 -0.71305364
000230 47 76 6e 3f 02 fb f7 bd 9c 56 3b be 70 ab 1b 3e
       0.93149227 -0.12108423 -0.18294758 0.15202117
000240 59 4c 56 bf 7e 87 13 be 5f 75 4b c0 62 35 9e bf
       -0.8371025 -0.14407155 -3.1790388 -1.2360041
000250 3e 5d 9b be 8d 68 04 3e
       -0.30344576 0.12930508
