model/keypoint_classifier/keypoint_classifier.tflite (tflite, 6940 bytes, 6 tensors)

sequential/dense/BiasAdd/ReadVariableOp f4 [20]
00000000: 009d 01bf edc4 11bf 22f4 9ebe f5dd 1fbf
00000010: 4830 74bd c618 38bf 7f5f e4be 5e85 f6be
00000020: 1666 26bf 3d14 1b3d eac1 51be 52ed 41bf
00000030: dd9a 193f 0ab3 7abf e4ad 46bf 6f76 1cbf
00000040: e867 5abf 8df5 2abe 5fdc 203f 5ae4 16bf
-0.5063019 -0.5694111 -0.31045634 -0.62448055 -0.059616357 -0.719128 -0.44604108 -0.48148626
-0.6499952 0.037861098 -0.20484129 -0.7575275 0.6000193 -0.9792944 -0.77609086 -0.61118215
-0.853148 -0.16695233 0.6283626 -0.58942187

sequential/dense_2/BiasAdd/ReadVariableOp f4 [13]
00000000: 9e4f 83bd b23e 2fbd 87e0 f0be 7a73 9c3d
00000010: b34e 683e 4efb 2e3f 4af3 bdbf 5246 023e
00000020: 526b 023f d416 8e3f b2d8 4ebd 5685 94bb
00000030: 6610 e9be
-0.0641167 -0.0427844 -0.470463 0.07639213 0.22686271 0.6835221 -1.4839871 0.12722138
0.5094501 1.1100717 -0.050499626 -0.0045324964 -0.45520324

sequential/dense_1/BiasAdd/ReadVariableOp f4 [10]
00000000: e751 813e 5eef d03c 31e6 5c3f 0618 ecbd
00000010: f73e 1fbe 2a47 d23e ded1 673f 5e0e a13e
00000020: a95d ac3e bdea 113f
0.252578 0.025504764 0.86288744 -0.115280196 -0.15551363 0.4106992 0.90554607 0.31456274
0.33665207 0.5699881

sequential/dense/MatMul f4 [20, 42]
00000000: d05b 15be 8a54 9ebd 0389 0cbe 6227 ad3c
00000010: 3b82 aabd 8990 943b 7206 a9bd 7244 893d
00000020: df68 eebd f6bf cd3d 3aea fa3c 8e7f 013c
00000030: 905b eab9 8a15 2c3d c8f8 183d bc45 8a3d
00000040: 3bf3 873d b7e7 383d f1ea b63c 37da 583d
00000050: f5f5 12bd 0dc2 953d ea7f 3bbc e4ab 813d
00000060: 49ed ac3e 60d3 9e3d 50aa c5bc ff65 f83d
00000070: 2bb6 0ebe 35cc d63d d2f2 b13d c671 ac3d
00000080: a6b9 423f 0af8 edbf 9413 16be f370 473e
00000090: c814 3dbe 7b3b 1e3e 87eb 3dbe 89f3 1c3e
000000a0: 00e1 1ebd cb83 c73d 42d2 37be 1586 29be
000000b0: 8143 c03d aca1 093f b566 6a3d 0106 8b3e
000000c0: e8ba b83c 561d 673e cd9b b0bd 12bc 4d3e
000000d0: 9963 8fbd ec23 f83c 9f8f 97bc 0942 ee3c
000000e0: 9650 5cbb 1b56 3cbd ec56 833c 2d1b e8bf
000000f0: 7a7c aebd 7090 923c 7d94 f5bc fa15 013e
00000100: 7f78 85bb 7dca 3f3e c4da 103c eddc 153e
00000110: f31f 183d fcdc f63c 2aee c2bc b807 cf3d
00000120: 9112 dfbb d036 1c3e 2301 c53c 845e 56bc
00000130: b868 143e 5d73 90bd b629 bc3c 2185 0ebd
00000140: 17dc 43bd 58c7 06bd 717f 8abd 06bb 4abd
00000150: 4fab 91be 6b63 8cbe 4e2e dd3d 7191 12bf
00000160: 8eb3 03be db8a 74be 5c7d f9bd d8a8 15be
00000170: f0ed c33d 3e81 e3bd c478 f5bc e608 3dbe
00000180: c4e8 51bc 8194 bdbd fb79 37bd 6373 623e
00000190: 4587 a3bd 8db6 843e 1d9a 47bc 75fb 83be
000001a0: 24ba 2f3c e0d8 583e e582 3fbd da01 f53e
000001b0: 5eae b3bd c7eb d53e 938c 093d 1110 85be
000001c0: ef00 5cbc 750d ec3d a0f6 d2bb d151 b13e
000001d0: b7aa 203d ffb0 743e 218e 013d 7877 8dbe
000001e0: 0ba7 573d 5d18 d4be b5be 1a3e 45f5 41bf
000001f0: e453 f43d a95a 9ebf 4242 213e b022 d5bc
00000200: 6a1d 03be 1512 17be b343 cdbd 8569 8dbe
00000210: 7377 74bc 9a56 74be 1254 4a3e 3bcf 47be
00000220: e79f 983c 5329 a0be 6cad bc3d 6d39 4abd
00000230: aebc 3d3d 6bea 593e 8949 28bd 239f c03e
00000240: 5735 933d c516 acbd 422f 7bbb 3a1f b2bc
00000250: b800 10be 2eab c03e b44b 06bf 2d0b d43e
00000260: 32b1 303e 76a3 06be a3cd e23d 137b f1be
00000270: e97f 74bd 6cf4 c3be 1aed 89bd 04d1 9bbe
00000280: 33bf 9d3e be06 90be 25e2 213e e7f9 09bf
00000290: 06c8 b5bd ca64 94bf d8e2 81be aff0 a8bf
000002a0: 80ea 48bd 50a2 163d 78c9 c63d 7f47 1d40
000002b0: 3496 04bd fdf0 ca3f 6aab d43c 34d0 9b3f
000002c0: 9489 5539 9ced 933f dda0 503d 056c a93e
000002d0: 93a2 4bbd e60a 2c3e eebd 4e3d 1e28 0e3d
000002e0: 11ac 0a3e 949f 62bd 656a bfbc 61dd a43d
000002f0: c802 80bc d544 14bd 55ed 22bd 2dba 31be
00000300: 7d68 dd3d 174b 82be 3163 3dbc 9b26 fcbd
00000310: 0705 d6bd d21b e6bc 1dae c0bd 2f8c 74bd
00000320: 464d d53d ab06 b8bb a022 c43d 1cd9 31be
00000330: ecdb a53c 5e22 f6bc 8e69 3ebd e824 5e3c
00000340: 5aee 94be cd4f 833d 911d 35be 20a4 6b3c
00000350: 200a 9cbe 2384 2dbf e935 44be e419 7fbe
00000360: 2579 a3be 8678 3f3c 8099 d5bf 1ba0 a63d
00000370: 4afb 5fbe b22c 143d ce53 05be c6ce f53c
00000380: 3643 a6bd e5c9 863c 2959 8abd 8a0f dc3c
00000390: 2c33 2abe d10f 023d af2d 643d 3d13 493d
000003a0: d095 5c3e 8610 833d cf51 773e a6ac 3f3d
000003b0: a581 dabd c88d da3c 5072 ef3d 833b d13c
000003c0: 4312 353c 314b 3f3d bf3d a9bd c411 393d
000003d0: ad54 d03d 7a40 c43c 9ffe d43e 25df d53c
000003e0: f96b d43e ff1e 9d3c 18e9 a63e 4919 e83c
000003f0: 5887 02bd 8e9e 9dbd 1211 07be 8f45 c8bc
-0.14585805 -0.07730968 -0.13724141 0.021136943 -0.08325621 0.0045338315 -0.082531825 0.06702508
-0.11641096 0.10046379 0.030629266 0.007903947 -0.00044700177 0.04201273 0.03734663 0.06751582
0.066381894 0.045142855 0.022328826 0.05294248 -0.035879094 0.07312403 -0.011444071 0.06331614
0.33774784 0.0775516 -0.024129063 0.12128829 -0.13936679 0.10488168 0.086888924 0.08420138
0.7606453 -1.859132 -0.14655906 0.1947668 -0.18464959 0.15452377 -0.18546878 0.15327276
-0.038788795 0.097419344 -0.179513 -0.16555054 0.09387875 0.53762317 0.057226855 0.27153018
0.022550061 0.22569785 -0.08623467 0.20091274 -0.070014186 0.030290566 -0.018501101 0.029084222
-0.003361737 -0.045980554 0.016032659 -1.8133293 -0.08519836 0.017891139 -0.029978031 0.1260604
-0.004073202 0.18729587 0.00884122 0.14635058 0.037139844 0.03013467 -0.023795206 0.10108894
-0.006807633 0.15255284 0.024048394 -0.013084058 0.14493072 -0.07053254 0.022969108 -0.03479493
-0.047817316 -0.032904953 -0.06762589 -0.049494766 -0.2845101 -0.274196 0.107998475 -0.57253176
-0.12861463 -0.23881094 -0.121821135 -0.1461519 0.09566867 -0.11108635 -0.029964812 -0.18460426
-0.012811843 -0.092568405 -0.044794064 0.22114329 -0.07984785 0.25920525 -0.01218274 -0.25777784
0.010725532 0.21176481 -0.04675569 0.47852975 -0.08773492 0.41781446 0.033581328 -0.2598882
-0.013427957 0.11526004 -0.0064380914 0.34632733 0.039225306 0.23895644 0.031629685 -0.2763021
0.05264954 -0.41424838 0.15111811 -0.75764877 0.11930063 -1.2371417 0.15747932 -0.026017517
-0.1280419 -0.14752991 -0.10022678 -0.27619568 -0.014921057 -0.23861161 0.19758633 -0.19512646
0.018630935 -0.31281528 0.09212765 -0.04937117 0.046322517 0.2128083 -0.041085754 0.37621412
0.07187908 -0.084027804 -0.0038327728 -0.021743406 -0.14062774 0.376306 -0.52459264 0.41414776
0.17255095 -0.13148293 0.11074378 -0.4716421 -0.059692297 -0.38272417 -0.06734677 -0.30432904
0.30809936 -0.28130144 0.15808924 -0.53896946 -0.08876042 -1.1593258 -0.2536838 -1.3198451
-0.04905176 0.036775887 0.09706396 2.4574888 -0.032369807 1.5854794 0.025960643 1.2172914
0.00020364515 1.1556888 0.05093466 0.33090225 -0.04971559 0.16801032 0.0504741 0.034706227
0.135422 -0.055327967 -0.023366163 0.08050037 -0.015626326 -0.036198456 -0.03977712 -0.17356177
0.10810945 -0.25447914 -0.011559294 -0.12312051 -0.10450178 -0.028089438 -0.094082095 -0.059704002
0.10415129 -0.0056160293 0.09576917 -0.17367977 0.020246468 -0.030045684 -0.046487384 0.013558604
-0.29088098 0.06411705 -0.1768706 0.014382392 -0.30476475 -0.6777975 -0.1916119 -0.2491222
-0.31928363 0.01168645 -1.668747 0.081360064 -0.21873203 0.036175437 -0.1302025 0.030005824
-0.08118288 0.016453693 -0.06755287 0.026862878 -0.16621083 0.031753365 0.05570763 0.049090613
0.21541524 0.06399636 0.24152301 0.04679551 -0.10669259 0.026678935 0.11691725 0.025541073
0.011051717 0.046702567 -0.0826373 0.04518296 0.101724006 0.023956526 0.4160051 0.02610738
0.41488627 0.01917982 0.3259971 0.02833237 -0.031867355 -0.076962575 -0.13190106 -0.02444723

sequential/dense_1/MatMul f4 [10, 20]
00000000: 6ddf af3d 1025 743f d12f 1d3f f1c9 be3e
00000010: 77c7 873f cc60 af3f d17c 753c b237 66bd
00000020: 1016 a13f 18b6 bc3e 22a9 83bc 8cbd 593e
00000030: cccc 563f 4ecf 583f 36d1 033f ec81 be3e
00000040: e5d4 30be fe0b a2bd d024 523c 5d71 37be
00000050: 9f7b 663d 8d95 2fbe d137 043e d9fa 503d
00000060: 80b2 8f3f 6ec8 e63e 3800 7f3f d4ab 343f
00000070: 8e04 b63e 3ae2 cb3e 36b6 703f 350e c53f
00000080: 7d72 a73f e796 4e3f 0711 773f d6eb a23d
00000090: 20b8 913f aa29 3d3f eb9b 403f 7480 803b
000000a0: 1e57 1d3e ed4e bb3f 7806 dc3c 2c3a 803d
000000b0: 1768 a1be 8c1d 8abf 0089 ecbd 3d07 7f3e
000000c0: 170d 45be 8895 eabe 5405 16bf c7b0 153e
000000d0: 2120 e3bd 2b88 26bf 7ed0 10bf f04c d6bb
000000e0: 6797 aa3e 5408 ba3d d105 5c3d b615 003e
000000f0: a6a8 eebe 9ff4 c1be 6d5e 473f 1dc7 af3e
00000100: 0dae 2e3d 250f 2e3f 9d30 343d cfa4 f53d
00000110: ba9e fc3e 15d9 dd3e c1bf 12bd a2ad 133d
00000120: d98c af3d 5767 19bd a47e ccbd d98a 0cbf
00000130: 61bb 393f dcf2 f9bc 8c44 ce3d 98ea 73be
00000140: e7ee 163e ed77 363e aa6d 7fbd f6a0 323c
00000150: dfe1 febc e6a3 b83f 7fd3 a43e 18ac 273f
00000160: 6d4d 543f 8f53 a83f dda4 24bd 97a5 843e
00000170: 9d9e 2fbe 5ef6 fa3e 588a 8f3f b0c7 00bd
00000180: 97a6 6fbe a3d8 1e3f 1068 393f 5e22 eebd
00000190: 22d0 343f 8161 91bd 0113 e53e 66df bc3e
000001a0: 1e9a 1b3e a082 88be 82db 0a3f c834 023e
000001b0: fc58 2abc 35a7 2cbe 7f7a 923e 07e0 433e
000001c0: 00ab 783d 07e3 b03e 467f 3b3e 221b 4c3f
000001d0: 38dc 7e3e 242f 1b3f 1d41 d7bd 8a82 2a3f
000001e0: 87f0 39bf eb31 a33f e3ec 0f3f 84db f23e
000001f0: c2a0 2dbb b440 eabe 90ac a2be 6bee 053f
00000200: 8853 60bc 5b22 383e b788 113e b3bb 893e
00000210: 5cd4 a4be 7017 663e 088a 633e 2531 92be
00000220: b25a dc3c bf41 8cbe eddb 9e3e 3965 833e
00000230: 0b0c e33f dd95 a43e ba7c 023f 0646 dd3e
00000240: 136b d93d c041 0a3f bd55 083c 1929 bf3e
00000250: 1e18 5d3e d5aa b83e 4882 173e 227a 32bf
00000260: b0f0 c73e 817b 493e 3015 58bf 6d4c e13f
00000270: 8b8d 0fbf 203d 123f 3cfc 043f 5112 d13f
00000280: 5c34 3bbe 349c 36bd 8aef af3e d92b 923e
00000290: 02ac 0fbf 7b99 3bbd de71 02bf a705 ad3e
000002a0: 34f4 bfbe ab49 70be 9f52 1fbe 67dc 993e
000002b0: ffc7 65be 660a 5a3f ff0b 3c3e b373 143c
000002c0: f713 8f3f b786 9abd 9924 3b3e d95d a03e
000002d0: 965e 473f 983d 743e df79 4e3f 169e c33e
000002e0: 96ae 423e d9fb 3f3e 47c8 583d 9c71 8dbf
000002f0: 887a 9a3e 3f33 3bbd d39b 003e 4876 4abf
00000300: 2227 40bd dd20 aa3e 63d2 8fbe a025 7b3f
00000310: ee2a 3cbf 6ac9 ccbe 4798 d7bf 3e65 06bd
0.08587537 0.9536905 0.6140109 0.37263444 1.0607747 1.3701415 0.014983372 -0.05620546
1.2584858 0.36857677 -0.01607186 0.21263713 0.83906245 0.8469132 0.51491106 0.37208498
-0.17268713 -0.079124436 0.01282616 -0.17914338 0.056270238 -0.17146893 0.12911917 0.051020477
1.1226349 0.4507479 0.9960971 0.7057469 0.3555035 0.39821035 0.9402803 1.5394961
1.3081814 0.8069901 0.96510357 0.079551384 1.1384315 0.738917 0.7523791 0.003921563
0.15365264 1.4633461 0.026858553 0.062610954 -0.31524727 -1.0790267 -0.11549568 0.24905105
-0.19243275 -0.45817208 -0.5860188 0.14618216 -0.110901125 -0.65051526 -0.56568134 -0.0065399334
0.33318636 0.0908362 0.053716484 0.12508282 -0.46613044 -0.37881944 0.7787846 0.343316
0.042646457 0.6799186 0.043991674 0.11994325 0.4933985 0.43329683 -0.035827402 0.03605426
0.085717864 -0.03745207 -0.09985092 -0.54899365 0.7255154 -0.030511312 0.10071668 -0.23819959
0.14739572 0.17819186 -0.062360443 0.010902634 -0.031113563 1.4425018 0.3219261 0.6549697
0.8293064 1.31505 -0.04019629 0.25907585 -0.1715035 0.49016088 1.1214094 -0.031440437
-0.23403393 0.6204931 0.7242441 -0.11627649 0.70630085 -0.070986755 0.4474106 0.3688919
0.1519551 -0.2666216 0.5424119 0.12715447 -0.010397192 -0.1686066 0.28609082 0.19128428
0.060709953 0.34548208 0.1831027 0.797289 0.24888694 0.60618806 -0.10510466 0.66605437
-0.7263264 1.2749609 0.56220835 0.47433102 -0.0026493524 -0.4575249 -0.3177228 0.5231692
-0.01369179 0.17981856 0.14212309 0.26901016 -0.32193267 0.22469878 0.22220623 -0.2855312
0.026898716 -0.2739391 0.31027165 0.25663164 1.773805 0.32145587 0.5097157 0.43217486
0.10616126 0.54006577 0.008321223 0.37336043 0.21591231 0.36067834 0.14795792 -0.6971761
0.39050817 0.19676019 -0.8440733 1.7601448 -0.5607535 0.5712452 0.5194738 1.6333715
-0.18281692 -0.04458256 0.3436244 0.28549078 -0.5612184 -0.045800667 -0.50955 0.33793375
-0.37491 -0.23465602 -0.15558861 0.30050966 -0.22439574 0.85172117 0.18363951 0.009060788
1.1177968 -0.07545226 0.1827568 0.313216 0.778787 0.23851621 0.8065471 0.38206547
0.19011912 0.18748416 0.052925374 -1.1050296 0.3017161 -0.04570317 0.12559442 -0.7908673
-0.04691232 0.33228198 -0.280902 0.98104286 -0.73503006 -0.39997417 -1.6843346 -0.032811396

sequential/dense_2/MatMul f4 [13, 10]
00000000: ba38 ec3e 4735 813e 9bbf c4bd d752 15bf
00000010: 2708 bc3e 2fec 803d 2be4 f6bd 66c1 323f
00000020: 06d3 48bf 7c47 0d3c e531 123f c5e7 b03e
00000030: cb5c 1c3e 59d1 da3e 4cdd 0c3f 17d0 0c3f
00000040: c6d0 90be 4154 1bbf 5c94 283f 1cc9 23bf
00000050: 1e53 86bf cad6 2cbf 1987 22bf a4c6 13bf
00000060: 0ba0 5ebe 7570 73bf 14a9 e7bf 8d2d 20bf
00000070: 0df6 05bf 1717 c6bf feb9 053d 7a85 9e3e
00000080: 12be 91bf d17a a53d d888 e3bd c8bc d23e
00000090: 3764 6cbf d5bd fa3e fc8d 313f aad9 ba3e
000000a0: 4314 163f 345f 11bf 08a8 66bd f140 303f
000000b0: d276 ec3e 669f 70bf aafe 123f 702c 2bbf
000000c0: 8828 e83d 38dd d83e 7167 3bbf de19 6bbe
000000d0: b61b f03e fce8 d5be cb51 84bf 4d68 d83e
000000e0: 6cc1 5e3f f08b f1bd ce94 083f 65b8 96bf
000000f0: 9b05 7e3e 0c9c 033f 6696 5dbf 0bfd 813f
00000100: 75bd 7e3e d80d 3ebf ed89 973e c286 62be
00000110: f9e6 a83e 329d 27bd 887a a6bf cf9b 3a3f
00000120: 6c25 03bf 73b1 f5bd d147 8d3f 1d25 95be
00000130: 424f eabe dbba 38bf e4e7 c53d 9b7a 0cbf
00000140: 1516 103e b605 773f 7189 523e 7355 dbbf
00000150: 68b1 9bbe e651 03bf c894 84bf c2a6 98bf
00000160: 7823 47bf e6e8 013f 471c 75bf b428 06bf
00000170: 9d2e 393f bdae 76bf 7612 d6be 9f4f 54bd
00000180: 9739 2e3f 8d00 fa3d f4e7 123d 1646 c9bf
00000190: 9a55 b8be 068d a2be f442 d43e 1c9d f8be
000001a0: 23fa 3dbf f28b 383f a501 c93d 9a93 a53e
000001b0: aa0f 6ebf 53c7 233f 9ef6 38be 8199 0ec0
000001c0: 6ddf bb3e 3b27 c6be c0b0 d3be 637b 63be
000001d0: 98c1 aebe 30cb 1d3f fca0 303e 2027 643f
000001e0: 957f 80bf 41d0 1fbf 6e3a ccbf 128f 723e
000001f0: b745 8bbe 5965 0cbf 00e8 d1bf b6a8 6ebf
00000200: 2f67 f6bd 292a 9cbf
0.4613703 0.2523596 -0.09606858 -0.5832953 0.3672497 0.062950484 -0.12055238 0.6982635
-0.78446996 0.008623 0.57107383 0.34551826 0.15269773 0.42737845 0.5502517 0.5500502
-0.28284281 -0.60675436 0.6585138 -0.63978744 -1.0494115 -0.6751524 -0.6348739 -0.57724977
-0.21740739 -0.9509347 -1.8098474 -0.62569505 -0.5232857 -1.5475796 0.03264808 0.3096121
-1.138613 0.08080066 -0.11110085 0.41159654 -0.92340416 0.48972955 0.69357276 0.3649419
0.58624667 -0.56785893 -0.05631259 0.6884909 0.46184403 -0.9399322 0.57419837 -0.6686468
0.11335856 0.42356277 -0.73204714 -0.22959086 0.46896142 -0.41779315 -1.0337461 0.42267075
0.8701389 -0.11794269 0.5335206 -1.1775023 0.24806826 0.51409984 -0.86557615 1.0155348
0.2487696 -0.74239874 0.29597417 -0.22121719 0.32988718 -0.040921398 -1.3006144 0.72893995
-0.51228976 -0.119967364 1.1037542 -0.29129878 -0.45763594 -0.7216012 0.0966337 -0.5487458
0.14070924 0.9649309 0.20560242 -1.7135452 -0.30408788 -0.5129684 -1.0357904 -1.192589
-0.77788496 0.50746 -0.9574627 -0.5240586 0.7233675 -0.9636038 -0.4181096 -0.051833745
0.68056625 0.12207136 0.03586574 -1.5724514 -0.3600281 -0.31748217 0.4145733 -0.48557365
-0.74209803 0.7208854 0.09814767 0.32339174 -0.9299265 0.6397602 -0.18062827 -2.2281191
0.36693898 -0.38701805 -0.41345787 -0.22215037 -0.34132075 0.61638165 0.1724891 0.891222
-1.0038935 -0.62427145 -1.5955331 0.2368739 -0.27201626 -0.54842144 -1.6398926 -0.9322618
-0.120313995 -1.2200366
