model/keypoint_classifier/keypoint_classifier.tflite (tflite, 6676 bytes, 6 tensors)

sequential/dense/BiasAdd/ReadVariableOp f4 [20]
-0.773315 -0.6429464 -0.589361 -0.49970105 -0.8285289 -0.53090614 -0.93630975 -0.7283587
-0.14867866 -0.61412245 -1.0609956 -0.5142572 -0.5827759 0.44741306 -0.5083008 -0.28289217
-0.5620532 0.06695287 -0.94907373 -0.047049463
00000000: f9f7 45bf 2398 24bf 5de0 16bf d1d8 ffbe
00000010: 781a 54bf 77e9 07bf ffb1 6fbf b775 3abf
00000020: 383f 18be 2137 1dbf b4ce 87bf 5ca6 03bf
00000030: cd30 15bf 5313 e53e 0020 02bf 3ed7 90be
00000040: b8e2 0fbf 961e 893d 7ff6 72bf f0b6 40bd

sequential/dense_2/BiasAdd/ReadVariableOp f4 [7]
-0.2577478 -0.18744689 0.32290697 0.39956015 0.49914145 -0.22354113 -0.47690398
00000000: 85f7 83be 14f2 3fbe 1054 a53e 2693 cc3e
00000010: 788f ff3e f7e7 64be c22c f4be

sequential/dense_1/BiasAdd/ReadVariableOp f4 [10]
0.54623556 0.6317076 -0.13616548 0.603297 0.64243543 0.5587417 0.6470815 0.12091698
0.037196025 0.7393972
00000000: 18d6 0b3f 97b7 213f f76e 0bbe ac71 1a3f
00000010: a676 243f b209 0f3f 22a7 253f 52a3 f73d
00000020: dc5a 183d 2349 3d3f

sequential/dense/MatMul f4 [20, 42]
0.23538613 0.22702211 0.09141093 0.57445633 -0.079724744 0.32307324 -0.19961734 -0.04793248
-0.2239131 -0.59954214 -0.20696226 0.07145969 0.07429772 0.044938017 0.2413561 0.13594268
0.26261362 0.12214487 -0.44276324 -0.07966541 -0.01180321 -0.0870587 0.08137722 -0.083472416
-0.14934045 -0.020150486 -0.48721963 -0.14608982 -0.02330608 -0.30492568 0.14415202 -0.06721199
0.008938798 -0.047259662 -0.46830335 -0.42103055 -0.10812584 -0.13836084 0.05942123 0.047009878
0.0019931763 0.07376015 0.09909189 -0.29192927 0.10670976 0.44401506 0.1536568 0.2920403
-0.23846906 0.2789743 -0.26408675 0.058275037 0.38089052 0.07607005 0.032967214 0.070958495
-0.110631905 0.14299913 -0.16502047 0.10836207 0.2509042 -0.0031791506 0.123342656 0.062297866
-0.027511986 -0.5440525 -0.23273705 -1.0438914 0.11931915 0.015226783 0.14136869 0.020382734
0.38503483 -0.56363434 0.06601445 -0.9232165 -0.013394684 0.07624699 -0.017853625 0.1346499
0.1232158 0.09397333 -0.16730629 0.058155067 0.044465303 -0.16947666 -0.19999485 0.12149478
-0.11783599 -0.10079999 0.041330256 -0.15101145 0.09786448 -0.119629845 -0.57001835 -0.19252117
-0.18288201 -0.06701547 0.07240658 0.08242473 0.21307456 0.0581907 -0.7609509 -0.20354442
-0.08676844 -0.10467381 0.26074633 0.094504766 0.3116466 0.0916238 -0.95190555 -0.33505806
-0.021836907 -0.057988457 0.33442056 0.093584165 0.40507892 0.10159988 -0.6549517 -0.33180416
-0.2902943 -0.11104378 0.0035311289 0.117624514 0.03746121 0.13045688 -0.04458019 0.3053016
-0.14644685 0.24763143 -0.043734666 -0.2062806 -0.0069206087 -0.5673963 -0.04739137 -0.70691884
-0.049247146 0.14812896 -0.012829164 -0.008643949 0.0012499426 -0.04402588 0.010067787 -0.05255802
-0.10763072 0.1036341 0.018448777 -0.13722487 -0.02018137 0.02401214 -0.043131016 0.5313272
-0.09113492 0.011801177 0.029937418 -0.15811472 0.019278485 0.2970026 0.041413955 1.0028589
-0.03532329 -0.12436975 0.03582188 -0.08635003 -0.08246006 0.308624 -0.061029717 0.9534297
-0.20629765 0.3069877 0.052863404 0.34865952 0.053177208 0.22940148 -0.0036246418 0.08262696
-0.14379393 0.041644987 -0.10856809 0.05136806 0.039026536 0.09176456 0.06376852 0.10650834
0.08049984 0.08591756 -0.054877162 0.006452731 0.042578775 -0.031956222 -0.14085299 -0.24296652
-1.1229527 -0.6705301 -0.01877151 -0.072766 0.12217687 -0.04008805 -0.14678182 -0.45415846
-0.7097117 -0.6013333 0.078359395 -0.016440501 0.124052 0.025698403 0.08930765 0.043662257
0.04638525 0.06302645 0.12940747 0.20631725 0.65090257 0.70684034 0.4628302 0.09853431
0.4447872 -0.064211056 0.37028337 -0.08817531 -0.15836534 0.031845253 0.0064191394 0.045943737
0.08676354 0.021618908 0.11410524 -0.004565131 -0.11019678 -0.054145176 -0.02367259 -0.039700616
-0.1447717 -0.10374712 -0.4091471 -0.122119516 0.068025105 -0.10803277 -0.05537619 0.004841872
-0.41628438 0.01203461 -0.8643164 0.009091484 0.3260278 -0.108520515 -0.042969756 0.0845276
-0.41136506 0.20770846 -0.5044284 0.35688788 -0.010640293 0.30647945 0.18361522 -0.6896103
00000000: 1009 713e 7c78 683e a735 bb3d 920f 133f
00000010: ba46 a3bd db69 a53e 7d68 4cbe d954 44bd
00000020: 7a49 65be 987b 19bf eaed 53be 7559 923d
00000030: 6729 983d ed10 383d 0e26 773e 8f34 0b3e
00000040: 4b75 863e 1727 fa3d ddb1 e2be 9e27 a3bd
00000050: 4062 41bc d54b b2bd 1aa9 a63d 96f3 aabd
00000060: b4ec 18be a212 a5bc da74 f9be 9298 15be
00000070: 64ec bebc 381f 9cbe 969c 133e 71a6 89bd
00000080: 0974 123c 5993 41bd 75c5 efbe 5191 d7be
00000090: 1571 ddbd 77ae 0dbe ad63 733d 6e8d 403d
000000a0: f39f 023b 900f 973d b0f0 ca3d c177 95be
000000b0: a68a da3d f155 e33e 3558 1d3e 4e86 953e
000000c0: 3c31 74be b8d5 8e3e 6136 87be ceb1 6e3d
000000d0: 1504 c33e 9dca 9b3d a108 073d b052 913d
000000e0: fb92 e2bd 5d6e 123e 20fb 28be efec dd3d
000000f0: 8476 803e 4c59 50bb 139b fc3d 0c2c 7f3d
00000100: d160 e1bc 0647 0bbf 9f52 6ebe 3c9e 85bf
00000110: 995d f43d c279 793c f4c2 103e b1f9 a63c
00000120: 4923 c53e 574a 10bf 9532 873d eb57 6cbf
00000130: 6075 5bbc 6227 9c3d c441 92bc aae1 093e
00000140: 9158 fc3d 1775 c03d 5752 2bbe 0234 6e3d
00000150: 4021 363d 4a8b 2dbe 73cb 4cbe 41d2 f83d
00000160: ff53 f1bd 3a70 cebd ea49 293d bfa2 1abe
00000170: 2c6d c83d 7e00 f5bd b9ec 11bf 4524 45be
00000180: 6c45 3bbe 683f 89bd e749 943d 4cce a83d
00000190: 3830 5a3e 5f59 6e3d aecd 42bf f36d 50be
000001a0: a7b3 b1bd 395f d6bd 8b80 853e b78b c13d
000001b0: 2590 9f3e 42a5 bb3d 15b0 73bf bb8c abbe
000001c0: 50e3 b2bc 4e85 6dbd 2c39 ab3e 0ea9 bf3d
000001d0: 8166 cf3e 9913 d03d eaaa 27bf 3ce2 a9be
000001e0: 74a1 94be ec6a e3bd 836a 673b 1fe5 f03d
000001f0: ed70 193d 7d96 053e b899 36bd 7e50 9c3e
00000200: 2af6 15be 1893 7d3e 1f23 33bd 393b 53be
00000210: 46c6 e2bb e240 11bf 741d 42bd a2f8 34bf
00000220: 60b7 49bd 1eaf 173e 6a31 52bc 5a9f 0dbc
00000230: 1dd5 a33a 7b54 34bd 5cf3 243c 1447 57bd
00000240: 7f6d dcbd 1d3e d43d e421 973c ad84 0cbe
00000250: 6753 a5bc 1cb5 c43c 26aa 30bd 0f05 083f
00000260: f2a4 babd b959 413c 513f f53c d3e8 21be
00000270: eaed 9d3c ba10 983e aea1 293d ae5d 803f
00000280: 27af 10bd 91b5 febd f7b9 123d 49d8 b0bd
00000290: d2e0 a8bd f703 9e3e 4cfa 79bd f813 743f
000002a0: b13f 53be 7e2d 9d3e 4c87 583d 8083 b23e
000002b0: 58d0 593d 39e8 6a3e 668b 6dbb 5338 a93d
000002c0: b73e 13be ef93 2a3d f258 debd 5167 523d
000002d0: 4ada 1f3d 0fef bb3d 1299 823d 0b21 da3d
000002e0: 1add a43d 8cf5 af3d e0c6 60bd 6e71 d33b
000002f0: 1567 2e3d 87e4 02bd c43b 10be 37cc 78be
00000300: eabc 8fbf dca7 2bbf b6c6 99bc 5706 95bd
00000310: de37 fa3d 5e33 24bd f94d 16be 7587 e8be
00000320: aaaf 35bf fbf0 19bf e47a a03d 3bae 86bc
00000330: fa0e fe3d 7585 d23c eee6 b63d 32d7 323d
00000340: 76fe 3d3d 0314 813d 6483 043e d444 533e
00000350: 8da1 263f 7df3 343f 14f8 ec3e 5bcc c93d
00000360: 26bb e33e 1681 83bd c895 bd3e 4295 b4bd
00000370: 862a 22be 2b70 023d a557 d23b 802f 3c3d
00000380: 15b1 b13d 231a b13c 02b0 e93d 1897 95bb
00000390: d9ae e1bd 55c7 5dbd 05ed c1bc 1d9d 22bd
000003a0: 083f 14be 5f79 d4bd bb7b d1be cc19 fabd
000003b0: bf50 8b3d 4940 ddbd 25d2 62bd 91a8 9e3b
000003c0: 3a23 d5be d02c 453c d743 5dbf 73f4 143c
000003d0: 1eed a63e 0140 debd 0e01 30bd ce1c ad3d
000003e0: 719e d2be 87b1 543e 3822 01bf 02ba b63e
000003f0: a054 2ebc e0ea 9c3e a105 3c3e 4d8a 30bf

sequential/dense_1/MatMul f4 [10, 20]
-0.121171705 0.6009315 0.18009685 -0.4176576 0.58898944 -0.655986 -0.74303925 0.65879595
-0.04282166 -0.24166007 0.13632104 0.036594808 0.24551661 -0.023486724 -0.20945068 0.6568181
-0.47100836 -0.05531032 -0.31511688 0.10403882 -0.45123073 -1.1190592 0.24008039 0.3198126
-1.387943 -0.37023592 -0.7268319 -1.0060145 0.29363778 0.13653602 -0.63754016 -1.9836303
0.28759003 0.07113982 0.30764154 -0.5052443 -1.1208264 0.13083073 -0.20094939 0.11453205
-0.11350669 0.053274494 0.9325436 1.5109564 0.037725348 0.707861 0.9887627 0.103063285
-0.0019669593 0.703553 1.283456 0.052489866 0.056773916 -0.10414143 0.33639336 0.088369474
0.92155546 0.16057254 0.39479348 0.0060647023 0.53279215 0.27238324 0.12416565 0.4858131
0.5727882 0.96563 0.63883877 0.475783 0.1330556 -0.18264502 -0.40371457 1.6893893
0.12839988 -0.7453493 0.17308399 0.57229424 1.294936 0.28410184 -0.36344835 0.36256054
0.68823814 0.11428649 1.4131008 0.36408505 0.13600007 -0.23670942 0.097650744 -0.2881266
0.51354045 1.4647697 1.0900311 -0.43040895 0.12963451 0.39039618 -0.25095484 0.27201614
-0.07223965 0.8222949 1.5330824 1.0317543 0.30104932 -0.30333665 0.14347477 -0.21679139
-0.14430615 0.11505969 0.7762641 0.46384257 0.45264173 0.70639807 0.24452253 -0.19088092
1.0755283 0.012321071 -0.10865687 -0.50805813 0.11928103 0.32448083 0.9111501 0.052318037
-0.27687165 0.068013124 -0.04578597 0.66611546 0.08884513 0.2814525 0.35527876 -0.35207552
-0.41141948 0.037372645 0.08932382 0.07034565 0.06863947 0.014203975 1.9129403 -0.819257
0.5442697 0.055192288 -0.09810391 0.74059665 -0.3855117 0.23529549 -0.30096024 0.3374775
0.17494455 0.3355305 -0.2666175 -0.70055926 0.38838547 -0.27599287 -0.7151082 0.035673358
0.091486245 0.21572071 0.710143 0.585278 0.0287004 0.68390864 -0.1692729 0.24832253
0.7950821 0.5833853 -0.58776885 0.51374596 1.3113408 0.5992559 0.0781314 0.042993702
0.3095391 0.001565476 0.22877882 0.25332865 0.13478623 0.6389717 -0.28609443 0.70989186
0.2677636 0.3710052 0.8668674 0.20958978 -0.6469594 -0.018001623 -0.010560465 -0.020647569
-0.16230798 -0.10740756 0.055163726 -0.44185194 0.7089483 -0.30256346 -0.065312654 -0.204487
0.5564969 0.28320915 1.1914766 0.23317616 0.31964377 0.1916943 0.45895487 -0.19688137
00000000: df28 f8bd a6d6 193f 4f6b 383e 38d7 d5be
00000010: 03c8 163f b3ee 27bf d237 3ebf daa6 283f
00000020: c465 2fbd bd75 77be be97 0b3e 70e4 153d
00000030: b568 7b3e 3b67 c0bc 3d7a 56be 3b25 283f
00000040: 0228 f1be 138d 62bd 0057 a1be 4e12 d53d
00000050: b707 e7be 553d 8fbf a2d7 753e 7abe a33e
00000060: 1ea8 b1bf 908f bdbe a811 3abf 15c5 80bf
00000070: b157 963e 19d0 0b3e d535 23bf 99e7 fdbf
00000080: 003f 933e c1b1 913d 3183 9d3e b157 01bf
00000090: 3d77 8fbf 7ef8 053e adc5 4dbe c88f ea3d
000000a0: 3276 e8bd 5b36 5a3d 2dbb 6e3f 0567 c13f
000000b0: e585 1a3d 6136 353f 8d1f 7d3f d812 d33d
000000c0: 1ae8 00bb 0d1c 343f 4948 a43f 9dff 563d
000000d0: c48b 683d 1a48 d5bd c03b ac3e 0efb b43d
000000e0: 0feb 6b3f 216d 243e 5f22 ca3e 69ba c63b
000000f0: 1165 083f d175 8b3e 8f4a fe3d 7fbc f83e
00000100: 3fa2 123f 8733 773f f08a 233f d499 f33e
00000110: ba3f 083e 4c07 3bbe adb3 cebe e93d d83f
00000120: 427b 033e 36cf 3ebf ee3c 313e e081 123f
00000130: 76c0 a53f cc75 913e e715 babe 89a1 b93e
00000140: 6030 303f 090f ea3d 7de0 b43f 5b69 ba3e
00000150: 9a43 0b3e f463 72be 1dfd c73d 5485 93be
00000160: 6377 033f 937d bb3f 2486 8b3f 905e dcbe
00000170: e9be 043e 02e2 c73e 277d 80be b345 8b3e
00000180: 62f2 93bd eb81 523f 0b3c c43f 8610 843f
00000190: 2323 9a3e f14e 9bbe 0deb 123e 90fe 5dbe
000001a0: fec4 13be 6aa4 eb3d 3eb9 463f c67c ed3e
000001b0: a8c0 e73e 81d6 343f 1d64 7a3e 4a76 43be
000001c0: e9aa 893f 51de 493c 7e87 debd 1910 02bf
000001d0: 9d49 f43d 5a22 a63e 2241 693f 704b 563d
000001e0: 1fc2 8dbe 774a 8b3d 128a 3bbd 8b86 2a3f
000001f0: 6ff4 b53d 8b1a 903e 19e7 b53e 3e43 b4be
00000200: 93a5 d2be 0f14 193d 68ef b63d 6111 903d
00000210: da92 8c3d cab7 683c 3adb f43f d4ba 51bf
00000220: 4255 0b3f 4f11 623d b4ea c8bd be97 3d3f
00000230: ca61 c5be 4df1 703e 7617 9abe dac9 ac3e
00000240: aa24 333e a7ca ab3e 1782 88be da57 33bf
00000250: 76da c63e f04e 8dbe 5511 37bf 3a1e 123d
00000260: 245d bb3d e4e5 5c3e efcb 353f c7d4 153f
00000270: 1a1d eb3c a314 2f3f e055 2dbe 4348 7e3e
00000280: 808a 4b3f bd58 153f 0578 16bf db84 033f
00000290: 04da a73f d668 193f 5b03 a03d 2a1a 303d
000002a0: e97b 9e3e a830 cd3a ff44 6a3e 4bb4 813e
000002b0: 6705 0a3e a693 233f f87a 92be 79bb 353f
000002c0: 5018 893e 65f4 bd3e 06eb 5d3f b49e 563e
000002d0: 229f 25bf 2478 93bc cd05 2dbc 1725 a9bc
000002e0: 1034 26be 7ff8 dbbd 5cf3 613d 6b3a e2be
000002f0: a37d 353f 99e9 9abe a4c2 85bd 0a65 51be
00000300: 9576 0e3f ca00 913e 4e82 983f bbc5 6e3e
00000310: 59a8 a33e 834b 443e 22fc ea3e 459b 49be

sequential/dense_2/MatMul f4 [7, 10]
-0.28605902 0.044694025 0.34520492 0.49588352 -0.07345303 -1.0163835 0.64904094 0.9261128
0.67766714 0.44620115 0.023279365 -0.908829 0.49920812 0.11260476 0.8106634 0.7906319
-0.18187937 -0.65382713 0.5758777 -0.04162899 0.46142197 0.8853056 -0.61661774 -0.83615595
0.7176019 0.12829812 0.7132582 0.20453554 -0.93796325 0.6522632 0.91964465 -0.7748936
-2.2107825 0.5695661 -0.34955665 -0.8992283 -0.60113364 -0.5497116 0.46502367 -0.6349507
-0.7446038 -0.79462993 -0.1095343 0.63276595 -1.9936635 0.82111067 0.8581201 -0.18032865
-1.4543657 0.89446104 -0.9329987 -0.45602888 1.209956 0.5955442 0.30462602 -0.41385943
0.6043824 -0.8558707 -0.27234584 -1.3215339 -0.09180262 -1.0412606 -0.5877857 -1.7375748
-1.3751858 -0.69246286 -0.985769 -0.5490887 -0.09110436 -1.2680383
00000000: 5476 92be 1511 373d b3be b03e 72e4 fd3e
00000010: 8b6e 96bd db18 82bf 8c27 263f ba15 6d3f
00000020: 987b 2d3f 7a74 e43e 5eb4 be3c 04a9 68bf
00000030: 3598 ff3e 539d e63d a387 4f3f da66 4a3f
00000040: 963e 3abe 3761 27bf b96c 133f 2983 2abd
00000050: 803f ec3e 63a3 623f a9da 1dbf 510e 56bf
00000060: c2b4 373f 9560 033e 1798 363f c471 513e
00000070: 5c1e 70bf b9fa 263f d56d 6b3f 6d5f 46bf
00000080: 767d 0dc0 15cf 113f 17f9 b2be d333 66bf
00000090: e5e3 19bf e6b9 0cbf 9517 ee3e 218c 22bf
000000a0: 5b9e 3ebf de6c 4bbf 8553 e0bd f3fc 213f
000000b0: 5e30 ffbf 4f34 523f c2ad 5b3f 13a8 38be
000000c0: a828 babf 66fb 643f 01d9 6ebf 9e7c e9be
000000d0: d7df 9a3f 9675 183f f1f7 9b3e 62e5 d3be
000000e0: ceb8 1a3f 581a 5bbf ea70 8bbe 0628 a9bf
000000f0: 0303 bcbd 0748 85bf 2079 16bf da68 debf
00000100: 1706 b0bf 3f45 31bf 5b5b 7cbf 1491 0cbf
00000110: ec94 babd 144f a2bf
