model/keypoint_classifier/keypoint_classifier.tflite (tflite, 7160 bytes, 6 tensors)

sequential/dense/BiasAdd/ReadVariableOp f4 [20]
000000 4e e9 45 3d ca 36 d9 3e ea 52 19 bf d1 8d 1a bf
       0.0483182 0.42424613 -0.5989214 -0.60372645
000010 c4 63 1a bf 55 53 11 bf 07 28 dd be f1 fa ab bf
       -0.6030848 -0.5676778 -0.431946 -1.3435956
000020 33 a3 3a 3e 28 f5 b4 be 3d dd 87 bf 82 e3 52 bf
       0.18226318 -0.3534329 -1.0614392 -0.823784
000030 fc 49 7c be 22 5a 97 bf 6f fe 8b bf bd fd 48 bf
       -0.24637598 -1.1824381 -1.0937022 -0.78512174
000040 f9 16 9e 3f 36 41 84 bf 9f bc f1 be 21 2d 13 bf
       1.2350761 -1.0332401 -0.4721422 -0.57490736

sequential/dense_2/BiasAdd/ReadVariableOp f4 [18]
000000 3f 3c f6 be a4 70 e7 bd f4 03 5c 3f 81 75 36 be
       -0.4809284 -0.11300781 0.8594353 -0.17818262
000010 6d 96 9d be f2 7b 05 3f 70 a7 8f bf 73 e6 a9 be
       -0.30778828 0.5214225 -1.1222973 -0.3318363
000020 ba 9e 05 bc 2c eb d6 3e 09 b6 7d 3e 0b db 22 3e
       -0.008155519 0.41976297 0.24776472 0.15903871
000030 6d f9 2b 3f 12 4d a7 be bf 84 22 bf 22 3b 18 3f
       0.6717747 -0.32675987 -0.63483804 0.5946523
000040 0a 25 2e be 85 d8 23 be
       -0.17006317 -0.16000564

sequential/dense_1/BiasAdd/ReadVariableOp f4 [10]
000000 65 65 f8 3e c8 db 7c 3f e2 a5 b4 3e ff 98 77 be
       0.48514858 0.9877286 0.3528281 -0.24179457
000010 7c 9c 6e 3f 5f dc a6 be f7 9e 7d 3f bf 86 f4 3e
       0.93207526 -0.32590005 0.99070686 0.47759053
000020 46 5d 60 3f 8e 93 d9 bd
       0.87642324 -0.10623847

sequential/dense/MatMul f4 [20, 42]
000000 17 c8 24 be 2b 3a 1d be 2c fb d6 be ca fd 0b 3e
       -0.16091953 -0.1535422 -0.41988504 0.13671032
000010 78 9f ab be f1 8a 81 3d 77 5d 0f bf 26 58 3f be
       -0.33520103 0.06325329 -0.5600199 -0.1868597
000020 dc f5 43 bf 41 8c bf be 4e c0 77 be 23 7e 2d 3d
       -0.76547027 -0.37411693 -0.24194452 0.04235662
000030 a5 77 50 3e ba 1a 23 3c b5 2e 2a 3f c5 1b 76 bc
       0.20358141 0.009955103 0.6647752 -0.015021269
000040 e7 c5 53 3f 32 2a d7 ba 01 90 b7 be b0 26 a6 3d
       0.8272385 -0.0016415773 -0.35852054 0.08112848
000050 f7 06 82 3d 4a 71 cd 3c c0 48 d6 3e 75 25 c7 bc
       0.06348985 0.025078434 0.4185238 -0.024309853
000060 26 5a 15 3f 82 4b ca 3c ef 17 e3 be 68 1c 44 3e
       0.5834068 0.024694208 -0.44354197 0.19151461
000070 1f f3 99 3d 53 89 97 3d ff b4 05 3f f3 2d ad bd
       0.07517075 0.073992394 0.52229303 -0.0845603
000080 2b 49 30 3f de 85 fe 3d 5a 46 e1 be 57 f3 ae 3e
       0.68861645 0.12427877 -0.43998986 0.3417003
000090 ef 60 d9 bd 56 ef 3f 3e c7 44 23 3e d6 a4 ae 3d
       -0.10614192 0.18743643 0.15944205 0.08527534
0000a0 e6 a6 9f 3e a3 56 c8 3c 90 43 ca bd 5c 1f 8e 3d
       0.3118202 0.024455374 -0.09876168 0.06939575
0000b0 07 f1 85 bc 80 ff 57 3f c5 91 c2 be 20 e7 4e 3f
       -0.016350282 0.8437424 -0.38001838 0.8082142
0000c0 d9 47 6e bf 9d 81 54 3f c1 45 bd bf 29 d1 46 3f
       -0.9307838 0.83010274 -1.4786912 0.77662903
0000d0 c2 06 c9 bd 57 c8 c4 3e 0d 95 40 be 97 4b 92 3e
       -0.09815742 0.38434097 -0.18806858 0.28573295
0000e0 bb c9 7f be c5 27 49 3e c6 b9 ab be d2 28 6f 3d
       -0.24979298 0.19644077 -0.3354017 0.05838854
0000f0 bb b6 b8 bd 44 73 ab 3e 8c a1 1a bd 64 f1 22 3e
       -0.09019228 0.33486378 -0.03775172 0.15912396
000100 7b 3b 29 bd 39 73 a1 3d 92 73 b1 bd 27 43 0b bc
       -0.04131649 0.07883305 -0.086646214 -0.008499897
000110 4c c1 3b be c6 77 d2 3d 6a c2 bb 3d 34 e9 8a 3d
       -0.18335456 0.10276751 0.09167941 0.06782761
000120 11 1c 8f 3e 52 52 08 be 79 01 37 3e be 97 4a be
       0.279511 -0.13312653 0.17871656 -0.19784448
000130 a8 6a 60 be 23 2c 41 bd 77 e0 ea 3d b6 9c 5e bd
       -0.21915686 -0.047161233 0.114685945 -0.05434867
000140 63 f5 86 3e 8d 1f 35 bd 0c 29 01 3e 15 f9 7a bd
       0.2635909 -0.044219542 0.12613314 -0.0612727
000150 98 a1 7c 3e 58 36 36 bd 93 f8 58 3f 9b db af be
       0.24671018 -0.04448542 0.84754294 -0.34347233
000160 c7 aa fe 3e e5 90 97 bd 9b dc 34 3f 97 5c 1d 3c
       0.49739668 -0.07400683 0.7064912 0.009604595
000170 58 26 9b 3f de 35 39 3b 27 f8 bb 3e 7a 52 a0 3d
       1.2121077 0.0028260867 0.36712763 0.07828231
000180 21 5f 11 be b4 4f 9d bd a1 7a ac be a2 c5 74 be
       -0.14196445 -0.07681218 -0.33687308 -0.23903516
000190 ec cd bd be 38 7b 30 be c7 60 b2 3e f0 be e9 3d
       -0.37071168 -0.17234504 0.3483946 0.114133716
0001a0 b4 a7 18 be 18 e8 2b 3b 5f ba 74 be bd ba 6a bb
       -0.14907724 0.0026230868 -0.2389922 -0.003581687
0001b0 90 f0 81 be a4 49 8f bd 99 28 b2 3e 46 1c 23 3e
       -0.25378847 -0.06996468 0.347966 0.15928754
0001c0 69 88 fc bd e6 38 33 3d fd 93 82 be 43 29 ab bd
       -0.12330706 0.043755434 -0.2550353 -0.083574794
0001d0 e7 d3 2d be c7 36 13 3c 50 5a 1a 3e 34 11 56 3e
       -0.16975366 0.008985228 0.15073514 0.20905
0001e0 ad 72 a8 be b6 81 0e 3e 61 ce 23 bf dd 59 9b 3d
       -0.3289999 0.13916668 -0.63986784 0.075854994
0001f0 44 97 44 bf 38 af 02 3e 48 9c 00 3e 24 bb 9a 3d
       -0.76793313 0.12762153 0.12559617 0.075552255
000200 7d 26 91 3f 92 59 2e be 42 7e 56 3f c5 50 b2 be
       1.1339871 -0.17026356 0.83786404 -0.34827247
000210 bb 62 3d 3f f1 80 b9 be 95 ca 2c 3f 25 e7 4a be
       0.73978776 -0.36231187 0.67496616 -0.19814737
000220 75 a7 19 bf 43 16 4d bc b8 02 8c be cb 80 f9 3d
       -0.60021144 -0.012517515 -0.27345824 0.121827684
000230 02 61 17 be 78 34 31 bd a4 33 aa bc 32 14 85 be
       -0.147831 -0.04326293 -0.020776577 -0.2599197
000240 a9 50 0d bf 4f 09 8c 3e a6 19 9a be f9 c4 39 3e
       -0.552012 0.27350852 -0.30097693 0.18141545
000250 cd 83 98 be 03 78 8d 3e cf c3 f5 bd 28 25 60 3e
       -0.29788056 0.27630624 -0.12000238 0.21889174
000260 8d 89 f1 be 94 da bd 3e aa f4 9a be d5 af df 3e
       -0.47175255 0.37080824 -0.3026479 0.43688837
000270 30 ed e2 be e0 bd eb 3e ac 84 0a bf 8e c7 0b 3f
       -0.44321585 0.460433 -0.5410869 0.5460137
000280 b2 15 c5 be 9f 5d d8 3e c9 41 99 be 57 64 a7 3e
       -0.38493115 0.42258927 -0.29933003 0.3269374
000290 9c 10 09 be 6e 68 44 3e f6 5b bd bc a5 d2 ca 3d
       -0.13385242 0.19180462 -0.02311514 0.099034585
0002a0 f4 1b c7 3d 0e 19 3a be b0 5c 5f 3f a1 a8 d3 3e
       0.097221285 -0.1817362 0.87250805 0.4133959
0002b0 17 4e 18 3f 2c af 81 3e 45 6f 9c 3f 42 d4 0a 3e
       0.59494156 0.25328958 1.2221457 0.13557532
0002c0 d3 35 b6 3f e3 ce e5 3d e4 82 c4 3e e8 58 07 bd
       1.4235176 0.11221101 0.38381112 -0.033043772
0002d0 72 a7 4a 3e f4 0e f5 b8 b0 8c 20 3e 7b 6f 85 3c
       0.19790438 -0.000116852956 0.15678668 0.01628851
0002e0 31 25 2e 3e 37 f6 60 3d 91 ac 89 3e da 28 6b be
       0.17006375 0.05492231 0.2688947 -0.22964802
0002f0 38 9e 0e bd c1 0b ce 3b e8 61 00 be a4 11 4b 3e
       -0.034818858 0.0062880223 -0.12537348 0.19830948
000300 d0 12 ab bd 71 9f 42 3e ee 86 3b 3e 1d 6f aa be
       -0.083531976 0.19006135 0.1831319 -0.33287898
000310 6c ef 22 be c0 02 ec bc c8 73 d6 be 2e 5c 94 3d
       -0.15911645 -0.028809905 -0.4188521 0.072441444
000320 dc c6 22 bf 6f b5 06 3e b7 0e 00 3e c1 38 ae be
       -0.63584685 0.13155149 0.12505613 -0.34027675
000330 13 b3 27 be ca 63 45 be 1c d2 c7 be f8 de c9 bd
       -0.16376905 -0.19276348 -0.39027488 -0.09856981
000340 5a fd 96 be 22 f8 9c bb c4 86 1b 3e 1a 77 9a 3e
       -0.29490167 -0.004790322 0.15188128 0.30168992
000350 40 97 9e 3d 2d 73 07 3f f1 a1 0c 3c ce 09 26 3e
       0.077436924 0.5291012 0.008583532 0.16214678
000360 8e f7 66 bd 66 a7 0d 3d ab e1 a9 bd 44 a7 26 bd
       -0.05638843 0.03458347 -0.08294996 -0.04068686
000370 3e 67 c5 3e 27 ec 89 3e 57 ee 05 bc 3d ed 25 3e
       0.3855533 0.26937982 -0.0081745 0.1620378
000380 60 b1 24 be 40 74 16 3e 09 96 6a be 67 65 85 3d
       -0.16083288 0.14692783 -0.22908796 0.065134816
000390 92 2d 7d 3e d6 5a 93 3e 48 6c aa 3d 62 9b d8 bb
       0.24724415 0.2878024 0.08321434 -0.00661032
0003a0 06 ec 9d 3e 60 20 c8 be ae 78 0d 3f a3 e5 c5 be
       0.30844134 -0.390872 0.5526227 -0.3865176
0003b0 28 8d 92 3d 03 b9 93 3e a9 37 67 3d bc c2 6e bb
       0.0715583 0.2885209 0.056449566 -0.0036431989
0003c0 ec b3 db 3e 4b 3d 27 bf b2 5e 8c 3f ba 98 cd bf
       0.42910707 -0.653279 1.0966399 -1.6062233
0003d0 e1 4f b5 bd 83 af 8b 3e a6 d5 e0 bd 79 ba c9 3d
       -0.08853126 0.27282342 -0.1097825 0.0985002
0003e0 85 82 db 3d f6 cd d4 3d 02 8d 60 3e e5 26 20 3e
       0.10718254 0.103908464 0.2192879 0.15639837
0003f0 32 62 1c 3e b4 71 83 be 1d ab 34 bd 4c e6 84 3e
       0.15271834 -0.25672686 -0.0441085 0.25956953

sequential/dense_1/MatMul f4 [10, 20]
000000 e8 9c 59 3c 10 65 75 3e f1 a2 5d 3f 49 40 08 be
       0.013282038 0.23964334 0.86576754 -0.13305773
000010 11 38 4d 3f aa 65 a5 be 48 57 a4 be 7a 54 c6 bc
       0.80163676 -0.32304126 -0.3209784 -0.024210203
000020 a6 d3 1a 3c 47 bc 87 3f 07 9b c2 3f 4d fd 8e bd
       0.009449875 1.0604333 1.520356 -0.06981907
000030 de c0 7d 3e 7c ac 2f bf fa 59 8e 3f 51 15 3a 3f
       0.24780604 -0.68622565 1.1121209 0.72688776
000040 ee 3e 8d 3e 91 d7 f6 3e 95 41 72 3e a4 93 88 3e
       0.27587074 0.4821134 0.2365783 0.2667514
000050 61 09 97 3e fb eb 3f 3e ce 24 09 bf 86 7f ec be
       0.29499343 0.18742363 -0.53571784 -0.46191043
000060 6e 30 9d 3e d3 6e 23 3f f2 26 1b 3e dd b4 15 bf
       0.3070101 0.6384098 0.15151575 -0.584791
000070 3e df d0 be b9 1e 86 3e 33 97 0a 3f 30 d5 6f 3f
       -0.4079532 0.26195315 0.5413696 0.93684673
000080 d3 66 27 bd ec 62 20 be 7b 1e 41 3f be c5 2a 3e
       -0.040869545 -0.15662736 0.75437135 0.16676995
000090 e5 7a 79 3e 66 39 d0 3d af 35 b3 3e ec 27 1a bf
       0.24363287 0.10167198 0.35001895 -0.60217166
0000a0 56 6a 26 3e 8d 9f 3f 3e 20 b8 40 3f 2e 3b bc 3e
       0.16251501 0.18713208 0.7528095 0.367639
0000b0 f3 cb a7 3e b7 a3 24 bf 13 32 db 3e 2b 92 83 be
       0.32772788 -0.6431231 0.4281164 -0.25697455
0000c0 1e 7d 3f 3d ee 55 72 3f 7d e4 b6 3d 69 67 8f 3e
       0.04675018 0.9466237 0.089302994 0.28008583
0000d0 4d ab 56 3c fa 6f f7 3e 05 05 82 3e b3 8c eb bc
       0.013102365 0.4832762 0.25394455 -0.028753614
0000e0 1b 9b 68 bf 8c c8 16 3f 41 b7 b2 be 29 e0 57 3e
       -0.9086167 0.5889976 -0.34905437 0.21081604
0000f0 56 bf e4 bd 9e e2 0c 3f 39 39 33 3f 14 88 c4 3e
       -0.11169307 0.5503329 0.7000919 0.3838507
000100 f8 78 b8 3e f2 73 26 3f 69 37 2f 40 56 59 6f bd
       0.36029792 0.6502067 2.737757 -0.058434807
000110 ae dc de bc 95 8f b1 3f 45 af f0 bd 0c 3b be 3d
       -0.027204838 1.3871943 -0.1175218 0.09288606
000120 0b c6 57 3d 95 30 76 3f 57 56 63 3f 73 d4 a2 3c
       0.052679103 0.9616788 0.8880362 0.019876694
000130 f3 6c 89 3e c7 5b 42 3f 13 a6 26 3e 5e 51 5f 3e
       0.26840934 0.7592129 0.1627429 0.21808383
000140 02 1a 10 3e 4d 25 fa 3c 02 cf 67 be 8d 1a 82 be
       0.14072421 0.030535365 -0.22637561 -0.25410882
000150 0b 9f cb bd 62 de 12 3f b3 e2 d6 3e 5e b1 cd 3b
       -0.099424444 0.5737058 0.41969833 0.0062772473
000160 8e 7c c9 be 92 54 84 3e 02 91 36 be aa aa 98 3f
       -0.3935284 0.25845772 -0.17828754 1.1927083
000170 cb 2c 33 be b9 3f 8a 3d 80 5b 03 3f 09 0e c0 3f
       -0.17497556 0.067504354 0.5131149 1.5004283
000180 9d 76 03 bf f8 a4 93 3e 15 79 15 bf 9e 10 0b 40
       -0.51352865 0.288368 -0.5838788 2.1728892
000190 4e 9c 39 3e 60 b9 c1 bd 3e d6 28 3f 5d c9 00 3f
       0.18126032 -0.094591856 0.6595191 0.50307256
0001a0 51 ca f3 bd a5 bf 11 3f 13 8c b4 3f d7 34 c9 3f
       -0.11903823 0.5693305 1.4105247 1.571925
0001b0 6d 2b 63 3f bb 0d cc bc 7f 9f d0 3e 1a 21 b5 3f
       0.8873814 -0.024908891 0.40746686 1.4150727
0001c0 f4 92 78 3e 79 12 ab 3f 4c f8 7f 3e 21 6b a5 3e
       0.24274808 1.3365012 0.24997061 0.32308295
0001d0 7c ae a6 bd c2 2c 8f 3e 96 a3 28 3e 4b 35 87 be
       -0.08138749 0.27963835 0.16468653 -0.26407847
0001e0 1e 10 0c 3f d8 b2 11 bf d7 61 f5 3e 36 c8 40 bd
       0.5471209 -0.5691352 0.47926208 -0.047065936
0001f0 44 7c 59 3f d9 65 9c 3e 00 f9 ad bd 7e 00 07 3f
       0.8495524 0.30546454 -0.084947586 0.52735126
000200 33 57 6d be 82 4f 29 bf db 49 15 3f f6 0d eb 3e
       -0.23177795 -0.66136944 0.5831582 0.4590909
000210 7f dc 90 3f da fa d5 3c 82 5c 4d bc a9 66 24 3e
       1.131729 0.026120592 -0.012534263 0.16054787
000220 97 af 0a 3e 53 cf 15 be 23 28 95 3f 76 b9 0e 3e
       0.13543545 -0.14629869 1.1652874 0.13937935
000230 df 96 19 3d 4b 38 cc 3e 91 9d 79 bf fc 81 a8 bd
       0.037497398 0.39886698 -0.9750605 -0.082279176
000240 17 35 6f bd 62 36 91 be 46 a1 24 bf 2a 8f 86 3f
       -0.05840024 -0.28361803 -0.64308584 1.051244
000250 e1 0b 8a 3e 42 10 83 3d 21 d2 8f 3f 1c a2 af 3c
       0.26962188 0.06399585 1.1236001 0.021439604
000260 08 31 f9 bd ee 6b 8f 3c 1e 84 b9 3e 18 84 e6 3e
       -0.12167555 0.01750752 0.3623361 0.45022655
000270 75 00 c6 bd 5f dd 3e 3f 9a 9d 8e be 7f cd 4c bf
       -0.09668056 0.74556535 -0.27854615 -0.8000106
000280 35 90 e1 be 81 b5 31 3f b2 34 e4 3e d1 c5 23 3f
       -0.44055334 0.6941758 0.44571453 0.6397372
000290 cf 36 0e bf 0b 0f e7 be 45 44 db bd 47 a0 0d 3f
       -0.5555238 -0.45128664 -0.10706381 0.5532269
0002a0 37 af 21 3f 98 67 e6 be cf 61 fa 3d 96 cb a0 be
       0.6315798 -0.4500091 0.12225687 -0.31405324
0002b0 ea e1 31 bf ef 91 06 3f 28 7f 8a be 41 f6 3f 3f
       -0.6948534 0.52566427 -0.27050138 0.7498513
0002c0 f0 f7 67 3c 3f b3 1a 3c 08 cc 64 bc fd 4c 9b 3f
       0.014158234 0.00944215 -0.0139646605 1.213287
0002d0 1c c5 b4 3f d6 13 4c 3f 3e ae cb 3d e3 e7 d5 3e
       1.4122653 0.7971777 0.099453434 0.41778478
0002e0 37 8b 6b 3f 94 27 34 3f 2e dc 38 be d1 9b 01 3e
       0.920093 0.7037289 -0.18052742 0.12657095
0002f0 34 b2 63 3f b7 eb 69 3d 57 af 73 be ca 45 24 3e
       0.8894379 0.05710956 -0.23797356 0.16042247
000300 8d 7f 48 3f 90 7b 19 3d dc 56 7a 3e 08 87 35 3e
       0.7831963 0.037471354 0.24447197 0.17727292
000310 6e 0a b6 3f a3 c3 7b be 54 94 47 3f ca 20 5e bd
       1.4221933 -0.24586348 0.77960706 -0.05423049

sequential/dense_2/MatMul f4 [18, 10]
000000 90 34 98 bd cb 30 cf be b7 2e 0a 3f 41 67 38 3e
       -0.074319005 -0.40466914 0.5397753 0.18008138
000010 8f 49 89 3e 6a 56 b9 3e 6a 00 ac be 40 d3 b9 be
       0.26813933 0.3619874 -0.33594066 -0.36293983
000020 80 00 c8 be f9 04 4d 3f a7 38 bb 3e c2 a1 85 3d
       -0.3906288 0.8008571 0.3656666 0.065249935
000030 a6 bd fe be d2 70 14 bd e5 98 e8 be 53 94 96 3e
       -0.49754065 -0.036240406 -0.4542915 0.29410037
000040 97 cd 82 3e 4c 8f d3 3e 12 b4 5e 3d 9a c0 92 3e
       0.25547478 0.41320264 0.054370947 0.28662568
000050 b4 6f c8 3e b5 81 fa bc b5 bd 43 bf e4 e7 8d bf
       0.39147723 -0.030579427 -0.76461345 -1.1086392
000060 6c e1 74 be 28 7e 1a bf 99 6a 60 3e 5f ba bd be
       -0.23914117 -0.6034875 0.21915664 -0.37056252
000070 c8 8b 6d 3f 94 c3 01 3f a6 7b df be 24 11 59 3f
       0.92791414 0.50689054 -0.43649024 0.8479178
000080 65 cf 22 3f c5 3a 81 3e f6 d9 2b bf 03 12 d9 3e
       0.6359771 0.2524015 -0.67129457 0.42396554
000090 e5 d7 3b bf 59 c6 91 3b cf 28 33 bf 0e 55 d5 3e
       -0.73376304 0.0044486937 -0.69984144 0.41666454
0000a0 a0 c6 75 3f 10 17 4f bf f5 36 84 3e 49 7a 05 be
       0.960062 -0.80894566 0.2582318 -0.1303493
0000b0 3a 3f 4c 3e 21 6a 71 bf 4b 62 1e be bc 97 0b 3d
       0.19945994 -0.94302565 -0.15467183 0.034080252
0000c0 06 96 6d be d2 ef f6 3d 6b 81 98 bd 77 30 35 3e
       -0.2320176 0.12057461 -0.074465595 0.17694269
0000d0 91 f2 0b bf eb 6e d4 be 31 bf fe 3e 79 1f 96 3d
       -0.54667 -0.41490874 0.49755242 0.07330222
0000e0 ca 37 7c 3e 4b 6d 1b be 7b f7 9d be 85 0d 38 bf
       0.24630657 -0.1517841 -0.30852875 -0.7189563
0000f0 c8 b2 23 3f af b0 12 be ce 8b 73 3e 01 0f 03 bc
       0.63944674 -0.14325212 0.237838 -0.007999183
000100 59 1e 7f bf de 06 1f 3f e7 8c 00 bf 8d cc 01 3e
       -0.9965568 0.62119853 -0.50215 0.12675686
000110 62 f6 b7 be ae 9c f1 3e be 1e ac bf 34 ba 4f 3d
       -0.35930163 0.4718985 -1.3446882 0.050714687
000120 48 d7 00 3e 48 c9 85 bf ed 13 97 bf 82 1d 37 3f
       0.12582123 -1.0452051 -1.1802956 0.715294
000130 aa 9c 06 3f 0c 88 79 bf 60 6f bb 3e f8 2b e9 3e
       0.525828 -0.97473216 0.3660841 0.45541358
000140 f7 ed 20 bf 40 75 9d be bd 75 d5 bd af 48 5f 3f
       -0.62863106 -0.30753517 -0.104228474 0.8722028
000150 8a 01 29 bf 88 79 90 bf 78 32 86 3d 48 b5 54 bf
       -0.66017973 -1.1287088 0.06552595 -0.83089113
000160 f1 57 7e 3e 17 b0 f3 3e 4c 6f 54 bf 7d 4b 1c 3f
       0.24838234 0.47595283 -0.82982326 0.61052686
000170 55 c0 b7 bf fe ab 1e c0 0b 0a 44 3f 86 5c 08 be
       -1.435557 -2.4792476 0.76577824 -0.13316545
000180 18 bf f3 3d 2f 29 3d bf 0a 90 8f 3d ab e6 f6 bd
       0.119016826 -0.73890966 0.07009895 -0.12055715
000190 7a 11 52 3d e6 b0 e1 3e 2c 74 63 be c6 65 29 be
       0.0512862 0.44080275 -0.22212285 -0.1654273
0001a0 32 0b 55 3f 0b b2 f8 bd 76 ff 7e bf 50 2a 69 be
       0.8322021 -0.12143334 -0.9960855 -0.22770047
0001b0 9b 41 63 bf bc 31 88 bf ef e0 54 be e6 25 8a 3e
       -0.8877198 -1.0640178 -0.2078893 0.2698204
0001c0 9d ee f2 be c2 0e 59 3e 99 a9 28 3f ba 08 01 3e
       -0.47447672 0.21197036 0.65883785 0.12600985
0001d0 32 7b 17 bf 15 0e 19 bf a5 3d 07 bf f5 3b 3b bf
       -0.59172356 -0.5978711 -0.5282844 -0.7313836
0001e0 3b f1 3f 3f a6 c9 6a 3e 78 a2 a8 3e 4e 7e 56 be
       0.74977463 0.22928485 0.32936454 -0.20946619
0001f0 29 77 4c bf 13 80 d7 bf d6 21 be be 22 a5 29 3f
       -0.79869324 -1.683596 -0.3713519 0.662676
000200 ca 60 6b bf e4 15 cb be 41 9e cc 3e 7b c2 fc 3d
       -0.91944563 -0.3966514 0.39964488 0.12341782
000210 ea 85 52 bf d7 cb d4 3e ff eb ee be 79 a3 d1 3e
       -0.82235587 0.41561767 -0.46664426 0.40945032
000220 2d e2 89 3e 66 71 2f be 5f 72 8f bf 73 c3 bb be
       0.2693037 -0.17133102 -1.1206778 -0.36672553
000230 d4 2a 07 3f 35 1b 9d be 0e 31 e5 be 0f 75 40 bf
       0.52799726 -0.3068482 -0.44763988 -0.7517862
000240 20 f2 52 be 63 e5 50 be 9f ee 5c bf b8 a2 90 3f
       -0.20600176 -0.20400004 -0.86301607 1.1299658
000250 b6 19 b6 3e 19 7a b2 be 9f d1 83 bd 86 78 ea bf
       0.3556649 -0.34858778 -0.064364664 -1.8318031
000260 71 47 5f 3f 49 5e 08 3f a4 b7 14 bf c7 56 0b be
       0.87218386 0.5326887 -0.58092713 -0.13607322
000270 01 ac d4 bf c5 5b 22 bf 6e fd 28 3f e0 ab 76 bf
       -1.6614991 -0.6342128 0.66011703 -0.9635601
000280 14 8b a3 3a 55 80 78 bf d6 0a ad 3e 5d eb a2 be
       0.0012477362 -0.9707082 0.3379733 -0.31820193
000290 36 99 db 3e e9 d5 4e 3f 0f 8c 42 3e dc 94 13 bf
       0.42890328 0.8079515 0.1899874 -0.57649016
0002a0 40 27 b6 be 85 fc 1c c0 8f 02 18 3d aa e2 92 bf
       -0.3557682 -2.4529126 0.037111815 -1.1475422
0002b0 da f1 07 3e 66 ce 3e be 32 5f 9c bf 9a 15 1b 3f
       0.13275853 -0.18633422 -1.2216551 0.60579836
0002c0 88 c6 1a bf 5a bd 86 be 4c 26 3d 3f aa aa da be
       -0.60459185 -0.2631634 0.7388656 -0.4270833
