model/point_history_classifier/point_history_classifier.tflite (tflite, 6696 bytes, 6 tensors)

sequential/dense/BiasAdd/ReadVariableOp f4 [24]
000000 21 ba 32 be ab ce ec bd 0a 61 e6 bd 11 83 17 be
       -0.17453815 -0.11562856 -0.112489775 -0.14796092
000010 26 61 c8 bd a1 7f e4 3d 9e 73 2a be 7d f1 48 3e
       -0.097841546 0.11157156 -0.16645667 0.1962337
000020 41 4a 00 be ec b1 88 be 9c 08 07 be b6 8f fc bd
       -0.12528326 -0.26698244 -0.13186878 -0.12332098
000030 72 63 8b 3d cd f5 25 be c7 d5 11 be 1e 69 08 be
       0.06806077 -0.16207047 -0.14241706 -0.13321349
000040 29 f4 2c be 48 84 a1 3d 34 1d 05 3e 57 27 04 bd
       -0.16890015 0.07886559 0.12999421 -0.03226408
000050 13 fb f9 bd 63 a9 4d be e8 08 29 3e 1c 69 42 3d
       -0.12206092 -0.20084147 0.16507304 0.04746352

sequential/dense_2/BiasAdd/ReadVariableOp f4 [10]
000000 56 82 d1 be 21 3b fb bc 45 1e 21 be 85 3d 05 bf
       -0.4091975 -0.030667843 -0.15734203 -0.52046996
000010 80 f3 3d be 9f cb 0c 3e db 56 0a 3f 03 58 5b be
       -0.18549919 0.1374955 0.5403878 -0.21420293
000020 66 49 c4 3e b9 5a d9 be
       0.3833725 -0.42452028

sequential/dense_1/BiasAdd/ReadVariableOp f4 [10]
000000 eb 31 c2 3f 52 a8 ae 3f 3b 18 b6 3f b4 ff 84 3e
       1.5171484 1.3645117 1.4226145 0.25976336
000010 f6 a6 a5 3f 03 72 06 3e 02 e3 00 3f f0 80 52 3f
       1.2941577 0.1312943 0.50346386 0.82227993
000020 a8 22 2d be 54 db 5c 3f
       -0.16907752 0.8627217

sequential/dense/MatMul f4 [24, 32]
000000 32 c8 8e 3e dc 82 b4 bd 78 85 b5 bf 1b 25 92 bf
       0.27887112 -0.08814022 -1.4181356 -1.1417574
000010 5d 5c aa be 2a 38 75 bf df 25 0c bf 72 7b f3 be
       -0.33273593 -0.95788825 -0.54745287 -0.4755512
000020 fd 43 ac be 27 af 77 bf 0f 8d 7b 3f 4e b7 f9 be
       -0.3364562 -0.96751636 0.98262113 -0.48772663
000030 2f 78 1a bf fe eb ef bc b1 8a cd be 58 ae 1b be
       -0.60339636 -0.029287335 -0.40144876 -0.15203226
000040 b8 7c c1 be e4 35 b9 bd 01 75 13 bf 38 22 33 3e
       -0.37790465 -0.09043482 -0.5760041 0.17493522
000050 4a d2 57 3e 1c bd 48 3e fd a0 0d bf 32 c7 60 3d
       0.21076313 0.1960339 -0.55323774 0.054877467
000060 2a bd 2d bf 2a a9 8a 3e 69 51 2a bf c9 1c a4 3d
       -0.67866766 0.27082187 -0.6653047 0.08013303
000070 c0 e0 53 be b1 b8 a0 3d 4b 26 9b 3e bd 6c 2b 3f
       -0.20691204 0.07847727 0.30302653 0.66962796
000080 61 5a 0e be 00 58 fe 3c 2d fa e9 bf 13 2f e2 3d
       -0.13901664 0.031047821 -1.8279473 0.11044135
000090 f9 23 82 bf 82 cd a2 3d 44 ec 84 bc ef 45 6e 3e
       -1.0167228 0.07949354 -0.016225941 0.23268865
0000a0 a4 52 cf 3d 1a e9 8c be 51 15 f9 bc 69 48 9f 3d
       0.10123184 -0.27521592 -0.030405672 0.07777483
0000b0 f4 02 4f bf b9 96 49 3e 53 7f 94 be 77 f6 ae 3c
       -0.8086388 0.19686402 -0.2900339 0.021357758
0000c0 71 63 4c 3c 45 c3 72 be 8f 34 a4 3e 48 9d 1a bf
       0.012474881 -0.23707302 0.3207135 -0.6039624
0000d0 15 de 30 3f 88 d7 e3 be cd 2f f8 be 07 7e 3a be
       0.6908887 -0.44500375 -0.4847397 -0.18212138
0000e0 41 07 be 3c 7b 18 8b bd 0f bd 6f 3e 12 6f a2 be
       0.023196818 -0.06791779 0.23411964 -0.31725365
0000f0 df 60 0f 3f 30 96 20 bf f8 a0 0b 3f 43 a2 cb be
       0.5600719 -0.6272917 0.54542494 -0.39772233
000100 c6 f2 08 3e 8c b3 89 be 4a 75 c7 3b ae f4 a1 3e
       0.1337386 -0.26894796 0.00608698 0.31631988
000110 8e 5b 5d 3f c4 4d 18 3f 55 be 09 3e 38 41 54 3f
       0.86467826 0.5949366 0.13451512 0.82912016
000120 2e 46 da 3e 62 cd d4 3e 80 8b ca 3f 47 15 13 bf
       0.42631668 0.41562945 1.5823822 -0.5745434
000130 e9 df 3c 3f 51 a5 ba 3c 16 bf 03 3f ef 3a 69 be
       0.7377916 0.022783907 0.5146345 -0.22776388
000140 95 2a 75 3d 21 63 a0 be 2e 90 f9 be 81 a3 c7 be
       0.059855063 -0.3132563 -0.48742813 -0.3899193
000150 e2 c5 90 be 8f 22 30 bf 13 fa c3 3d a7 86 83 be
       -0.28275973 -0.6880273 0.09569182 -0.2568867
000160 7c 19 94 be ed d6 aa 3d 10 c3 47 be 9a aa e6 3b
       -0.28925693 0.08341775 -0.19508004 0.0070393803
000170 6d 99 b7 be 6e 1d 48 bb a8 a3 41 bf fb 0e e0 bd
       -0.35859242 -0.003053512 -0.75640345 -0.10940357
000180 c0 0e 46 3e 90 77 26 3e 17 6e c5 3c 6a f8 c4 be
       0.19341564 0.16256547 0.024100346 -0.38470775
000190 7c c9 74 bf ee 07 e1 be 16 a4 60 be 3a 61 fd be
       -0.9561994 -0.43951362 -0.21937594 -0.4948824
0001a0 5b 62 41 be 9b e0 5b be 90 f8 1d bf 98 c1 a8 3e
       -0.18885176 -0.21472399 -0.617074 0.329602
0001b0 87 f5 23 bc 04 64 90 be ed 6b 2d bd 03 fb 88 be
       -0.010007269 -0.28201306 -0.042339254 -0.26754007
0001c0 1a a2 86 3d 4a 26 b0 be 5c 71 6c 3e e2 a7 09 bf
       0.06573887 -0.34404212 0.23090118 -0.53771794
0001d0 03 4f e0 bd a7 01 b0 3d a3 10 18 3f 81 79 81 be
       -0.1095257 0.08594065 0.59400386 -0.25288013
0001e0 0d 6f 03 3f 84 d8 0d bf 54 f7 2c 3f 24 2e c5 be
       0.51341325 -0.554085 0.6756489 -0.38511765
0001f0 12 de 70 3f 23 c6 a2 3e 64 3f e8 be ac b7 92 3f
       0.9408885 0.3179179 -0.45360863 1.1462302
000200 92 28 98 be 08 a7 48 3e 69 fb 50 3f 0a 56 38 bf
       -0.29718453 0.19594967 0.8163362 -0.72006285
000210 e8 01 31 be e0 7f db bd 12 d5 b0 be 93 cc bd 3e
       -0.17285883 -0.107177496 -0.3453756 0.3707014
000220 65 2c 86 be 67 45 6d 3e f0 fc 04 bf 50 c8 3f 3f
       -0.26205745 0.23171006 -0.5194845 0.7491503
000230 da f1 31 be 68 69 36 3e 12 93 c8 bd 16 a7 f2 bd
       -0.17377415 0.17813647 -0.097936764 -0.11848275
000240 fe fb b1 be 00 0b d1 be f4 f1 f9 be f8 82 9c be
       -0.34762567 -0.40828705 -0.48817408 -0.3056867
000250 ff 95 c0 be 8c 6f d6 3d 65 b2 8d 3e e2 25 01 bf
       -0.37614438 0.10470495 0.27675167 -0.5044843
000260 15 3c 53 3d f2 30 d6 be 44 6d 52 3e 2d dc 56 bf
       0.05157097 -0.41834217 0.20549494 -0.8392971
000270 ca e8 ae 3f c2 76 06 bf da dd 1a 3e 48 f1 18 3f
       1.3664792 -0.5252496 0.15123692 0.59743166
000280 ea ef 55 be 31 bb 3b be 75 6f 76 3f 52 55 bd 3c
       -0.20892301 -0.18333127 0.9626382 0.023111973
000290 f5 46 98 3f f4 1a 13 bd 77 79 88 3f 1f c1 6e 3e
       1.1896654 -0.035914376 1.0662068 0.23315857
0002a0 96 d5 97 bc c1 f7 be bd 6d ec 98 bf 89 56 5f bf
       -0.018534463 -0.09324599 -1.1947151 -0.8724142
0002b0 fa c2 f6 be 11 5b ef bd 20 40 ab bd 36 4c ad bb
       -0.4819563 -0.116872914 -0.0836184 -0.005288626
0002c0 59 af 89 3e 21 b8 21 3e d9 0f d2 be 93 77 51 3e
       0.26891592 0.15792896 -0.41027716 0.2045577
0002d0 43 28 a8 bf d3 25 dd bc 56 46 dd 3e ac 3b d7 3d
       -1.3137287 -0.026995575 0.43217725 0.105094284
0002e0 c0 40 32 3e 9b ac 0e 3e 3b ed 6c 3f 01 04 11 3e
       0.17407513 0.13933031 0.92549485 0.14161684
0002f0 b6 ff 27 3e 81 80 cd 3d 4c 8f 55 bf 46 bb 1e bf
       0.1640614 0.10034276 -0.8342178 -0.62004507
000300 d8 8e 9c bd e6 39 6a be 94 ba 80 be d0 44 a5 bf
       -0.07644433 -0.22873649 -0.25142348 -1.2911625
000310 ee 2b 4b bf 47 91 8b bf 48 88 b4 bf fa 49 c9 be
       -0.79363906 -1.090371 -1.410409 -0.39314252
000320 0a 36 73 bf ae f5 28 bf 08 ca b1 3e ee b2 68 be
       -0.9500433 -0.6599988 0.3472445 -0.22724506
000330 b5 c1 c3 be 7f bf 06 3e a2 85 01 bf d1 cf 38 3b
       -0.38233724 0.13158987 -0.5059453 0.002820004
000340 fa 63 e8 be 3a 3f c8 3d 83 1c f3 be 10 c4 d5 3e
       -0.45388776 0.097776845 -0.4748269 0.41751146
000350 ba 30 db 3e 61 15 a7 3e 3d 20 5b 3f c9 25 35 3e
       0.42810613 0.32633498 0.85596067 0.17690195
000360 18 94 2f 3e e5 2a aa 3e ef 9b 90 be 85 71 60 3d
       0.17146337 0.3323585 -0.28243968 0.05479576
000370 ed 80 1b bf f0 56 18 be 4b 1e 51 bf 5f 79 a8 3d
       -0.607436 -0.14876914 -0.8168685 0.08226275
000380 72 e5 07 3e c8 c5 3a 3d fd f3 97 bf fe 28 9e 3e
       0.1327112 0.045598775 -1.1871334 0.3089065
000390 65 ae 0c bf b0 0f 7e 3e 83 2a 5c 3e 42 5f e9 3d
       -0.54953605 0.24810672 0.21500592 0.11395122
0003a0 e8 7a 35 3e 4b 2b f5 bb d8 e6 9c 3e 4c 8f 10 bf
       0.17722666 -0.0074819676 0.3064487 -0.56468654
0003b0 9f 2d c0 be d6 dd 7c 3d aa 93 45 be d1 d4 73 3e
       -0.37534806 0.061734997 -0.1929461 0.23811652
0003c0 86 85 0e 3a 62 d3 b8 3d f4 78 7a 3e 9c 49 7c 3c
       0.00054367667 0.09024693 0.24460202 0.015398409
0003d0 aa 6d c1 3e fc f1 1f bf 86 f4 08 bf 46 45 9a 3e
       0.3777898 -0.62478614 -0.53498113 0.30130976
0003e0 76 6c 75 bd 31 e4 41 3e bb 55 92 bd f3 6c 83 3e
       -0.05991789 0.18934704 -0.07145258 0.2566906
0003f0 8c 2d 1b 3e 31 45 a6 3e d9 3d ea 3e c5 9a 13 bc
       0.15154094 0.32474664 0.4575031 -0.009009068

sequential/dense_1/MatMul f4 [10, 24]
000000 1e 07 88 bf 0c f6 6b bd 36 da fb be 83 7f 9e bf
       -1.0627172 -0.057607695 -0.4918992 -1.2382663
000010 23 3b 62 bf 4f 1e 14 be c7 af 61 bf 56 d3 a3 3e
       -0.88371485 -0.14464687 -0.8815884 0.31997174
000020 6c 52 3e bf 7e 63 bb bf 6b 0f 4d bf df a7 12 bf
       -0.74344516 -1.4639738 -0.8010165 -0.572874
000030 8b e7 e8 bd 84 11 6b bf c5 81 0a be b8 b3 24 bf
       -0.11372288 -0.918236 -0.13526066 -0.6433673
000040 b2 53 27 bf 13 89 fd bd ce 2b 4a 3e 46 16 1c 3f
       -0.65362084 -0.123796605 0.19743273 0.60971487
000050 81 25 26 bf 34 ad 39 c0 22 c2 56 3f e1 52 0c be
       -0.64900976 -2.9011965 0.83889973 -0.13703491
000060 fc cc 97 3e 25 06 a9 3e 13 7c 30 c0 a6 4c 26 3d
       0.29648578 0.330125 -2.757573 0.04060044
000070 ab 89 ba 3c 08 e0 98 c0 7f 6b fb 3d a9 56 02 3d
       0.022770723 -4.7773476 0.12276363 0.031820927
000080 77 bd e2 bf 59 b7 02 c0 fd 53 cb 3e 11 56 20 c0
       -1.771407 -2.0424407 0.39712515 -2.505253
000090 f9 fb 8a c0 91 be 15 3e 6e 18 fc bf 40 ce 7d be
       -4.3432584 0.14623477 -1.9694955 -0.2478571
0000a0 70 ee 6a bf 3f 3b 35 bf 73 f9 f5 bd dc 06 01 c0
       -0.91770077 -0.7079353 -0.12010469 -2.0160437
0000b0 2c 87 d5 bf 32 e4 ac 3e e3 6d bc 3e c6 0e f6 bf
       -1.6681876 0.3376785 0.36802587 -1.9223258
0000c0 86 e4 27 be 7a 52 7a bf d5 27 c5 be bc 31 99 be
       -0.16395769 -0.977821 -0.38506952 -0.29920757
0000d0 21 de 7f be 43 37 2e bf 66 6f dd bd d9 40 09 3f
       -0.24987079 -0.6805307 -0.10812263 0.53614575
0000e0 6b d1 39 bf 53 98 98 bf 09 f3 5b bf 8f e5 0f be
       -0.7258517 -1.1921486 -0.8591772 -0.14052413
0000f0 c5 18 18 bf 92 e8 2b bd dd 6a f2 bd 57 64 ce be
       -0.59412795 -0.041969843 -0.11836789 -0.40310928
000100 f3 f3 3a bf 58 1d 3f 3e db c2 ef 3e 99 28 57 3f
       -0.73028487 0.18663538 0.4682835 0.8404632
000110 f9 79 af be 88 09 c5 be e5 f3 e9 be 1b d5 03 3e
       -0.34272745 -0.38483834 -0.4569389 0.12874262
000120 14 a4 9a 3f ee 67 fb be f7 8b ae 3f 71 6d 2b 3e
       1.2081323 -0.4910273 1.3636464 0.16740967
000130 f1 44 a4 3e 57 07 c2 3e 13 d5 c7 3f 65 1a 08 bf
       0.32083848 0.37896225 1.56119 -0.53165275
000140 b3 e1 b4 3e ca d6 c5 3e 11 8d 6d 3f c3 6d a6 3f
       0.35328445 0.38640434 0.92793375 1.3002247
000150 c8 be da 3e 4e 08 e5 3e 57 a0 e2 3f 6c 4b aa 3e
       0.4272368 0.44732898 1.7705182 0.33260667
000160 78 73 35 3f 10 c8 10 3f ca 3f 24 bf bd fd 71 3f
       0.70879316 0.5655527 -0.64159834 0.945278
000170 68 62 06 3d 52 2a 12 3f 5b 9d 40 be 12 8f 6a 3f
       0.03280869 0.57095826 -0.18810026 0.9162456
000180 cd cd 06 3e 56 5a a7 3f 02 a6 d1 be 3b 42 02 bf
       0.13164444 1.3074443 -0.40946966 -0.5088231
000190 59 43 a1 be c6 86 be be 3b 7f 0a bf 30 3c 92 3f
       -0.31496695 -0.372122 -0.5410039 1.1424618
0001a0 79 fe b5 be f2 5d 75 be c4 87 06 3f 3b be 8f be
       -0.3554571 -0.23961619 0.5255091 -0.28074822
0001b0 bd 29 b4 be d5 44 bc be 38 e2 d6 3c 19 47 13 bf
       -0.35188094 -0.36771265 0.026230916 -0.5753036
0001c0 ea 7a b0 be cd d9 51 3f 20 b5 7c 3f 31 1f 52 be
       -0.34468776 0.8197296 0.98713875 -0.20519711
0001d0 b9 89 c5 be 56 7b 42 bf 58 3f 9f 3f 38 b9 28 3e
       -0.38581637 -0.75969446 1.2441206 0.16476905
0001e0 7f c6 4c 3f cb a8 d5 bd ce c2 ea 3e 2e e1 60 bf
       0.7999038 -0.10432585 0.4585175 -0.87843597
0001f0 8a 7e 1b bf f2 2f e4 3e 6f db 81 3f 4a 7c a3 3e
       -0.6073996 0.4456783 1.0145091 0.31930763
000200 6e 7a 58 bf 30 d0 c1 be 49 66 c9 3f df 1f 1f 3f
       -0.8456181 -0.37854147 1.573434 0.62158006
000210 5f 44 c6 3e 52 94 15 bf 4e 42 43 3f 2f d2 49 bf
       0.38724038 -0.58429444 0.7627305 -0.7883634
000220 cd ef 07 bf 78 6c f0 3c 64 57 e3 3e f0 cd 49 3f
       -0.5310028 0.029348597 0.4440261 0.7882986
000230 9b 10 d9 be 6f 74 b5 3f 92 34 c1 3e 47 4f eb bf
       -0.4239548 1.4176158 0.3773542 -1.8383569
000240 88 35 5a bd 28 6c 86 3e 99 76 ba bd 8d ca 0b 3f
       -0.053273708 0.26254392 -0.09104652 0.5460594
000250 cb f1 78 3f f2 37 82 be 84 46 fa bd e0 ba 20 3e
       0.97243947 -0.25433308 -0.12220481 0.15696287
000260 a4 fe 14 3f 28 09 cf be 1e ea ff bd c3 f7 18 3f
       0.5820105 -0.40436673 -0.12495826 0.59753054
000270 14 1e 62 bf a9 c0 81 3f 17 78 94 3e fc 33 4d 3f
       -0.88327146 1.013692 0.2899787 0.80157447
000280 90 de bc 3e 70 38 47 3e da 57 5b 3e ad 56 16 3f
       0.36888552 0.19455123 0.21420231 0.58726007
000290 98 2f ef 3e a8 e3 c9 bd b1 d9 8d 3e 68 c5 b0 be
       0.46716 -0.09857875 0.27705148 -0.3452561
0002a0 53 a9 15 c0 28 4c ac 3e d8 c4 d8 bf 71 c4 88 3f
       -2.3384597 0.33651853 -1.6935072 1.0684949
0002b0 2f 78 95 3f 7f 92 5c 3e a2 c4 25 c0 9c 68 21 3e
       1.1677302 0.21540259 -2.5901265 0.15762562
0002c0 9b cc 6e 3f a7 2b 97 bf 77 d7 f9 bf 8a 08 d6 bf
       0.93280953 -1.1810197 -1.951888 -1.6721356
0002d0 34 fa 6c 3c da 82 b0 3f 1d 60 f2 bf 25 02 aa 3f
       0.01446395 1.3789933 -1.8935581 1.3281904
0002e0 51 59 82 3f 2f b7 24 3f 10 89 9e bd 7e df 0d be
       1.0183507 0.64342016 -0.07740986 -0.13854787
0002f0 e6 ad 4c 3f 09 27 b8 bf 92 a7 55 3d 77 37 f0 be
       0.7995285 -1.4386913 0.05216176 -0.46917316
000300 e8 b2 ab bd 2b 35 91 3f 83 46 96 bd 6d 52 d0 3e
       -0.08383733 1.134435 -0.07337668 0.40687886
000310 86 10 98 3e ee 39 91 be 68 28 96 be fb e1 8f 3e
       0.29700106 -0.2836451 -0.29327703 0.28102097
000320 1e bd 9a b9 e3 d3 a8 bf 4f a3 4a bf 1a f6 34 3c
       -0.00029514072 -1.3189663 -0.7915544 0.011045003
000330 73 55 2a 3f b3 d6 a7 3e ce d1 5a 3e 9a eb 19 be
       0.66536635 0.3278099 0.21369097 -0.15031281
000340 f4 a2 59 3f 99 ab ac bf 92 7a 1e 3f 2e f9 9b 3f
       0.8501427 -1.3489867 0.6190578 1.2185419
000350 9d 7a a7 bf 44 92 31 3f 97 97 22 3f 11 27 15 be
       -1.3084294 0.6936381 0.6351256 -0.14565684
000360 61 20 7c bf a0 8a 2a 3e 04 8c f9 bc bf a3 f9 3e
       -0.98486906 0.16654444 -0.030462272 0.4875774
000370 06 87 3c 3c 1b 4d 1b bf b0 1d ab bf cd b2 5d be
       0.0115068015 -0.6066453 -1.3368435 -0.21650238
000380 1f f2 41 be d1 c7 91 bf 0c 98 a3 3c 8e 2e 73 bd
       -0.18940018 -1.1389104 0.019969963 -0.05937057
000390 90 6a 18 3e ed b3 34 3d fc 31 7a be 13 cc 45 be
       0.148844 0.044116903 -0.2443313 -0.1931613
0003a0 a5 6a 8b 3d c9 04 e1 3c 89 59 c4 be 8d 3d 0b be
       0.0680745 0.027468102 -0.3834956 -0.13597699
0003b0 a3 09 c4 be b5 b1 19 c0 86 4d 77 be 53 df 8a bd
       -0.38288602 -2.4014714 -0.24150667 -0.06780877

sequential/dense_2/MatMul f4 [10, 10]
000000 29 6e 94 bf 02 48 fe bf 94 27 02 bf 4b e6 0e c0
       -1.1596118 -1.9865725 -0.5084164 -2.232806
000010 7c e1 32 c0 f8 81 a0 be e6 5d 12 c0 dd d7 a7 bf
       -2.7950125 -0.31349158 -2.286981 -1.3112751
000020 9b c4 2e bf d9 fe 74 bf 83 2a 9f 3f 97 cd eb bf
       -0.68268746 -0.95701367 1.2434849 -1.8422116
000030 09 61 7f 3f 30 77 b8 bf 41 ac 26 be 80 0d 38 c0
       0.9975744 -1.4411373 -0.16276647 -2.875824
000040 42 40 d1 be a1 a6 b0 3f 65 27 37 3f 69 24 7b be
       -0.40869337 1.3800851 0.71544486 -0.24525608
000050 6a 03 a3 3f e5 cb 9b bf e2 74 87 3f 26 0f 8a 3e
       1.2735417 -1.2171599 1.0582545 0.26964682
000060 3d 70 de 3e ba 1f ad 3f dc d5 b0 bf d9 be 04 c0
       0.43445006 1.3525307 -1.3815265 -2.0741484
000070 2b eb 10 c0 d7 88 0a 3f b4 d9 4c bf 67 f4 9e bf
       -2.2643535 0.5411505 -0.8001969 -1.2418336
000080 54 53 94 bc f6 c5 15 3f 16 64 ef be 4a 49 06 3f
       -0.01810614 0.5850519 -0.46756047 0.5245558
000090 b7 d2 e2 3e b0 42 c8 be e2 73 3a 3f 02 a5 8c bf
       0.44301388 -0.3911338 0.72833073 -1.0987856
0000a0 2d 0a ba bf 48 c0 76 3f 98 bf f0 bd ee 4e 2f bf
       -1.4534355 0.9638715 -0.117552936 -0.6847981
0000b0 88 ba 9f 3f 4a b4 58 3f e6 7e ed bf 62 d2 9f 3e
       1.24788 0.846501 -1.8554351 0.31215197
0000c0 10 c3 30 bf f3 f6 c2 bf c8 60 15 3f c5 83 f2 bf
       -0.6904764 -1.5231613 0.583508 -1.8946463
0000d0 0d 92 b5 3e 29 f3 a1 bf 99 25 34 3f 66 69 9d bf
       0.3546299 -1.2652332 0.7036987 -1.229779
0000e0 20 8b 62 bf 34 61 1e bf d9 09 a8 bf 51 bf 71 3e
       -0.8849354 -0.6186707 -1.3128005 0.23608138
0000f0 2b 03 9f bf bc 1a e3 bf 7e 40 aa 3e 7d bf 8a be
       -1.2422842 -1.7742534 0.3325233 -0.2709922
000100 fa f0 85 3f 60 38 fc be af 5a 75 3f 7a 8f 7e bf
       1.0464165 -0.4926176 0.958415 -0.9943768
000110 05 4e 81 be 65 c6 81 3e 38 13 47 bf 2c 40 53 bf
       -0.25254837 0.25346676 -0.777637 -0.82519794
000120 ae 8f 20 bf e4 4a 1f 3f 1a c8 85 bf ed 49 37 3f
       -0.6271924 0.6222365 -1.0451691 0.71597177
000130 bb 79 2e be 45 f0 24 3f f7 14 fc be 6b 93 61 3f
       -0.17038624 0.6442912 -0.49234745 0.88115567
000140 55 f8 c0 bf 23 65 ed 3f f6 6b 78 3f 38 34 16 3f
       -1.5075785 1.854649 0.97039735 0.5867343
000150 4f 89 c9 bf 6f 32 bd be 67 6d ed bc b0 da 8f be
       -1.5745028 -0.3695254 -0.028982831 -0.28096533
000160 c4 96 db bf 3b da 60 bf fe ee 76 bf 1b 9e e2 3f
       -1.7155385 -0.87832993 -0.96458423 1.77045
000170 ef 9c cd bf ec 83 fc 3e c5 be bf be 27 ea d6 3d
       -1.6063517 0.49319398 -0.37450233 0.1049388
000180 73 71 b4 3e 22 c3 b2 be 09 07 36 bd 14 5a 14 be
       0.35242805 -0.349145 -0.044440303 -0.14487487
