model/point_history_classifier/point_history_classifier.tflite (tflite, 6740 bytes, 6 tensors)

sequential/dense/BiasAdd/ReadVariableOp f4 [24]
00000000: bc0b fbbd 40ad 1b3e 7c25 43be eec6 80bd
00000010: afe8 2abe 454a 29be e566 40be 460c 39be
00000020: 79a3 5bbe 56c5 50be 685a 5d3e 1b18 46be
00000030: 4271 15be 8a45 5bbe 8603 09be d176 87bd
00000040: afa0 0abe 79fd 143e 5f6c 82bd 9bf8 54be
00000050: d719 56be 36b0 1dbe e9c8 8ebe f3a9 2ebe
-0.122580975 0.15202808 -0.19057268 -0.06287943 -0.16690324 -0.16532238 -0.18789251 -0.18071088
-0.21449079 -0.20387778 0.21616518 -0.19345133 -0.14593986 -0.21413246 -0.1338025 -0.06614459
-0.13537858 0.14549817 -0.063683264 -0.2079796 -0.20908295 -0.1539925 -0.27887657 -0.17057018

sequential/dense_2/BiasAdd/ReadVariableOp f4 [11]
00000000: 5b8e 68bf 6785 60bd 624f f93d 041a 913b
00000010: 2fe5 54bf 2f87 4b3f cbcc 86bf 3dde 433f
00000020: 1577 8e3f 24b7 d4bf 4cdc a83e
-0.9084222 -0.054814722 0.12173344 0.00442815 -0.83162206 0.7950315 -1.0531248 0.76510984
1.1130091 -1.661839 0.32980573

sequential/dense_1/BiasAdd/ReadVariableOp f4 [10]
00000000: 1bf6 7c3f b2b5 863f 5536 363f fc58 473f
00000010: 6b95 fbbf b690 b43e 644f 1f3f 633b e43e
00000020: 60c8 d53f 0a56 0740
0.9881303 1.0524199 0.71176654 0.77870154 -1.9654974 0.35266656 0.62230515 0.44576558
1.6701775 2.1146264

sequential/dense/MatMul f4 [24, 32]
00000000: 5ad0 093e c224 913e 1085 61be 027b 55bf
00000010: b127 b33e 2aee 32bf 6e4e 563f 04e1 f9be
00000020: a447 a53f 0157 82be 63d6 3dbe 72ce e13e
00000030: a33b b5bd e5d5 ae3d f115 7f3e e988 283e
00000040: 8ec0 0a3f 8aca f73d f468 743f 0e33 873e
00000050: d983 1dbf 3efe 4c3f 3f76 2cbf 291d 773e
00000060: b520 d1be a648 223e e09b 50bd c9fc 7ebd
00000070: 7368 f43e 9af5 91be 0c93 7fbf b054 26bd
00000080: 406b d7bb f8eb f33d c746 e5bf 4234 4cbd
00000090: e566 00c0 20dd 4a3c 8ee4 b2bf 5a83 26be
000000a0: 27d1 6abf cce3 7a3b ebee 24c0 22d8 b23e
000000b0: 6d91 71c0 a2a1 983d 1612 ffbf f993 853d
000000c0: 5aac 83bf 3b67 26bc a75e c83c bc2b 22bd
000000d0: a7c5 293e 018d 723d d50f e6bd 0f4d 203c
000000e0: e4ed 6dbe 5199 c4bd 8628 173f 892e c8bd
000000f0: fdea 383f 64cd c4bd 4314 123f de02 c53d
00000100: 5012 75bd c6d7 72be 3a32 b7bf b90e c6be
00000110: 9ee6 bebf 0eaa 343d ae04 5cbf d99c 653e
00000120: 036f 27bf f9e2 023e c92a dcbd b4bf 173f
00000130: 9f28 0cbf 966c 88be 86ba d8be 0481 9abe
00000140: 85f8 46bf 8ff4 fcbe 1e59 0ebf 1876 0fbf
00000150: 2c8a 4e3f 7326 993c dca1 e83e fe3f f6be
00000160: 17d9 6b3e 1575 d1be f499 473e bcb2 acbe
00000170: c445 c73d 56f1 50be b633 ef3f 48ed 783f
00000180: 000a 8f3e 0008 fb3d 3253 47bf cb1f 67bf
00000190: 3d7b afbd f12a 37bf c62c 25be bc2d 25bf
000001a0: 90f1 fc3b 061a 51bf 40e3 88be 0d43 7dbf
000001b0: 8ba0 f13d 04f4 fa3d 9d64 423e da67 c93e
000001c0: e8f9 c53e 4b10 643f 659d 463e 500b 243f
000001d0: 3bc2 87be 8145 393e a442 a6be 4e24 153f
000001e0: 0c25 8d3c a770 2d3f 7170 b93d c01d 2a3f
000001f0: 9a70 3ebe 4fca 1f3f 814f 5abe f472 c53e
00000200: f0b9 8b3e 480f e4bd 157d 88bf dc37 4ebe
00000210: 3649 babe 8624 22be b697 823d 0aec b9be
00000220: 0c4f f63e a5bd 1bbf 9026 b3bf e0bb 17be
00000230: b611 42bf 911f 65be 54dc 883c 529f 73be
00000240: dab4 5f3f 03bf 8ebe 259f a33f ebb2 fcbe
00000250: 437f 1fbd a948 d3bd fcf7 c9bc f12d dabd
00000260: 2d1e ce3e 1a37 10bd c31f 683f f598 6dbc
00000270: aeff 8c3f 7828 593c fe69 20bf e0bd 4f3f
00000280: f0bd 34bd d89d 5d3d a622 83bf 20b4 c3be
00000290: 53ab 01bf e7f6 47bf 5552 70be 4191 7cbf
000002a0: af7d 9ebc 51c6 37bf 1cbd 54bf da9b d1be
000002b0: 299b d6bf 30e3 2b3e 0fcc 89bf f7b3 ec3e
000002c0: e384 b2be 4731 393f e847 e53d 9d11 d73e
000002d0: 39ae 0ebd c7c2 c53e e1e0 c23d 97c0 1e3f
000002e0: 4304 343f 548c ff3e 3992 513f 692d 593e
000002f0: 1be3 553f 116e 45be 568c 6a3e 905a 14bf
00000300: 26ea 93be ded8 fbbd 7de8 3bbf 7b6b f03f
00000310: 2944 1f3e f9da f13f bbe4 103f a98d 5d3f
00000320: ce6c 403f 58ff 7f3d 8896 bc3f 391a b6bd
00000330: ea37 473f 1e64 90be 32bf 063f 8d86 93be
00000340: ff10 b23d dc95 05bf 369b 58be 90df 39bf
00000350: 14f4 cabc b08f 0fbf 7f66 23bf 022d b5be
00000360: 0164 15bf 4038 8cbd 5494 83be 2c2c b23e
00000370: fab3 46bf bc8c 5abe 7fed 2a3e 4fc3 533f
00000380: b0d6 b93c bcad 6d3e 5cb0 debe 7959 49bf
00000390: 9a6c 58bf f68e 45bf ac13 04bf 5da1 44bf
000003a0: 5fa8 8bbe cdb8 5bbf 562f 923f c80e b73e
000003b0: add9 293e 3d33 febe 95b2 a33e d2fb 5dbe
000003c0: f026 553e 71e9 a9be 0860 2d3e be15 06bd
000003d0: 7c3a b53f b114 983f dd69 a33e ba7c 87bc
000003e0: b7c3 9fbd 7f2a 7b3c edf9 abbe e45b 50bd
000003f0: 3945 a3be d04f 6dbe ed8e 713e c6a2 f23e
0.13458386 0.28348356 -0.22023416 -0.8339082 0.3499122 -0.6989466 0.83713424 -0.48804486
1.2912488 -0.25457004 -0.18538813 0.44102818 -0.088492654 0.08536891 0.24910714 0.16458477
0.54200065 0.12099178 0.95472646 0.2640614 -0.6152931 0.8007544 -0.6736793 0.24132217
-0.40845266 0.15848026 -0.050929904 -0.062252793 0.47735938 -0.28507692 -0.9983375 -0.040608108
-0.0065740645 0.11910242 -1.7912225 -0.049854524 -2.0062802 0.012381822 -1.3975999 -0.16261044
-0.9172539 0.003828275 -2.5770824 0.3493052 -3.774501 0.07452704 -1.9927394 0.06522364
-1.0286973 -0.010156448 0.024459196 -0.03959249 0.16579305 0.059216503 -0.112334885 0.009783997
-0.2323528 -0.09599555 0.5904621 -0.09774501 0.72233564 -0.09609488 0.57062167 0.096196875
-0.059831917 -0.23715124 -1.4312203 -0.38683107 -1.4914129 0.04410749 -0.8594464 0.22423114
-0.65403765 0.12781896 -0.10750348 0.5927689 -0.5474948 -0.26645344 -0.42329806 -0.30176556
-0.7772296 -0.49405333 -0.5560473 -0.5603957 0.80679584 0.018695092 0.4543599 -0.48095697
0.23032032 -0.4090964 0.19492322 -0.33730114 0.097301036 -0.20404562 1.8687656 0.9723706
0.27937317 0.12257385 -0.7786132 -0.9028289 -0.08568428 -0.715499 -0.16130361 -0.6452291
0.007719226 -0.81680334 -0.26735878 -0.98930436 0.11798199 0.122535735 0.18983693 0.39337045
0.38667226 0.8908736 0.19395979 0.6407976 -0.26515374 0.1809292 -0.32472718 0.5825852
0.01722958 0.6775002 0.090546496 0.66451645 -0.18597642 0.62418073 -0.21319391 0.38564265
0.27290297 -0.11135727 -1.0663172 -0.20138496 -0.3638398 -0.15834245 0.06376593 -0.36312896
0.48107183 -0.6083625 -1.3996143 -0.14817762 -0.75808275 -0.22375323 0.016706623 -0.23791245
0.8738533 -0.27880105 1.2782942 -0.49355254 -0.038939726 -0.10316593 -0.024654381 -0.10653294
0.40257397 -0.0352088 0.90673465 -0.0145018 1.1015527 0.013254277 -0.6266173 0.811491
-0.04412645 0.05410561 -1.0244949 -0.38223362 -0.50652045 -0.7811112 -0.23468907 -0.9865914
-0.01934704 -0.7178698 -0.8310106 -0.40939218 -1.6766101 0.16785884 -1.0765399 0.46231052
-0.3486701 0.72340816 0.11195356 0.42005625 -0.03483412 0.38625166 0.095155485 0.6201262
0.70319 0.4991175 0.81863743 0.21208729 0.8354966 -0.19280268 0.22905096 -0.5795069
-0.2888958 -0.122972235 -0.73401624 1.87828 0.15553345 1.889495 0.56599015 0.8654428
0.7516602 0.062499374 1.4733438 -0.0889172 0.77819693 -0.28201383 0.5263549 -0.28813592
0.08694648 -0.5218179 -0.21152958 -0.72606754 -0.024774589 -0.56078625 -0.6382827 -0.353859
-0.5835572 -0.06846666 -0.25699103 0.34799325 -0.7761837 -0.21342748 0.1669216 0.8271989
0.022685379 0.23210806 -0.43493927 -0.7865215 -0.8454071 -0.77171266 -0.51592517 -0.7680872
-0.27276894 -0.8582886 1.1420696 0.35753465 0.16586943 -0.49648467 0.31972185 -0.21678093
0.20815635 -0.33185914 0.16931164 -0.03273558 1.4158473 1.1881315 0.31916705 -0.016538966
-0.078010015 0.015329956 -0.33589116 -0.050868884 -0.3188875 -0.23174977 0.23589678 0.4738981

sequential/dense_1/MatMul f4 [10, 24]
00000000: 4036 59c0 b9b0 9c3e 5e0f 203e c9d8 58bf
00000010: ed67 34c0 a59f 6abe 99d8 8cbf a91e e63d
00000020: 7ea7 08bf 9e21 ef3e a54c 39bc 1643 e6bf
00000030: 3fb0 043f bcec 22be 0477 5ec0 b930 c1bf
00000040: 7753 46c0 e216 933e 3a66 67bf 6047 a23e
00000050: 7e02 a0be cab5 cfbf 98fb 5fbe fdc2 1ac0
00000060: d1d0 f33c 9fb1 78c0 57a6 28c0 8329 79be
00000070: 5312 253e c683 c6be ad92 443d 41a1 6abe
00000080: 4e6a c2bd 123c 8ebf 6ba1 8bbe d497 8fbf
00000090: 2772 2dbf e2fa 1c3d 941c 9dbe 7282 15be
000000a0: 3936 98bc 1f73 71c0 bdc5 51bc 619a 5bbf
000000b0: 801d 863d d431 9e3d 6bfc 3fbc 4ce2 42bf
000000c0: e888 0d3f 7268 19c0 cccc 9bbf ead0 1c3f
000000d0: 21cc f83e ca1e 2fbf a15f f4bf 0173 c63e
000000e0: df15 bcbf d6cb ffbf eaea 633d f35b c4bf
000000f0: 64fe eebf 260f 583f c36c edbd a21f 35c0
00000100: 66fb f23e dd90 01c0 195a 29bf 0930 cebf
00000110: 10c3 1a3f 8366 4fbe 7772 54bf abaf 793c
00000120: 82af b53c 4afc 553f 8d4e e23e 03f8 8d3f
00000130: 4318 8e3d 25ad 873f 8b42 bdbe d6e5 7f3e
00000140: bf9d 8abe 31fb 433f 0b32 fd3e c6b0 783e
00000150: 21dd 473f 91b9 49be 220c 663b f2fb b23e
00000160: a080 28be 49ca 3d3f 0fdf c13f 0dbf e73e
00000170: e3e3 62be 8fec a7be a2cf 9abd e3b3 cb3e
00000180: b79d 343e f79f 163f 8e4b 143f 2a5e 663f
00000190: 565c 923e b8c1 943f 8956 6b3e f13f df3e
000001a0: 9e3d 1e3e c883 313f b6b2 283f 1d38 ec3e
000001b0: dd5a 403f 7587 433d 9666 9d3e ef09 173f
000001c0: d1c6 403e b031 0a3f c769 873f c83d 233f
000001d0: d84c ef3d cb79 dbbc e664 5e3d 34a9 163f
000001e0: f4f0 37bf a435 04bd 5764 84bf e8f2 cc3e
000001f0: 7d51 30bf 9775 bd3f 68b6 873f 275d bbbf
00000200: 546f 863f 53a8 933d 6b61 ea3e c8aa bebe
00000210: fdd7 7e3d 6c70 f2be f434 1cbf b5af 92bd
00000220: 3eff 0cbf b452 d5bd b00e d23e 2b34 ae3d
00000230: b902 8dbf c054 7c3f 796d cc3f c1ca d4be
00000240: a0eb 203e 0342 a0be 8dd7 dbbd 696a 2c3f
00000250: 4b19 0bbe 4a6f 97bc fb44 593c 0345 0ebe
00000260: a371 0a3f f2c2 37be 43c9 bebf 1c10 003f
00000270: 7a25 3fbd 90da ee3d ab40 d03e 5529 3a3f
00000280: 33c4 983d 8da6 8dbe 37a1 893e a2a7 1cbe
00000290: 83b7 fdbd 53a2 353e 1b3e 1dbf b1e7 c33e
000002a0: 1c46 0e3f 2fe3 2a3e d1e8 123f c6f4 21bd
000002b0: 01a7 9c3e 8516 25bc e97a c73d 78b7 413f
000002c0: 2e18 80be 5b81 8b3e 841a 073f 7126 11be
000002d0: 108c a93e 72c8 063f 31ee 4ebd c54f 4a3e
000002e0: 0254 b53e 7317 2a3e 0d79 213f eb1f 533e
000002f0: adc2 9d3e 413b 72bd 0087 0fbf dcf5 1fbd
00000300: 46d4 57bf 7b0e fe3d d817 593e d168 43be
00000310: 94b6 17bf a19c 61bf f7d1 febf 6c64 acbe
00000320: bf2d 0fc0 edbb 16c0 45d8 a03e 5b23 56bd
00000330: adb0 5cc0 fe2c 5bc0 67f5 dcbd 935b 9e3e
00000340: 6cf7 08bf 2b26 1c3d 919b bb3e 6b89 0ac0
00000350: d494 f9be 7a3f 08c0 7297 12c0 53d5 a1bd
00000360: 0b9b a9bf 08a0 e4bd a1b1 e8bf 49f4 c23e
00000370: 30e4 c7bf 1d37 ff3e 0f26 85be 04aa 01c0
00000380: 7c90 fcbd 7366 eabe 19c5 3b3f 042b b0bf
00000390: 6ad7 28bf 6630 1dc0 ffaa babf 7683 babd
000003a0: eb0e 9cbf c0fb 0cbe f2bb 4d3f 3570 9abe
000003b0: 1a2c 27c0 813c 0ebf 1bbe 54be 41c4 b7bf
-3.3939362 0.3060358 0.15630862 -0.8470579 -2.8188431 -0.22912462 -1.10036 0.11236317
-0.5338057 0.46705335 -0.011309777 -1.7989223 0.5183143 -0.1591062 -3.4760141 -1.5092994
-3.0988443 0.28728396 -0.9039036 0.3169508 -0.312519 -1.6227353 -0.21873319 -2.4181511
0.029762657 -3.8858411 -2.6351526 -0.24332242 0.16120271 -0.3877241 0.047991443 -0.22913076
-0.09492932 -1.1112082 -0.2727159 -1.1218209 -0.6775231 0.038325198 -0.30685866 -0.14600542
-0.018580543 -3.7726514 -0.012803492 -0.8578244 0.065485954 0.07724348 -0.011717896 -0.7612655
0.5528703 -2.3969998 -1.2171874 0.6125628 0.48593238 -0.68406355 -1.9091684 0.38759616
-1.4694175 -1.9984081 0.055643953 -1.5340561 -1.8671384 0.84398115 -0.1159301 -2.8300557
0.47457427 -2.0244668 -0.66153103 -1.6108409 0.6045389 -0.20253949 -0.8298716 0.015239636
0.022178415 0.8358809 0.44200554 1.1091312 0.06938221 1.0599715 -0.3696483 0.24990019
-0.27073476 0.7655516 0.49452242 0.24286184 0.7807179 -0.19699694 0.0035102447 0.34957844
-0.16455317 0.7413679 1.5146197 0.45262948 -0.22157244 -0.32797667 -0.07559134 0.3978568
0.17638288 0.58837837 0.5792779 0.8998743 0.28586072 1.1621618 0.2298223 0.4360347
0.15453193 0.6934171 0.6589769 0.4613656 0.75138646 0.047736604 0.3074233 0.5899953
0.18825842 0.5398207 1.0579156 0.63766146 0.11684579 -0.026791474 0.054295443 0.58851933
-0.7185204 -0.03227772 -1.0343121 0.40029073 -0.6887434 1.480151 1.0602541 -1.4637803
1.0502725 0.0720984 0.4577745 -0.3723967 0.0622177 -0.47351396 -0.610183 -0.0716242
-0.5507697 -0.10416165 0.4102683 0.08506044 -1.1016456 0.9856682 1.5970908 -0.4156094
0.15714884 -0.31300363 -0.107344724 0.6734987 -0.13583867 -0.018485684 0.013261075 -0.13893513
0.54079646 -0.1794546 -1.490517 0.5002458 -0.0466666 0.11662781 0.40674338 0.7271932
0.07459297 -0.2766613 0.2688081 -0.15298322 -0.12388518 0.17737703 -0.6142289 0.38262704
0.5557573 0.16688226 0.573865 -0.039540075 0.30596164 -0.01007617 0.0974024 0.75670576
-0.25018448 0.27247128 0.52774835 -0.1417482 0.33114672 0.52649605 -0.050520126 0.19756992
0.35415655 0.16610508 0.63075334 0.20617644 0.30812588 -0.05913854 -0.5606537 -0.03905283
-0.8430828 0.12405106 0.21200502 -0.19082953 -0.5926297 -0.8812962 -1.9907826 -0.33670366
-2.2371671 -2.35522 0.31415 -0.05227981 -3.4482834 -3.424621 -0.10788994 0.3092924
-0.53502536 0.038122337 0.36642125 -2.1646373 -0.4874636 -2.1288743 -2.2904935 -0.079020165
-1.325044 -0.11163336 -1.8179208 0.38077 -1.5616512 0.49846736 -0.260056 -2.026002
-0.12332246 -0.45781288 0.7334762 -1.3763127 -0.65953696 -2.456079 -1.4583434 -0.091071054
-1.2192053 -0.1376791 0.80364907 -0.30163732 -2.6120667 -0.5556107 -0.20775644 -1.4356767

sequential/dense_2/MatMul f4 [11, 10]
00000000: 884b f1bf 4a09 d0bf 9787 b2bf 4cc9 d8bf
00000010: 2e88 80be bc7c 18c0 3602 36c0 59f2 3cc0
00000020: 265b 01c0 da02 acbf a5df 28c0 8182 2cbf
00000030: 6d71 b43f 8840 8b3f c570 09c0 ce8a 38c0
00000040: 7b35 45bf a967 8ebe 47f0 1c40 dd41 06bf
00000050: 41bd 443e 6309 1b40 8840 74c0 b67c 663f
00000060: 9040 fdbe 29d9 cf3d c34d 5bbe 2e6f 83bf
00000070: 062b dfbf be2e b33f eba0 4f3e 8a41 0fbf
00000080: 3ceb 0cbf ce6f 94be 15f4 3e3f 0af0 d33e
00000090: a5ba b13d 783b f5bd e931 803e 949e 583d
000000a0: eb2a 033f 3949 b2be 0597 68bf f483 2bbf
000000b0: 32fd a03f 267a a13e 3539 c4bd e071 b1be
000000c0: a268 4f3f 27e9 b83e 6b9b 3cc0 7007 36c0
000000d0: a10f 8abf 6135 35bf fb0f 05c0 b47c 16be
000000e0: 880e 103f ec99 9fbf c3ca 363f 3761 fd3f
000000f0: e1fd 95be 652f f4bf 2f50 843e 2713 033e
00000100: b69c 493e 63f9 2e3f 905e 333f 2d1a 073f
00000110: 46e9 c4be aa8d 4fbe 40c4 f3bd 0126 a33f
00000120: 6dcc 273f ce37 bbbd 0f3d 213f cbaf 953e
00000130: f654 083e 6a83 9ebe 726f 47bf 7eec d0bf
00000140: 0f87 fc3f 604b 76bf ac8c 66bf 968c 31be
00000150: 42d1 d4bf 3b49 f73e 5d29 303e 2145 cd3e
00000160: 823c 9abf 53b1 efbf 1289 d33f 1931 473f
00000170: 8b16 053f 4095 6ebd 5f85 0bbf cc6f 88be
00000180: 6202 3bbf a17d 4c3f 6797 0dbf dfac f8bf
00000190: 951d 45bf 7164 fabd 86e1 2abf ec2c 3c3f
000001a0: d7ad 7fbf 3c66 943e a4c3 96bf acdf 2c3f
000001b0: ae45 7abf 0c0c bbbf
-1.8851175 -1.6252835 -1.3947629 -1.6936431 -0.25103897 -2.3826132 -2.843885 -2.9522917
-2.0211883 -1.343837 -2.6386502 -0.67386633 1.4097115 1.0879068 -2.147508 -2.883472
-0.7703473 -0.2781346 2.4521654 -0.5244425 0.1921282 2.422448 -3.8164387 0.90034044
-0.4946332 0.10148842 -0.21416382 -1.0268304 -1.7435005 1.399864 0.20276229 -0.5595938
-0.5504644 -0.2899155 0.7459119 0.41394073 0.08678178 -0.119742334 0.25038078 0.052885607
0.5123736 -0.3482149 -0.9085544 -0.6699822 1.2577269 0.31538504 -0.09581224 -0.34657192
0.8101903 0.3611538 -2.946986 -2.844204 -1.078602 -0.70784575 -2.0791004 -0.14696008
0.5627217 -1.2468848 0.7140314 1.9795293 -0.29295257 -1.9076964 0.25842425 0.12800275
0.19688687 0.68349284 0.70066166 0.52774316 -0.38459224 -0.20268884 -0.11902666 1.2745973
0.65546304 -0.09141503 0.62983793 0.29235682 0.1331366 -0.30959636 -0.7790443 -1.6322172
1.9728717 -0.96208763 -0.900584 -0.17338786 -1.662636 0.48298058 0.17203279 0.40091804
-1.2049716 -1.872599 1.6526206 0.7780929 0.5198752 -0.058247805 -0.54500383 -0.26647794
-0.7305051 0.79879194 -0.55309147 -1.9427756 -0.76998264 -0.12226189 -0.6675037 0.73506045
-0.99874634 0.2898425 -1.1778455 0.67528796 -0.9776257 -1.4613051
