model/point_history_classifier/point_history_classifier.tflite (tflite, 6696 bytes, 6 tensors)

sequential/dense/BiasAdd/ReadVariableOp f4 [24]
-0.13953674 -0.17926085 -0.1347084 -0.09567716 -0.39597696 -0.1753658 -0.14411406 -0.13846587
0.07807818 -0.07345919 -0.19386853 -0.14802854 -0.1547294 -0.17004727 0.21061525 -0.07148634
-0.12884216 0.2046429 -0.18379152 0.24064952 0.17561792 -0.15378022 -0.16601576 -0.17357965
00000000: b8e2 0ebe 2890 37be 00f1 09be 63f2 c3bd
00000010: 7ebd cabe 1893 33be a392 13be ffc9 0dbe
00000020: 74e7 9f3d c671 96bd 7985 46be cb94 17be
00000030: 6271 1ebe df20 2ebe 86ab 573e 6e67 92bd
00000040: 33ef 03be e98d 513e d833 3cbe d46c 763e
00000050: 2fd5 333e 9078 1dbe 0900 2abe ddbe 31be

sequential/dense_2/BiasAdd/ReadVariableOp f4 [10]
-0.44275945 -0.33028355 0.18406974 -0.6540917 -0.1478939 -0.11773065 -0.15706778 -0.4767017
1.2452202 0.18033068
00000000: 5eb1 e2be ed1a a9be c77c 3c3e 8e72 27bf
00000010: 8071 17be c41c f1bd 60d6 20be 3f12 f4be
00000020: 6063 9f3f 9ba8 383e

sequential/dense_1/BiasAdd/ReadVariableOp f4 [10]
0.5115905 0.6878401 1.5188919 1.0757627 0.8710027 0.5185829 0.3463717 0.7210599
0.69180757 0.13687913
00000000: 98f7 023f 4a16 303f 0d6b c23f 98b2 893f
00000010: 08fa 5e3f d9c1 043f a257 b13e 6297 383f
00000020: 4d1a 313f 0b2a 0c3e

sequential/dense/MatMul f4 [24, 32]
0.09921023 0.28228635 0.85875875 -0.17607997 0.77301085 -0.3583719 0.1201339 0.118078195
-0.16156986 -0.9036263 0.11193562 -1.1308695 -0.5938387 -0.03708475 -0.501316 -0.113365285
-0.3467168 -0.013948427 -0.814566 0.38657227 -0.36735368 -0.006114549 0.0015657766 0.24435627
-0.46542677 0.5954928 -0.020486644 0.25105232 0.3726528 0.0040830937 0.7621047 -0.016245395
0.004306048 0.11252865 0.18084502 -0.842033 -0.8457683 -0.778615 -0.5161651 -0.34670705
-0.47318056 -0.20554534 -0.3902115 0.13828933 0.021746168 -0.3374162 0.2712099 -0.45130432
0.31544164 -0.40522495 0.098104514 -0.2502277 0.05932334 0.2569483 0.84992266 -0.20495102
0.6147456 -0.34510273 0.6778605 -0.19693853 0.63750887 0.37074882 -0.4968193 1.1042323
0.1534808 0.035399526 -0.2829456 -0.8812889 -1.1723266 -0.31204948 -0.7350189 0.31916472
-0.5978582 0.38186806 -0.034393992 0.87919414 -0.1168896 0.030635364 -0.12486995 -0.13121736
-0.3757644 -0.32011417 -0.52100044 -0.43996626 0.04052488 0.11534327 -0.07769143 -0.44107422
-0.07271454 -0.52911466 -0.21287167 -0.75034314 0.1586763 -0.65165496 1.6911919 0.22537883
-0.11214174 0.005118698 0.38005933 0.0905705 -0.18121848 -0.13947737 -0.487448 0.7939126
-0.08011358 -0.048600834 -0.18465845 -1.5004444 -0.53892344 0.6307579 -0.39239 -0.12551565
0.0687919 -0.49005908 -0.07655237 0.39591813 0.6307477 -1.5428349 0.9995841 -0.5400985
0.03959739 0.6603327 0.051777057 -0.22622225 0.35104796 -0.47696516 0.30768692 -0.3590922
0.017570406 0.012273878 0.23421556 -0.19579941 0.025750952 -0.014262781 0.31955063 -0.046926737
0.09360074 0.80010486 -0.87738204 0.47736672 -0.005839927 -0.50438964 -0.11528364 -0.21030013
0.008827235 0.004612599 0.16247497 -0.47270775 -0.7531705 -0.39079738 0.406743 -0.5095931
0.88679516 -1.0837069 0.8453126 -0.6644778 0.65074104 -0.031095378 -0.119114734 -0.9336693
0.27225775 0.29946703 -2.4733422 -1.2245923 -1.0643777 -1.006914 -1.1658572 -0.84252656
-0.33952913 -0.5842778 1.0038489 -0.14141597 -0.43523952 -0.09644725 -0.26675123 -0.05724385
-0.53149194 -0.029748084 -0.30646592 0.14718665 -0.16360869 0.060788877 -0.47560385 0.083637215
-0.3415319 0.14481877 -0.5284133 0.21642826 -0.53570074 0.27977175 0.017081656 0.78441435
-0.0028079748 0.13588002 0.7722155 1.103653 0.76037496 1.067925 0.1800835 0.7179567
-0.1277579 0.47038612 0.018434376 0.1576717 -0.24034648 0.22740167 -0.3151631 0.306174
-0.7544378 0.20114803 -1.0037206 -0.03260056 -0.22310151 0.032553725 -0.12416961 -0.05337446
-0.35811326 -0.19445638 -0.47750062 -0.34840515 -0.2325884 -0.37387505 0.11505861 -0.5212208
-0.022369146 0.30552924 0.47560892 0.55021554 0.5634146 0.62278825 0.05782646 0.9858171
0.3201192 0.4772294 1.2844145 -0.3760173 0.63600403 0.20234953 0.4991641 -0.18089184
0.33577693 -0.30859047 -0.1932297 -0.27076137 0.18206209 -0.7361872 0.1284609 -0.36140564
-0.26528057 0.04809572 -0.27409247 -0.09285924 -0.46338868 -0.07320289 -0.60562456 -0.15619631
00000000: bc2e cb3d d687 903e 9dd7 5b3f 4f4e 34be
00000010: 0ae4 453f 867c b7be c308 f63d fbd2 f13d
00000020: 9272 25be 0e54 67bf 813e e53d 55c0 90bf
00000030: d005 18bf 2ee6 17bd 3f56 00bf 0f2c e8bd
00000040: dd84 b1be f187 64bc 6687 50bf cdec c53e
00000050: c815 bcbe 8e5c c8bb bf3a cd3a 8838 7a3e
00000060: 6b4c eebe 3772 183f 9bd3 a7bc ee89 803e
00000070: 59cc be3e 79cb 853b 4b19 433f 1015 85bc
00000080: c019 8d3b 6c75 e63d 702f 393e 7a8f 57bf
00000090: 4584 58bf 5053 47bf 6523 04bf 9683 b1be
000000a0: b944 f2be 7a7a 52be cdc9 c7be b89b 0d3e
000000b0: 0525 b23c d1c1 acbe 06dc 8a3e 5c11 e7be
000000c0: 9181 a13e a579 cfbe 05eb c83d d81d 80be
000000d0: 08fd 723d ba8e 833e 8894 593f aede 51be
000000e0: f85f 1d3f 4eb1 b0be 4488 2d3f 41aa 49be
000000f0: c833 233f cad2 bd3e 195f febe 7c57 8d3f
00000100: 122a 1d3e 18ff 103d 3fde 90be 269c 61bf
00000110: cc0e 96bf f3c4 9fbe 332a 3cbf 8f69 a33e
00000120: 3c0d 19bf 3684 c33e b7e0 0cbd de12 613f
00000130: d163 efbd 04f7 fa3c d1bb ffbd d85d 06be
00000140: 3164 c0be 01e6 a3be 4960 05bf 4243 e1be
00000150: 6bfd 253d 1839 ec3d af1c 9fbd 7bd4 e1be
00000160: 5ceb 94bd 0f74 07bf 08fb 59be 7d16 40bf
00000170: 0a7c 223e dcd2 26bf fa78 d83f b5c9 663e
00000180: 92aa e5bd c0ba a73b 2397 c23e 077d b93d
00000190: 5691 39be 28d3 0ebe c992 f9be db3d 4b3f
000001a0: 9712 a4bd ab11 47bd 1b17 3dbe 900e c0bf
000001b0: e3f6 09bf 5a79 213f 58e7 c8be 2d87 00be
000001c0: c5e2 8c3d 06e9 fabe 7dc7 9cbd c8b5 ca3e
000001d0: ae78 213f 9d7b c5bf bee4 7f3f e543 0abf
000001e0: df30 223d 900b 293f 2e14 543d cea6 67be
000001f0: 8fbc b33e c734 f4be 2489 9d3e efda b7be
00000200: d0ef 8f3c 6018 493c 34d6 6f3e a47f 48be
00000210: a9f3 d23c 70ae 69bc 249c a33e 4036 40bd
00000220: bfb1 bf3d acd3 4c3f 1c9c 60bf 6969 f43e
00000230: dc5c bfbb ae1f 01bf d419 ecbd eb58 57be
00000240: 1ba0 103c 4925 973b d75f 263e c006 f2be
00000250: c8cf 40bf 9816 c8be 9e40 d03e b274 02bf
00000260: 0205 633f e8b6 8abf 6866 583f 381b 2abf
00000270: f796 263f bcbb febc 6df2 f3bd f404 6fbf
00000280: 5e65 8b3e be53 993e 3d4b 1ec0 71bf 9cbf
00000290: 873d 88bf 8fe2 80bf cf3a 95bf d2af 57bf
000002a0: c3d6 adbe 3b93 15bf 1f7e 803f 59cf 10be
000002b0: b7d7 debe 2386 c5bd 9e93 88be 8778 6abd
000002c0: db0f 08bf 41b2 f3bc 1ae9 9cbe 19b8 163e
000002d0: 0989 27be c2fd 783d 5982 f3be fd49 ab3d
000002e0: 45dd aebe 5f4b 143e 1846 07bf 5f9f 5d3e
000002f0: af23 09bf 3e3e 8f3e d4ee 8b3c 61cf 483f
00000300: 0006 38bb 2224 0b3e eaaf 453f 8044 8d3f
00000310: efa7 423f c4b1 883f cf67 383e 03cc 373f
00000320: f8d2 02be 73d6 f03e b003 973c b174 213e
00000330: 631d 76be fcdb 683e 0f5d a1be d7c2 9c3e
00000340: d622 41bf c0f9 4d3e eb79 80bf 2a88 05bd
00000350: b974 64be 0e57 053d a34c febd 2e9f 5abd
00000360: 9f5a b7be 931f 47be f67a f4be 2962 b2be
00000370: a72b 6ebe 8d6c bfbe d9a3 eb3d ba6e 05bf
00000380: 803f b7bc 546e 9c3e 0383 f33e edda 0c3f
00000390: f03b 103f 0d6f 1f3f 70db 6c3d 825e 7c3f
000003a0: aae6 a33e 6957 f43e b267 a43f 5785 c0be
000003b0: 29d1 223f b734 4f3e 7092 ff3e b63b 39be
000003c0: f4ea ab3e 92ff 9dbe 02de 45be 3ca1 8abe
000003d0: 7c6e 3a3e c476 3cbf 418b 033e 290a b9be
000003e0: dbd2 87be 0500 453d d955 8cbe fc2c bebd
000003f0: 4841 edbe 66eb 95bd 360a 1bbf edf1 1fbe

sequential/dense_1/MatMul f4 [10, 24]
1.8021832 0.28281957 -0.27922565 0.3435664 0.13136876 1.1056774 0.13272153 1.3765414
-0.04852978 0.2717249 1.6247451 0.0861452 0.5034759 0.97111565 0.046330202 -0.37871322
2.3607748 0.22941013 0.33077377 0.13391855 0.015768336 0.15880151 -0.1304476 0.065271065
0.61648077 1.1767 0.1778956 1.4481951 1.0451568 -0.7891554 0.6979931 0.017908197
1.1294954 -0.8291162 0.15226829 1.2473922 1.456516 -0.39362198 0.36535087 -0.17443174
0.22430761 0.23903243 1.2936939 0.3746024 0.259896 0.7816747 -0.31025207 1.2493838
-0.36499277 -0.7163302 -0.2951897 0.6560782 -0.7629777 -0.3264116 -0.29204792 -0.56965053
-0.14170247 -2.5982597 -0.40244776 -0.7653969 0.31809112 -0.27282715 0.8673007 -1.0259516
-0.5788729 0.81915593 -0.6097439 0.8489706 0.8900569 -0.2921739 -1.0131903 -0.6860435
0.524928 -2.4477165 -2.1528296 -0.14876646 -0.73676425 -0.5967571 -2.5831037 0.020390315
0.26298884 -2.3807344 0.0791413 -2.3034506 -1.3403565 -0.15978196 0.048367336 0.5995383
0.08212873 0.08638128 -1.625702 0.12124991 0.06793724 -2.506639 -0.7456501 -2.6177197
-0.42889652 0.106227145 -0.79935956 -0.094877504 1.407639 -0.98212814 0.08336366 -0.3730845
0.23395044 -0.12927978 -1.4748769 0.021706449 -0.19165073 -0.14328599 0.056478627 0.7937823
-0.33948362 0.41113755 -0.1544554 0.06214643 0.5705649 -0.21399175 -0.2484067 0.40703645
-1.1361734 0.15370616 0.56043583 -0.27771503 -0.06154813 0.08554689 -0.5593414 -1.8116813
-0.83633935 -0.30210716 -0.15676269 -0.101048775 0.15355222 -1.0889697 0.2206752 -0.7796744
-1.6726428 0.31681466 0.42927143 0.24274229 0.38717622 -0.39942154 -0.11947978 0.18057622
-0.30823773 0.5703758 -0.36701673 0.6316099 -0.15906376 -1.6646119 0.5726447 -1.1480774
0.8557759 1.1046052 -1.5364811 1.0666906 -0.12970868 -0.8848119 0.5125447 0.35330036
-1.0548469 0.07857039 0.564171 0.17989662 0.04231286 0.34678116 -2.154619 0.47656417
0.56717235 0.50893754 0.047412116 -0.51622087 -0.104644544 0.85726774 0.25534496 0.64117223
-0.23356815 -0.56843555 0.8676522 0.41568533 -0.19064038 0.35793793 -1.6184454 0.025913395
1.0846412 -1.79075 0.32674956 -1.5554757 -1.6686065 0.35728 1.518878 0.7014717
-1.6492667 0.68525517 -0.18319125 -0.3446573 0.45736498 -0.19409277 -0.053877432 -1.6139362
-0.28695783 0.06210057 -0.4242615 0.25485533 0.15892118 -0.36669657 -0.3323581 0.12653664
-1.3743569 0.31543374 0.21712998 0.14077415 0.14514035 0.20477332 -1.2024021 0.60341537
0.919399 -0.17376238 -0.57429767 0.3768133 -0.03748394 1.2226679 -0.5559013 0.54141176
0.4551108 0.4257572 0.67291313 -0.0396302 -0.3626366 0.27047205 0.85660774 0.3136509
0.7405555 0.67997706 -0.34257168 0.68868846 0.7661724 -0.5154863 2.1796494 -0.13360125
00000000: f0ad e63f bacd 903e aaf6 8ebe efe7 af3e
00000010: 8885 063e d686 8d3f 27e8 073e 8232 b03f
00000020: 2ac7 46bd 871f 8b3e a6f7 cf3f e56c b03d
00000030: cce3 003f 099b 783f bdc4 3d3d b3e6 c1be
00000040: ef16 1740 7dea 6a3e 2e5b a93e f221 093e
00000050: 992c 813c dd9c 223e 0e94 05be d6ac 853d
00000060: afd1 1d3f 1b9e 963f 442a 363e 755e b93f
00000070: b3c7 853f 1706 4abf adaf 323f 36b4 923c
00000080: 4e93 903f f640 54bf 38ec 1b3e 8caa 9f3f
00000090: 1e6f ba3f d288 c9be 450f bb3e 3c9e 32be
000000a0: e5b0 653e ebc4 743e c397 a53f e3cb bf3e
000000b0: 1711 853e d51b 483f 5cd9 9ebe cfeb 9f3f
000000c0: 55e0 babe 6a61 37bf 1b23 97be bef4 273f
000000d0: 8252 43bf 6c1f a7be 4e87 95be 9ed4 11bf
000000e0: 741a 11be e349 26c0 a20d cebe 0df1 43bf
000000f0: d7dc a23e 00b0 8bbe 6b07 5e3f 6252 83bf
00000100: 0431 14bf 34b4 513f 2d18 1cbf 2356 593f
00000110: c5da 633f d197 95be 38b0 81bf 8ca0 2fbf
00000120: ae61 063f 63a7 1cc0 f6c7 09c0 3c56 18be
00000130: 959c 3cbf 13c5 18bf 9251 25c0 9709 a73c
00000140: 79a6 863e f45d 18c0 d514 a23d bc6b 13c0
00000150: cd90 abbf e29d 23be d41c 463d 587b 193f
00000160: 1c33 a83d abe8 b03d 0117 d0bf df51 f83d
00000170: ae22 8b3d c66c 20c0 ede2 3ebf b888 27c0
00000180: 5398 dbbe 9e8d d93d d4a2 4cbf 234f c2bd
00000190: 842d b43f c06c 7bbf 91ba aa3d ee04 bfbe
000001a0: b490 6f3e eb61 04be c4c8 bcbf b9d1 b13c
000001b0: 1740 44be 90b9 12be 2256 673d 5135 4b3f
000001c0: ccd0 adbe 9f80 d23e 8e29 1ebe 418d 7e3d
000001d0: 8b10 123f a720 5bbe 535e 7ebe 1567 d03e
000001e0: 216e 91bf 2665 1d3e b978 0f3f aa30 8ebe
000001f0: e419 7cbd 3533 af3d ff30 0fbf 2ce5 e7bf
00000200: 561a 56bf caad 9abe 6686 20be a9f2 cebd
00000210: cb3c 1d3e 5c63 8bbf aef8 613e be98 47bf
00000220: 2919 d6bf 8835 a23e 77c9 db3e 6f91 783e
00000230: f63b c63e fb80 ccbe d1b1 f4bd f9e8 383e
00000240: 56d1 9dbe 2604 123f 9ee9 bbbe 30b1 213f
00000250: 9ce1 22be 0112 d5bf d898 123f 33f4 92bf
00000260: 2114 5b3f b463 8d3f 6aab c4bf 5189 883f
00000270: 5ad2 04be 0883 62bf 2136 033f c9e3 b43e
00000280: 3905 87bf 83e9 a03d 836d 103f d236 383e
00000290: 4050 2d3d 4d8d b13e 47e5 09c0 3800 f43e
000002a0: 3532 113f bb49 023f 3533 423d 0d27 04bf
000002b0: e14f d6bd e675 5b3f 93bc 823e dd23 243f
000002c0: 7d2c 6fbe fe84 11bf 741e 5e3f b5d4 d43e
000002d0: 3b37 43be a443 b73e 3829 cfbf 5448 d43c
000002e0: 86d5 8a3f 4c37 e5bf b84b a73e d419 c7bf
000002f0: e694 d5bf 67ed b63e 986a c23f a693 333f
00000300: 2c1b d3bf e26c 2f3f 7d96 3bbe ec76 b0be
00000310: be2b ea3e 41c0 46be 95ae 5cbd 7695 cebf
00000320: 23ec 92be 2b5d 7e3d ce38 d9be 667c 823e
00000330: 3cbc 223e a7bf bbbe d72a aabe d292 013e
00000340: edea afbf 8880 a13e 5257 5e3e 1927 103e
00000350: ac9f 143e 19b0 513e 50e8 99bf 6e79 1a3f
00000360: bc5d 6b3f c4ee 31be 2c05 13bf aced c03e
00000370: c388 19bd 6280 9c3f 8c4f 0ebf f699 0a3f
00000380: 4804 e93e d9fc d93e 0944 2c3f 4753 22bd
00000390: 81ab b9be 507b 8a3e a54a 5b3f da96 a03e
000003a0: 0c95 3d3f fa12 2e3f 8e65 afbe e34d 303f
000003b0: e023 443f e9f6 03bf 607f 0b40 c4ce 08be

sequential/dense_2/MatMul f4 [10, 10]
-1.4318185 -1.1278348 -1.6134456 -0.46769688 -0.22962433 -1.2940485 -1.4040116 -1.4994408
-1.1517872 -1.6665375 -1.6497517 0.65912336 1.4672748 -0.9404836 0.46464884 0.26377138
1.1260717 -0.9973643 0.9566167 -2.1548457 0.2330036 -0.3926614 0.5102192 2.211277
0.5484413 -1.3368185 -1.4908025 0.36967847 -0.98092085 0.5477291 0.57674253 0.7903839
-0.79436046 -0.102874264 -1.2636113 -0.541664 0.97266686 0.026111118 -1.3411744 0.3934212
-1.0760807 -1.7180746 0.586354 -1.4238636 0.25913236 1.3344339 0.26514336 0.14229305
0.33141384 1.2068955 -1.0682951 0.49208435 0.7608027 0.2913598 0.0598232 -0.40211543
-0.99402845 -1.2373596 -0.2230847 -0.45324734 0.41898224 0.95103014 0.38267305 -1.3083825
0.6127958 -0.43204272 -1.5966672 -0.4874982 -0.4653599 -0.06804909 0.5971486 0.36012614
-1.9068474 0.4731468 0.7297935 -0.9921513 0.69672805 0.49077448 -0.029427111 -0.04565152
0.64511573 -0.11379756 -1.0523087 -0.4249721 -1.491763 0.8004327 -0.108858846 0.5266939
0.6045326 -0.6609583 -0.012167851 0.26605347 -1.5617493 0.065490864 -0.24935396 0.8648731
-0.21657662 1.1408726 -0.29784313 0.11633238
00000000: d445 b7bf e45c 90bf 6385 cebf f775 efbe
00000010: a422 6bbe 62a3 a5bf a7b6 b3bf aded bfbf
00000020: c36d 93bf 1a51 d5bf 102b d3bf 4fbc 283f
00000030: a9cf bb3f 89c3 70bf 74e6 ed3e 0b0d 873e
00000040: 1e23 903f 4453 7fbf d5e4 743f fee8 09c0
00000050: 7f98 6e3e ea0a c9be ba9d 023f 9085 0d40
00000060: a666 0c3f de1c abbf 9ed2 bebf 7f46 bd3e
00000070: a11d 7bbf f937 0c3f 66a5 133f 9956 4a3f
00000080: 355b 4bbf beaf d2bd 04be a1bf 7eaa 0abf
00000090: b200 793f fce6 d53c 9aab abbf 816e c93e
000000a0: 03bd 89bf dee9 dbbf 4c1b 163f 2a41 b6bf
000000b0: ffac 843e bbce aa3f dfc0 873e 45b5 113e
000000c0: 13af a93e 8d7b 9a3f e5bd 88bf 7bf2 fb3e
000000d0: f7c3 423f 1d2d 953e 2c09 753d 13e2 cdbe
000000e0: a678 7ebf cd61 9ebf 5170 64be 0910 e8be
000000f0: d784 d63e b676 733f b9ed c33e 1479 a7bf
00000100: 30e0 1c3f b434 ddbe 975f ccbf 5d99 f9be
00000110: a743 eebe 525d 8bbd bbde 183f 7462 b83e
00000120: 9313 f4bf 4c40 f23e bfd3 3a3f a1fd 7dbf
00000130: c55c 323f cb46 fb3e 2011 f1bc 17fd 3abd
00000140: 4e26 253f b20e e9bd 0db2 86bf f195 d9be
00000150: 17f2 bebf 28e9 4c3f 63f1 debd 69d5 063f
00000160: a6c2 1a3f 9034 29bf ab5b 47bc 2938 883e
00000170: 67e7 c7bf 1320 863d a556 7fbe 5368 5d3f
00000180: 43c6 5dbe 1d08 923f e57e 98be ac3f ee3d
